checkpoints/cnn_lstm/cnn_lstm_o_90.pt (torch, 25922 bytes, 8 tensors)

weight f4 [14, 8, 3]
-0.062064547 0.07809546 -0.16766746 0.14946157 0.110412546 -0.059547417 0.09876909 0.13228613
-0.021816572 0.039103925 0.33037797 0.37233698 -0.3284248 -0.1387261 0.12192944 0.12339315
-0.01812694 -0.110863164 -0.080258556 0.18050426 0.13132079 -0.06836429 -0.04798468 -0.1023107
-0.017837446 -0.076105446 0.05252197 0.025528148 0.13884059 -0.2271087 0.116595104 -0.094237715
-0.16846997 0.032426983 -0.16241318 0.050741665 0.018395761 -0.14613304 0.075239815 -0.053613495
0.07022599 -0.08774678 -0.00039600732 -0.19110003 0.12573396 -0.42683762 -0.4388692 -0.45533314
0.051038735 0.021896781 -0.12418443 -0.12085344 -0.46165255 -0.02787792 -0.16034001 -0.038595285
-0.10029438 0.056815065 -0.11030025 -0.20502132 0.2290068 0.3021519 0.019379454 0.034445446
0.119281255 -0.07289526 0.27091298 0.10560765 0.12178177 -0.07769952 -0.26046893 0.06517934
0.066231355 -0.13599235 -0.06563839 0.11902418 -0.08886927 -0.07375784 -0.055317175 0.25420946
-0.008599176 -0.079779185 -0.1359426 0.095719725 -0.24259852 -0.35014066 -0.20982577 0.15916522
-0.1637031 0.097735226 -0.12926845 0.15002201 -0.13683544 0.022688478 0.015519524 -0.10012806
-0.016569812 -0.24956097 0.03992818 0.36826834 0.32521334 0.031952295 -0.07667554 -0.15104815
-0.052845012 -0.0594576 -0.22136018 -0.339454 0.32891044 0.4704213 0.16076948 -0.16464187
0.09464765 -0.05378815 0.19388172 0.07727826 -0.049212437 -0.04853229 -0.028213624 -0.14386645
-0.03416688 0.08752414 -0.35928637 0.21735488 -0.2567469 -0.4016373 -0.07714976 -0.011323687
-0.10628466 -0.07298098 0.1620933 -0.037298206 0.49447685 -0.49570623 0.15550607 -0.08629924
0.12105656 -0.040711068 -0.008337256 0.09823388 0.011004878 0.395098 0.543762 0.39872175
0.37366134 -0.112922825 -0.018964458 -0.24197347 -0.1782669 -0.38419324 -0.105270684 0.004133583
0.15560174 0.03762579 0.0345296 -0.12003845 0.31208226 -0.29605147 0.074480236 -0.16828337
0.048443574 0.1164771 0.08722291 0.13104996 0.19260092 0.3332881 0.10440604 0.074098304
0.21822849 0.0706535 -0.11836147 0.085310906 0.1190505 0.06252849 0.060585395 -0.22679053
0.08181936 -0.2936163 0.18276016 0.02579737 0.24009274 0.21240401 0.099539176 0.17158405
-0.062518395 0.020187197 -0.13523017 -0.17956994 0.030235164 -0.1605066 -0.097181045 -0.15461728
-0.11215129 0.033318326 0.04662638 -0.2483079 -0.052636284 0.13539675 0.074143216 -0.058904976
-0.016151873 0.33366856 -0.15008017 -0.17396587 0.46288085 0.0370725 0.28294912 -0.04863192
-0.06874706 0.12807727 -0.19311108 0.07084099 -0.07408123 0.21070173 0.2903299 0.2993897
-0.07112001 -0.33752593 -0.012201293 0.53646654 0.18243392 0.58105946 -0.032470264 -0.018811766
-0.16958588 -0.10121812 0.2834832 0.21425787 -0.32375562 -0.36456114 -0.18544713 0.03580047
-0.19817264 -7.231117e-05 0.034456894 0.22803281 -0.12951712 0.15482095 0.0009377027 -0.13364539
0.061318938 -0.35193962 -0.01030112 -0.30061385 0.028830461 -0.051095475 0.0927727 -0.002886943
0.1916381 -0.049235202 0.20350811 0.4190947 0.08609215 -0.1006142 0.15489002 0.063177936
00000000: 6537 7ebd 83f0 9f3d 05b1 2bbe 740c 193e
00000010: f91f e23d fee7 73bd 7347 ca3d 0476 073e
00000020: abb8 b2bc 702b 203d 4d27 a93e f4a2 be3e
00000030: 4c27 a8be 370e 0ebe 24b6 f93d 8cb5 fc3d
00000040: f37e 94bc 3a0c e3bd 995e a4bd 1cd6 383e
00000050: f578 063e 9402 8cbd 958b 44bd 4688 d1bd
00000060: d61f 92bc 2cdd 9bbd 4721 573d 6820 d13c
00000070: 3a2c 0e3e 2f8f 68be 6ac9 ee3d b4ff c0bd
00000080: 6483 2cbe 28d2 043d a44f 26be 7ed6 4f3d
00000090: b5b2 963c e6a3 15be 5517 9a3d d399 5bbd
000000a0: a5d2 8f3d 95b4 b3bd 349f cfb9 baaf 43be
000000b0: 67c0 003e 768a dabe 77b3 e0be 6d21 e9be
000000c0: fe0d 513d e160 b33c 6854 febd 0282 f7bd
000000d0: b95d ecbe 3c60 e4bc 2c30 24be 1716 1ebd
000000e0: 2467 cdbd eab6 683d 19e5 e1bd 1cf1 51be
000000f0: c280 6a3e a7b3 9a3e a9c1 9e3c ab16 0d3d
00000100: bb49 f43d 1c4a 95bd 1bb5 8a3e d348 d83d
00000110: b868 f93d ed20 9fbd 2f5c 85be bf7c 853d
00000120: 4ea4 873d 9441 0bbe 6c6d 86bd f3c2 f33d
00000130: 1801 b6bd 5a0e 97bd 4394 62bd be27 823e
00000140: 8fe3 0cbc 4563 a3bd 8934 0bbe b408 c43d
00000150: bf6b 78be a345 b3be 91dc 56be 35fc 223e
00000160: c9a1 27be 6829 c83d f35e 04be 5f9f 193e
00000170: 971e 0cbe 30dd b93c 9a45 7e3c f10f cdbd
00000180: 6abd 87bc e98c 7fbe bb8b 233d ab8d bc3e
00000190: 5d82 a63e 69e0 023d 1108 9dbd 5eac 1abe
000001a0: 0374 58bd d089 73bd 3eac 62be eacc adbe
000001b0: f366 a83e 10db f03e c1a0 243e e197 28be
000001c0: a1d6 c13d f750 5cbd ee88 463e 1044 9e3d
000001d0: fb92 49bd cbc9 46bd 4220 e7bc ba51 13be
000001e0: 92f2 0bbd db3f b33d 62f4 b7be 4792 5e3e
000001f0: 5474 83be 67a3 cdbe b200 9ebd fc86 39bc
00000200: c6ab d9bd 0d77 95bd c9fb 253e 01c6 18bd
00000210: 122c fd3e 35cd fdbe fc3c 1f3e a8bd b0bd
00000220: 80ec f73d a6c0 26bd fc98 08bc d82e c93d
00000230: ce4d 343c 494a ca3e fd33 0b3f 4225 cc3e
00000240: 8a50 bf3e 1544 e7bd 5a5b 9bbc e5c7 77be
00000250: 998b 36be fab4 c4be 2898 d7bd 0273 873b
00000260: 1056 1f3e 801d 1a3d e96e 0d3d b8d6 f5bd
00000270: 3fc9 9f3e 0f94 97be 1889 983d 7a52 2cbe
00000280: c56c 463d 8c8b ee3d eda1 b23d f631 063e
00000290: 2d39 453e bda4 aa3e d5d2 d53d dac0 973d
000002a0: 4a77 5f3e c8b2 903d 8067 f2bd 7cb7 ae3d
000002b0: c0d0 f33d f00e 803d 6428 783d c73b 68be
000002c0: e990 a73d e054 96be 7b25 3b3e 0255 d33c
000002d0: dfda 753e 7080 593e 32db cb3d bbb3 2f3e
000002e0: a509 80bd 9f5f a53c c779 0abe 2fe1 37be
000002f0: bcaf f73c d85b 24be db06 c7bd fe53 1ebe
00000300: 93af e5bd cc78 083d 4efb 3e3d 6d44 7ebe
00000310: 2599 57bd 72a5 0a3e 66d8 973d 5846 71bd
00000320: ef50 84bc 9bd6 aa3e 9eae 19be 1c24 32be
00000330: b8fe ec3e 55d9 173d b5de 903e 4432 47bd
00000340: 42cb 8cbd b026 033e e9be 45be 1515 913d
00000350: e6b7 97bd 32c2 573e 1fa6 943e 9b49 993e
00000360: 5ea7 91bd 33d0 acbe efe7 47bc df55 093f
00000370: f5cf 3a3e 50c0 143f 8aff 04bd 221b 9abc
00000380: eca7 2dbe 724b cfbd b624 913e 6a66 5b3e
00000390: 4cc3 a5be c2a7 babe dae5 3dbe 83a3 123d
000003a0: c5ed 4abe c4a5 97b8 ac22 0d3d 6f81 693e
000003b0: 23a0 04be 6289 1e3e 2ad0 753a 56da 08be
000003c0: 9129 7b3d 6e31 b4be 07c6 28bc 0fea 99be
000003d0: dc2d ec3c 7d49 51bd 9dff bd3d de32 3dbb
000003e0: c73c 443e daaa 49bd 6e64 503e 9593 d63e
000003f0: 1551 b03d d10e cebd 7d9b 1e3e 6f63 813d

bias f4 [14]
-0.020744963 0.13551407 0.16638234 0.23315044 0.15431629 0.105613835 -0.17183563 0.028501634
0.06626963 -0.020487143 -0.1080387 0.23022261 0.010261383 -0.17824765
00000000: 57f1 a9bc 33c4 0a3e 2260 2a3e fdbe 6e3e
00000010: 1705 1e3e 114c d83d aef5 2fbe 427c e93c
00000020: 5fb8 873d a7d4 a7bc 6543 ddbd 7abf 6b3e
00000030: 5c1f 283c 8d86 36be

weight_ih_l0 f4 [80, 14]
-0.1094444 0.2996774 0.15166049 -0.23562212 0.6605503 -0.12018467 -0.17757292 0.26300678
0.43297297 0.09350853 -0.24156217 0.07392265 -0.28745255 0.049407966 0.119038396 0.2413134
0.21988706 0.11806683 -0.15881069 -0.16678141 -0.36245412 -0.05218272 -0.19458097 -0.2683995
0.050045732 -0.13073194 -0.6195396 -0.6971422 0.39722416 -0.12199825 0.050891563 0.07767292
0.20936829 -0.25180545 0.466491 0.014917863 0.24602078 -0.018028868 0.48006406 0.06355056
-0.4543384 -0.43000865 -0.14763604 -0.06738878 -0.14868996 0.009321518 0.14196016 0.4411985
-0.42321333 -0.0505587 -0.22645225 0.029964857 -0.07393709 -0.11971627 -0.027056668 0.051665816
-0.4553835 0.14403652 0.23907752 -0.26402083 -0.038806666 0.15396117 -0.36574033 -0.194932
0.5497741 -0.0851098 -0.21946704 -0.05177846 0.1588157 -0.31933135 -0.044256724 0.24640143
0.79608756 -0.19257481 0.6365826 -0.057208184 -0.49399164 0.21011385 0.80743265 0.28122485
0.28761637 -0.2086446 -0.120557256 0.026603306 0.16538255 0.3308984 -0.29545513 0.26421
0.3486236 -0.36136177 -0.035084143 0.22163694 0.06667229 0.14239407 -0.12753752 0.049832452
-0.3821527 -0.13643135 0.1401171 0.31421804 0.26338977 0.16612253 -0.06362879 0.4497101
0.30714434 0.015543947 -0.19076279 -0.36841115 0.39814833 0.051012073 0.14637084 0.64852834
0.14851189 0.18213643 -0.661274 -0.17941031 0.5326375 0.44647247 0.118101396 -0.043127444
-0.070768304 -0.09617192 -0.10800482 -0.23598103 -0.47918206 0.049904387 -0.22813672 -0.12150815
0.10417312 0.25908336 -0.21705502 0.29881075 -0.30611733 0.03650044 -0.23842938 0.13569261
-0.09156426 -0.061693262 0.34217638 0.063179456 0.045664046 0.019364519 0.0071802484 0.15744863
0.16732463 0.2389637 0.28149587 -0.24284473 -0.007918302 0.008246511 -0.30209965 -0.18246633
0.04787309 0.13892798 -0.10525889 -0.23323257 0.19401681 -0.052846644 -0.11116822 -0.4842933
-0.1334099 -0.056945533 -0.519055 -0.039601956 -0.24342254 -0.20626083 -0.564129 0.11666406
-0.11493806 0.11668925 0.49132562 -0.09414989 0.29672742 0.23160793 -0.21357368 0.11803907
-0.12583292 0.048401773 -0.08530424 -0.271633 0.3335768 0.36114582 0.19233017 0.3852562
0.0033497803 0.36457604 -0.09640312 0.48197418 0.13185568 0.016788693 -0.061888143 0.5341266
0.2458322 -0.34632763 -0.07268384 0.078945205 0.18093908 -0.2177917 0.101190925 -0.14521521
-0.101693675 0.21523121 -0.25044724 -0.040891502 0.16266948 0.13611428 -0.27414024 -0.055683345
-0.17511535 0.09398379 0.0104717575 0.32021588 -0.04320098 0.33811787 -0.13961957 0.05447708
-0.46248305 -0.10420145 -0.48489273 -0.09243495 0.3031903 0.17069791 -0.024110023 0.14010356
-0.33533895 0.49421132 0.14252488 -0.021885166 0.4266205 0.1707482 1.1922722 0.42349312
-0.24021053 -0.32375237 0.054215293 -0.28885794 -0.03000274 0.20794758 -0.026841765 0.11372553
-0.23025435 -0.060624767 -0.579035 0.3196856 -0.015026921 -0.15614675 0.062091336 0.030080315
0.070249505 -0.26143834 0.38227847 0.09093534 0.40385047 0.37506306 0.50237507 -0.014851668
00000000: 6324 e0bd 516f 993e e34c 1b3e ed46 71be
00000010: d319 293f 6123 f6bd add5 35be d3a8 863e
00000020: a2ae dd3e 6681 bf3d 135c 77be c264 973d
00000030: fb2c 93be 0260 4a3d 67ca f33d dc1a 773e
00000040: 132a 613e 06cd f13d 459f 22be bfc8 2abe
00000050: 9693 b9be 8cbd 55bd 3c40 47be a96b 89be
00000060: c1fc 4c3d 98de 05be 269a 1ebf e977 32bf
00000070: f760 cb3e 38da f9bd ac73 503d fb12 9f3d
00000080: a464 563e a5ec 80be e9d7 ee3e 0d6a 743c
00000090: dfec 7b3e 47b1 93bc f5ca f53e cc26 823d
000000a0: 0b9f e8be 182a dcbe e72d 17be 2103 8abd
000000b0: 2e42 18be 48b9 183c 015e 113e c5e4 e13e
000000c0: 6baf d8be a416 4fbd 19e3 67be dc78 f53c
000000d0: 546c 97bd ce2d f5bd f2a5 ddbc 899f 533d
000000e0: 0728 e9be 4f7e 133e bdd0 743e bd2d 87be
000000f0: bdf3 1ebd ffa7 1d3e 5142 bbbe 419c 47be
00000100: ffbd 0c3f 0c4e aebd f8bb 60be a715 54bd
00000110: 95a0 223e 667f a3be 8a46 35bd a850 7c3e
00000120: 65cc 4b3f 5532 45be 14f7 223f 2153 6abd
00000130: 79ec fcbe 1628 573e e8b3 4e3f b4fc 8f3e
00000140: 7442 933e eea6 55be b9e6 f6bd 2def d93c
00000150: 0b5a 293e 846b a93e e545 97be 8846 873e
00000160: cb7e b23e 6904 b9be 64b4 0fbd cbf4 623e
00000170: 7b8b 883d c0cf 113e 3299 02be 1d1d 4c3d
00000180: 85a9 c3be a9b4 0bbe db7a 0f3e 30e1 a03e
00000190: 06db 863e 061c 2a3e d04f 82bd 6740 e63e
000001a0: 0642 9d3e 0aac 7e3c 5257 43be 63a0 bcbe
000001b0: 19da cb3e 09f2 503d 3de2 153e f405 263f
000001c0: 8013 183e f981 3a3e 4149 29bf 56b7 37be
000001d0: ee5a 083f 0a98 e43e 25df f13d 67a6 30bd
000001e0: f9ee 90bd c9f5 c4bd a231 ddbd 03a5 71be
000001f0: 5a57 f5be 8b68 4c3d ac9c 69be 44d9 f8bd
00000200: b758 d53d 93a6 843e ac43 5ebe b9fd 983e
00000210: 69bb 9cbe 7c81 153d d526 74be 01f3 0a3e
00000220: 0b86 bbbd 13b2 7cbd be31 af3e 3b64 813d
00000230: 390a 3b3d 57a2 9e3c 4a48 eb3b 373a 213e
00000240: 2657 2b3e e6b2 743e 3a20 903e 4aac 78be
00000250: c4bb 01bc 601c 073c ceac 9abe 74d8 3abe
00000260: 9316 443d 2343 0e3e f991 d7bd 85d4 6ebe
00000270: 58ac 463e b975 58bd 2aac e3bd 4bf5 f7be
00000280: 9b9c 08be b83f 69bd cae0 04bf a935 22bd
00000290: c243 79be 0a36 53be c26a 10bf 91ed ee3d
000002a0: a564 ebbd c6fa ee3d 088f fb3e a8d1 c0bd
000002b0: a8ec 973e a12a 6d3e 0fb3 5abe 78be f13d
000002c0: 58da 00be f040 463d fdb3 aebd 7b13 8bbe
000002d0: 94ca aa3e 1be8 b83e 33f2 443e 4d40 c53e
000002e0: fd87 5b3b b6a9 ba3e 006f c5bd 52c5 f63e
000002f0: 2d05 073e 7188 893c 6c7e 7dbd 85bc 083f
00000300: 70bb 7b3e db51 b1be 44db 94bd 06ae a13d
00000310: 1848 393e ca04 5fbe 303d cf3d 4cb3 14be
00000320: c644 d0bd 9265 5c3e 9f3a 80be d97d 27bd
00000330: d492 263e 8b61 0b3e 1c5c 8cbe 3814 64bd
00000340: 7051 33be 937a c03d bc91 2b3c 56f3 a33e
00000350: 83f3 30bd c91d ad3e 6ff8 0ebe 5c23 5f3d
00000360: 94ca ecbe 9267 d5bd dc43 f8be 894e bdbd
00000370: c23b 9b3e 6fcb 2e3e 6282 c5bc 4f77 0f3e
00000380: 8cb1 abbe 4409 fd3e 0bf2 113e 8548 b3bc
00000390: 016e da3e 9ed8 2e3e 609c 983f 17d4 d83e
000003a0: c0f9 75be dfc2 a5be db10 5e3d 30e5 93be
000003b0: 4ec8 f5bc 36f0 543e 43e3 dbbc eee8 e83d
000003c0: ccc7 6bbe ad51 78bd a33b 14bf d5ad a33e
000003d0: 7a33 76bc efe4 1fbe 7c53 7e3d fe6a f63c
000003e0: f9de 8f3d 3fdb 85be 01ba c33e 4f3c ba3d
000003f0: 7dc5 ce3e 4408 c03e a79b 003f 6954 73bc

weight_hh_l0 f4 [80, 20]
0.0038283714 -0.16428386 0.03882232 -0.06897327 0.017585346 -0.45761347 0.19004154 -0.23641168
0.074795775 -0.086532414 0.29452312 0.15715502 0.06215902 0.5344074 -0.23471251 -0.21633308
0.16629042 -0.096081376 0.10908577 0.18553689 -0.34663376 0.069005154 0.13543616 0.0033174842
0.12512058 -0.02503826 0.16808541 -0.035544246 0.060961783 0.08157522 0.28146312 0.121273845
-0.35325095 0.02877693 0.12877533 -0.32055253 -0.15665472 -0.04116622 -0.44073194 -0.2224431
0.21221928 -0.14813434 0.22871065 -0.4041153 -0.4709112 -0.020178756 -0.39701164 0.012557074
0.14295599 -0.25322664 0.1124377 0.3020794 0.07791726 -0.029421536 -0.07257037 -0.03997849
-0.082207225 0.12276707 -0.27941164 -0.21056338 -0.2807428 -0.025010914 0.10716384 -0.14222316
-0.079709426 -0.41600034 0.19307907 -0.111019365 0.056940675 0.387477 0.06046587 0.23045675
0.033728477 0.5654074 0.02699185 0.14355017 -0.3182388 0.06491856 0.09717772 0.2313481
-0.35928896 -0.1839606 0.39429402 -0.1241426 -0.008692002 -0.52832216 0.30144763 -0.13805172
0.1815213 0.24239613 0.11942025 0.10012874 -0.077027 0.35402223 -0.33936316 -0.37084588
-0.07857337 -0.18118066 0.15585017 0.0009695186 0.035187233 0.70736694 0.008026477 -0.011728869
0.3364469 -0.22932774 0.09059954 -0.1615783 -0.18340763 -0.30030307 -0.10628815 0.11944228
-0.060945243 -0.30159518 0.27736804 -0.11780791 -0.17400014 -0.030713834 -0.2645603 -0.1628514
-0.20550801 0.12705335 0.09426901 0.023110393 -0.010381738 -0.14800155 -0.20049216 -0.10163789
-0.003299382 0.33982727 0.28319642 0.09796537 0.22322571 0.079929754 -0.3030533 -0.40948555
0.024689158 -0.21317737 -0.57845974 -0.04554693 -0.105470106 -0.05474963 0.10386927 -0.02750167
-0.13807711 0.14363432 0.083418936 0.14173292 0.08995232 -0.028003119 0.037694458 0.15310934
-0.19846578 -0.24615875 -0.03771335 -0.13803789 -0.38524625 0.0566068 -0.33383754 -0.06275033
0.3463658 -0.49088523 -0.14322633 0.21400326 -0.3662703 0.35151127 -0.120655224 0.45085716
0.18608493 0.21674739 0.015893253 -0.03409375 0.642224 0.1850993 -0.23583204 -0.052959546
0.6370965 -0.25540262 0.41452813 0.048058715 -0.16901165 0.15558635 -0.023066772 -0.22363026
0.30010268 -0.092965014 -0.12764205 -0.17092258 0.09654247 -0.21202357 0.121880926 -0.05670781
-0.2754776 -0.16941866 0.049644116 -0.39166427 -0.2413216 0.20729356 -0.192412 0.044698935
-0.015660835 -0.026366642 -0.025762817 -0.10841166 -0.024680978 -0.114133365 -0.22291516 -0.060911164
-0.19483317 0.024608277 0.010115239 0.28057382 -0.010262282 0.018534036 0.12407258 -0.17052048
-0.2146325 -0.19220349 0.05510129 0.15551272 -0.051630422 0.080274515 0.30151695 -0.14706028
0.066351734 -0.032017663 0.15048957 -0.0055713113 -0.34924647 -0.042271685 -0.068107985 0.10914499
-0.10070374 -0.10651677 -0.121631585 -0.5661451 -0.05558549 -0.08860201 -0.23221296 -0.36590075
-0.2323006 0.102761425 0.25364044 -0.17298442 0.3144359 -0.2819782 0.28803152 -0.05752454
0.1112151 0.050859656 -0.13546039 0.31992927 0.07404927 -0.067204155 -0.021426754 0.20204933
00000000: 6ae5 7a3b 073a 28be 2704 1f3d dc41 8dbd
00000010: 250f 903c 504c eabe 409a 423e e715 72be
00000020: 872e 993d e837 b1bd bccb 963e 3fed 203e
00000030: 759a 7e3d ecce 083f 7a58 70be 6b86 5dbe
00000040: 0948 2a3e 50c6 c4bd 5c68 df3d 62fd 3d3e
00000050: fb79 b1be 9352 8d3d c7af 0a3e 266a 593b
00000060: 9c1f 003e 091d cdbc 951e 2c3e d896 11bd
00000070: 10b3 793d e910 a73d ef1b 903e 6c5e f83d
00000080: 4fdd b4be 99bd eb3c aedd 033e 761f a4be
00000090: 186a 20be e99d 28bd 9ea7 e1be 20c8 63be
000000a0: 0350 593e 87b0 17be 2033 6a3e 33e8 cebe
000000b0: 461b f1be eb4d a5bc 1c45 cbbe 30bc 4d3c
000000c0: 0e63 123e eca6 81be bd45 e63d 27aa 9a3e
000000d0: 1693 9f3d 6f05 f1bc c69f 94bd 7cc0 23bd
000000e0: 435c a8bd 4d6d fb3d 0b0f 8fbe ed9d 57be
000000f0: 85bd 8fbe b0e3 ccbc b778 db3d f3a2 11be
00000100: b23e a3bd fffd d4be 85b6 453e 1f5e e3bd
00000110: a03a 693d 6363 c63e 0fab 773d dbfc 6b3e
00000120: df26 0a3d 8abe 103f 031e dd3c d1fe 123e
00000130: 32f0 a2be 06f4 843d 1d05 c73d 84e6 6c3e
00000140: b9f4 b7be 2b60 3cbe e8e0 c93e 7a3e febd
00000150: e668 0ebc 1f40 07bf 5857 9a3e 6e5d 0dbe
00000160: b8e0 393e b136 783e 9b92 f43d 4c10 cd3d
00000170: 55c0 9dbd 6742 b53e 02c1 adbe 83df bdbe
00000180: 13eb a0bd 6c87 39be 3097 1f3e 4b27 7e3a
00000190: 7d20 103d 0016 353f 7c81 033c 712a 40bc
000001a0: c542 ac3e e4d4 6abe 408c b93d c874 25be
000001b0: 36cf 3bbe 53c1 99be 9aad d9bd 279e f43d
000001c0: b8a1 79bd af6a 9abe 2f03 8e3e 4645 f1bd
000001d0: 182d 32be 949b fbbc 7374 87be 84c2 26be
000001e0: b170 52be 461a 023e 1c10 c13d 0252 bd3c
000001f0: 2a18 2abc b88d 17be d14d 4dbe 8727 d0bd
00000200: 723a 58bb d7fd ad3e 1fff 903e 11a2 c83d
00000210: 4895 643e 36b2 a33d cd29 9bbe 17a8 d1be
00000220: eb40 ca3c 2b4b 5abe f015 14bf 6b8f 3abd
00000230: b600 d8bd 2641 60bd 69b9 d43d 2f4b e1bc
00000240: 1664 0dbe e014 133e 8cd7 aa3d 6f22 113e
00000250: ec38 b83d cc66 e5bc 8165 1a3d b2c8 1c3e
00000260: 9d3a 4bbe 0a11 7cbe 5079 1abd ce59 0dbe
00000270: ff3e c5be 88dc 673d c1ec aabe 3f83 80bd
00000280: dc56 b13e 4f55 fbbe eca9 12be ac23 5b3e
00000290: c887 bbbe 49f9 b33e 161a f7bd c0d6 e63e
000002a0: 0c8d 3e3e 07f3 5d3e 9132 823c e3a5 0bbd
000002b0: cb68 243f ac8a 3d3e f47d 71be 1cec 58bd
000002c0: c218 233f 22c4 82be 083d d43e 37d9 443d
000002d0: 6411 2dbe 0752 1f3e 87f6 bcbc 55ff 64be
000002e0: 0fa7 993e 7164 bebd 99b4 02be 5406 2fbe
000002f0: 0fb8 c53d b51c 59be b59c f93d 7346 68bd
00000300: 660b 8dbe 167c 2dbe a157 4b3d 3888 c8be
00000310: 021d 77be c344 543e a707 45be 3b16 373d
00000320: 274b 80bc dbfe d7bc 8b0c d3bc ef06 debd
00000330: c32f cabc c1be e9bd df43 64be fc7d 79bd
00000340: 5982 47be 4c97 c93c 63ba 253c 5fa7 8f3e
00000350: 2123 28bc b1d4 973c c419 fe3d ec9c 2ebe
00000360: 9fc8 5bbe fed0 44be e4b1 613d ba3e 1f3e
00000370: 6c7a 53bd f766 a43d 6e60 9a3e f896 16be
00000380: 6be3 873d f424 03bd f019 1a3e 8c8f b6bb
00000390: 6fd0 b2be 1325 2dbd 337c 8bbd 6987 df3d
000003a0: c33d cebd 7725 dabd fb19 f9bd e3ee 10bf
000003b0: 9cad 63bd f874 b5bd 3cc9 6dbe 5857 bbbe
000003c0: 35e0 6dbe 9574 d23d 29dd 813e d422 31be
000003d0: befd a03e 725f 90be de78 933e da9e 6bbd
000003e0: bec4 e33d 3752 503d 21b6 0abe c5cd a33e
000003f0: 25a7 973d 55a2 89bd 2987 afbc 05e6 4e3e

bias_ih_l0 f4 [80]
0.08350206 0.018252704 0.13325869 -0.07828303 0.22009532 0.21872006 0.116433516 0.0027240403
0.06977415 0.01454081 -0.11627065 0.25990734 -0.07897858 0.23300973 0.2722969 -0.11687659
-0.11017645 0.24007055 0.2754018 0.019739592 0.07038227 0.09205376 0.227407 0.37861547
0.004661949 -0.08379453 0.14166023 -0.08961955 0.111318864 0.0818223 0.13111162 0.23035209
-0.049854897 0.11034662 0.2415321 -0.040004544 -0.09057617 0.092532165 0.22312434 0.07843962
-0.00774578 -0.04597498 0.13287954 0.017446904 -0.105301425 -0.024906201 -0.058960628 0.06298676
-0.10464026 -0.04609098 0.30753684 0.18887703 0.006540234 -0.08090886 0.01775238 -0.090935856
0.03164776 0.15238662 0.039011735 0.20976374 0.16501068 0.31246343 0.24128062 -0.06134693
0.1741538 0.040947184 0.1098338 0.036292993 0.22055317 0.14134483 0.15159336 -0.0007158378
0.09412549 0.21699893 0.07875715 0.01663244 -0.0983035 0.20832019 0.23651384 -0.050411608
00000000: 2103 ab3d b286 953c f774 083e da52 a0bd
00000010: ab60 613e 27f8 5f3e b274 ee3d d085 323b
00000020: c0e5 8e3d 943c 6e3c 4e1f eebd 9312 853e
00000030: 86bf a1bd 1a9a 6e3e 806a 8b3e fe5c efbd
00000040: 31a4 e1bd 0ed5 753e 7701 8d3e edb4 a13c
00000050: 9424 903d af86 bc3d 61dd 683e e3d9 c13e
00000060: 43c3 983b 779c abbd 610f 113e 748a b7bd
00000070: 25fb e33d 7392 a73d 2042 063e 6be1 6b3e
00000080: a634 4cbd 69fd e13d 3154 773e cedb 23bd
00000090: 0080 b9bd 8181 bd3d b57a 643e f4a4 a03d
000000a0: 50d0 fdbb 4350 3cbd 9311 083e cfec 8e3c
000000b0: 46a8 d7bd 1708 ccbc b380 71bd 34ff 803d
000000c0: a24d d6bd e5c9 3cbd 7875 9d3e fb68 413e
000000d0: 764f d63b 8bb3 a5bd 706d 913c 943c babd
000000e0: 15a1 013d 3d0b 1c3e c5ca 1f3d 4ecc 563e
000000f0: 8ff8 283e 35fb 9f3e 4412 773e eb46 7bbd
00000100: 6055 323e 3cb8 273d 8bf0 e03d f6a7 143d
00000110: b1d8 613e b3bc 103e 4a3b 1b3e 10a7 3bba
00000120: ddc4 c03d f834 5e3e 6e4b a13d c140 883c
00000130: 5853 c9bd e351 553e af30 723e 677c 4ebd

bias_hh_l0 f4 [80]
-0.11008668 0.25930443 0.065805875 0.02959289 0.20669292 -0.0812597 0.15406153 0.031077605
0.054852176 0.011703253 -0.13595134 -0.09178179 -0.108442426 -0.016265048 0.24422233 -0.09882496
0.24165474 0.12303991 0.070775904 0.108484715 -0.13023439 0.24889854 -0.069489695 0.30065766
0.121888354 0.30287486 0.2446283 0.019336754 0.16645533 -0.14290757 -0.10648921 0.15267767
0.2811855 -0.05995337 0.060500167 0.15400228 0.23991203 0.20205255 -0.052010007 0.21840578
0.08782376 0.124666095 0.21468261 0.1276679 0.13309278 0.088330366 0.03302157 -0.22570129
0.19547616 0.18146785 -0.05728139 0.16776638 0.052652895 0.19130228 -0.20790948 -0.13852334
-0.115585625 -0.21997528 -0.12747522 -0.15766416 0.27533907 0.052873883 0.043940496 -0.1328713
0.06502204 -0.11471015 0.11502307 0.023905821 0.018135218 0.03525307 -0.14518452 0.26165366
0.29878113 0.3030489 -0.044411644 0.2227454 0.14256194 0.1760883 0.18275875 0.16659063
00000000: 2075 e1bd 8dc3 843e 3bc5 863d ca6c f23c
00000010: 4fa7 533e 7c6b a6bd 4ec2 1d3e 7696 fe3c
00000020: adac 603d 00bf 3f3c d436 0bbe 17f8 bbbd
00000030: 1017 debd 473e 85bc 6b15 7a3e be64 cabd
00000040: 5774 773e 59fc fb3d f5f2 903d 3c2d de3d
00000050: 2a5c 05be 42df 7e3e 9d50 8ebd cdef 993e
00000060: 9aa0 f93d 6a12 9b3e d77f 7a3e 1d68 9e3c
00000070: 4473 2a3e 5d56 12be 0417 dabd 8957 1c3e
00000080: 8cf7 8f3e aa91 75bd 06cf 773d c6b2 1d3e
00000090: 80ab 753e dde6 4e3e 7208 55bd c4a5 5f3e
000000a0: f2dc b33d f050 ff3d c2d5 5b3e 60bb 023e
000000b0: 7949 083e 8de6 b43d a041 073d 3d1e 67be
000000c0: e72a 483e b5d2 393e e49f 6abd f3ca 2b3e
000000d0: 90aa 573d bfe4 433e 39e6 54be 10d9 0dbe
000000e0: 28b8 ecbd 3341 61be dd88 02be b772 21be
000000f0: 3ef9 8c3e 4992 583d f3fa 333d 6a0f 08be
00000100: 462a 853d 28ed eabd 3791 eb3d 24d6 c33c
00000110: 4f90 943c 8665 103d 40ab 14be 78f7 853e
00000120: d7f9 983e 3a29 9b3e fce8 35bd 5f17 643e
00000130: c2fb 113e 7e50 343e 1c25 3b3e bc96 2a3e

weight f4 [90, 20]
-0.2713665 0.10123627 0.34344414 0.039261676 -0.0014990041 0.27487147 -0.020573776 -0.28601474
-0.013260427 -0.37686527 -0.25225818 0.14889558 -0.18823993 -0.11994691 -0.04830856 -0.27939662
-0.21582636 -0.15558107 0.3518893 -0.71455216 -0.11995919 0.10531713 0.3556256 0.12542991
0.0675413 0.23515896 0.077753626 -0.30835754 -0.035179704 -0.21191488 -0.13135973 -0.12147557
-0.22072382 -0.2417469 -0.09740723 -0.23538768 -0.22088377 -0.01685335 0.18067606 -0.4863093
0.007800744 0.1948633 0.33039755 0.06913586 0.031152634 0.18270285 0.12896581 -0.425665
-0.13702948 -0.29592675 -0.18845232 -0.37108847 -0.21891704 -0.26356745 -0.09734534 -0.036957238
-0.24686317 0.072138384 -0.0026711572 -0.33543578 0.051320285 0.28115654 0.3595018 0.10012195
-0.040815692 0.07728063 0.119508244 -0.3072165 -0.110867016 -0.12806943 0.20291334 -0.26901814
-0.22014561 -0.254854 0.07018409 0.05677548 -0.22841488 0.04168343 -0.099420205 -0.12683146
0.17933111 0.31215417 0.25449008 0.09627793 0.0029963 -0.005330552 0.090995416 -0.23166098
-0.11678692 -0.14929591 0.29875168 -0.07136137 -0.3055415 -0.19588423 -0.09155168 0.020646242
-0.25012657 -0.037175946 -0.24300492 -0.030586604 0.31794548 0.15165442 0.11908079 0.01353476
0.015174657 -0.06904137 0.019970443 -0.1973072 -0.19143888 0.114243925 0.097356014 0.11688534
-0.27878612 -0.12666343 0.13962194 0.059774566 -0.32796055 -0.18368128 -0.41166556 -0.04404225
0.1925529 -0.05985505 -0.010661412 0.0040429137 -0.04679663 -0.21969791 -0.007997173 0.020937655
-0.24236903 0.20881972 0.11603361 0.020281935 -0.31345657 -0.1171513 0.09096697 0.14369883
-0.3035207 -0.07782996 -0.35741913 -0.04159068 0.12238626 -0.05730502 -0.0419924 -0.1266434
-0.05311331 -0.042180937 0.009901066 0.097990975 -0.2736751 0.18764515 -0.11013559 0.06218471
-0.2489201 -0.009487734 0.050962552 0.10761079 -0.29210466 -0.106653556 -0.46486712 -0.10048069
-0.069342114 0.017298916 -0.17774363 -0.1511787 -0.13007581 0.14219786 0.12798579 0.15783232
-0.24957311 0.19761562 0.1851417 0.08731615 -0.105292544 0.048581544 0.048083615 0.06818953
-0.16181836 -0.13090676 -0.3891932 -0.06362608 -0.09721427 0.04560778 -0.29255125 -0.09859523
-0.07902872 0.06731911 0.25383982 0.254872 -0.26919276 0.118442945 -0.094487436 0.087165974
-0.06843077 0.03729018 -0.08762952 -0.0075609293 -0.032965895 -0.05221409 -0.081470646 -0.1865083
-0.09169915 -0.033794884 -0.13373154 -0.12466299 0.019483527 0.032225553 0.2351538 0.24859907
-0.28230157 0.065537706 0.115924105 0.14900155 0.008990912 0.055719655 0.009543397 0.009433681
0.12258224 -0.1336186 0.0054219877 -0.27595028 -0.11885235 -0.10354429 0.03921951 -0.16441569
0.04477039 -0.0348034 0.15576899 0.14186984 -0.30491853 0.0287243 0.115220375 0.1102758
-0.07054298 0.009555328 -0.21062203 0.028560398 0.25048313 -0.07052567 0.010660389 -0.2748716
-0.15224472 -0.14055169 0.03687147 -0.03691317 -0.16382952 -0.07669699 0.005128442 -0.012174032
-0.24144779 0.17276686 0.013365824 0.062125675 -0.08515127 -0.06910301 -0.18188834 0.099833675
00000000: 8df0 8abe f654 cf3d e9d7 af3e dad0 203d
00000010: 3b7a c4ba f4bb 8c3e 568a a8bc 8670 92be
00000020: 4342 59bc 7cf4 c0be fc27 81be 1578 183e
00000030: f8c1 40be baa6 f5bd 32df 45bd 130d 8fbe
00000040: 9601 5dbe a550 1fbe d62a b43e e4ec 36bf
00000050: 2aad f5bd 82b0 d73d 8f14 b63e b370 003e
00000060: 1853 8a3d 83cd 703e 4b3d 9f3d 0ae1 9dbe
00000070: 9818 10bd 3700 59be 2a83 06be 2fc8 f8bd
00000080: 6d05 62be 808c 77be 717d c7bd 7809 71be
00000090: 5b2f 62be 0910 8abc 2503 393e 88fd f8be
000000a0: 629d ff3b 3f8a 473e de29 a93e 1a97 8d3d
000000b0: cf33 ff3c 7516 3b3e 9d0f 043e c3f0 d9be
000000c0: 7551 0cbe b683 97be a5f9 40be 4fff bdbe
000000d0: ca2b 60be 50f2 86be fe5c c7bd 7960 17bd
000000e0: b3c9 7cbe 4abd 933d 950e 2fbb 3dbe abbe
000000f0: 3835 523d c0f3 8f3e 9f10 b83e bd0c cd3d
00000100: 5b2e 27bd 4f45 9e3d bdc0 f43d 7b4b 9dbe
00000110: 3f0e e3bd a224 03be 84c8 4f3e bfbc 89be
00000120: da6d 61be 397c 82be adbc 8f3d 688d 683d
00000130: 97e5 69be 3fbc 2a3d d29c cbbd 1be0 01be
00000140: 93a2 373e acd2 9f3e 864c 823e 5d2d c53d
00000150: 935d 443b e9ab aebb ce5b ba3d 8938 6dbe
00000160: fb2d efbd 07e1 18be fbf5 983e e925 92bd
00000170: ef6f 9cbe e095 48be 727f bbbd 4f22 a93c
00000180: 9710 80be ce45 18bd 48d6 78be c290 fabc
00000190: c0c9 a23e 4c4b 1b3e a1e0 f33d e6c0 5d3c
000001a0: 209f 783c 9065 8dbd 0e99 a33c e60a 4abe
000001b0: 8e08 44be b8f8 e93d 9762 c73d 9561 ef3d
000001c0: 0ebd 8ebe 0fb4 01be 0ef9 0e3e 2dd6 743d
000001d0: 72ea a7be f216 3cbe d4c5 d2be a565 34bd
000001e0: 962c 453e 922a 75bd 34ad 2ebc 6b7a 843b
000001f0: d3ad 3fbd 7df8 60be 9306 03bc 7285 ab3c
00000200: 962f 78be d6d4 553e 08a3 ed3d 4d26 a63c
00000210: 617d a0be 05ed efbd e44c ba3d c925 133e
00000220: 1167 9bbe 5065 9fbd a4ff b6be fd5a 2abd
00000230: a6a5 fa3d abb8 6abd 3900 2cbd cfae 01be
00000240: 588d 59bd ebc5 2cbd 1538 223c 7eaf c83d
00000250: 251f 8cbe 0d26 403e c58e e1bd 65b5 7e3d
00000260: e9e4 7ebe 7172 1bbc 1cbe 503d 0c63 dc3d
00000270: be8e 95be 2e6d dabd 1003 eebe d2c8 cdbd
00000280: 3d03 8ebd 75b6 8d3c 6d02 36be 97ce 1abe
00000290: 9832 05be 519c 113e b50e 033e cc9e 213e
000002a0: 1890 7fbe c05b 4a3e c995 3d3e cfd2 b23d
000002b0: 9ea3 d7bd 71fd 463d 53f3 443d f4a6 8b3d
000002c0: b6b3 25be 6c0c 06be 5544 c7be 644e 82bd
000002d0: 4618 c7bd 39cf 3a3d 47c9 95be 4cec c9bd
000002e0: cfd9 a1bd 9ade 893d 4bf7 813e 957e 823e
000002f0: a2d3 89be 3792 f23d a182 c1bd 1384 b23d
00000300: 6e25 8cbd 96bd 183d 1b77 b3bd acc1 f7bb
00000310: 3f07 07bd 71de 55bd 15da a6bd 08fc 3ebe
00000320: c4cc bbbd 816c 0abd ecf0 08be 4f4f ffbd
00000330: eb9b 9f3c f1fe 033d 28cc 703e c190 7e3e
00000340: d589 90be a238 863d 9e69 ed3d dd93 183e
00000350: 9e4e 133c 4b3a 643d e95b 1c3c ba8f 1a3c
00000360: 660c fb3d 50d3 08be eeaa b13b 5b49 8dbe
00000370: dc68 f3bd 070f d4bd a3a4 203d 965c 28be
00000380: 2861 373d 038e 0ebd e881 1f3e 5446 113e
00000390: 481e 9cbe 394f eb3c a9f8 eb3d 47d8 e13d
000003a0: d778 90bd f38d 1c3c 4dad 57be 7ff7 e93c
000003b0: 533f 803e c36f 90bd eaa8 2e3c f8bb 8cbe
000003c0: 0ae6 1bbe c8ec 0fbe 8a06 173d 4432 17bd
000003d0: edc2 27be 5013 9dbd 7d0c a83b 9775 47bc
000003e0: 173e 77be cce9 303e 54fc 5a3c 7e77 7e3d
000003f0: ca63 aebd e185 8dbd f040 3abe 9975 cc3d

bias f4 [90]
-0.024003588 -0.008998175 0.094813935 0.01209103 -0.09293385 -0.063656755 0.071314335 0.11777905
0.10503187 0.25924212 0.15130879 0.06515 0.14070877 0.11417467 -0.016021535 0.043644294
0.020325875 0.07840829 0.11403219 0.06898534 0.02769084 -0.023937576 -0.010343943 0.12320731
0.13977239 0.14417143 0.01625641 0.101033494 0.0767881 0.106299005 0.12722054 0.08001012
0.04679079 0.024817677 0.021636844 -0.022646109 0.07845593 0.06842938 0.044994637 0.14092581
0.0961256 0.13590784 0.066615716 0.08992888 -0.018598815 0.121250495 0.06009057 0.11241397
0.10645873 0.081896685 -0.0356243 -0.041167084 0.05434955 0.084414765 0.06644651 -0.008246957
-0.005644334 0.07198546 0.106151335 0.119008 0.07292752 0.028056845 0.07275506 0.1591883
0.038826566 0.084743515 -0.063786924 0.11992511 0.08041289 -0.010110648 0.049930304 0.018210137
0.02982897 -0.07103834 0.003139255 -0.029849099 -0.047320362 0.073253505 0.08882153 -0.026569832
-0.026773993 -0.040257808 -0.005824419 0.06259623 0.057278726 -0.0038282147 0.025183985 0.018178271
-0.058175165 -0.087684676
00000000: 2ca3 c4bc 156d 13bc cf2d c23d 7519 463c
00000010: 1a54 bebd 795e 82bd 400d 923d 2436 f13d
00000020: f31a d73d 62bb 843e b1f0 1a3e 5d6d 853d
00000030: f615 103e 69d4 e93d 983f 83bc 5cc4 323d
00000040: 7382 a63c 8794 a03d b589 e93d 3048 8d3d
00000050: e7d7 e23c bc18 c4bc a479 29bc 1d54 fc3d
00000060: 7e20 0f3e ada1 133e 2a2c 853c a6ea ce3d
00000070: 1443 9d3d 4bb3 d93d 1a46 023e 59dc a33d
00000080: b3a7 3f3d 714e cb3c c03f b13c 5584 b9bc
00000090: 81ad a03d b424 8c3d 4c4c 383d db4e 103e
000000a0: 80dd c43d 6d2b 0b3e d26d 883d a22c b83d
000000b0: 8b5c 98bc 2e52 f83d 8821 763d 4c39 e63d
000000c0: 0907 da3d 73b9 a73d c9ea 11bd d19e 28bd
000000d0: a29d 5e3d a6e1 ac3d 1c15 883d 3f1e 07bc
000000e0: 1bf4 b8bb 1d6d 933d df65 d93d 77ba f33d
000000f0: 065b 953d 78d7 e53c 9b00 953d 4202 233e
00000100: 9b08 1f3d 028e ad3d b8a2 82bd 4c9b f53d
00000110: 83af a43d 22a7 25bc b883 4c3d 6d2d 953c
00000120: e25b f43c 8d7c 91bd f6bb 4d3b 1986 f4bc
00000130: ffd2 41bd ef05 963d 10e8 b53d faa8 d9bc
00000140: 2255 dbbc 5fe5 24bd c5da bebb 7432 803d
00000150: 199d 6a3d c9e2 7abb a54e ce3c 99ea 943c
00000160: 1549 6ebd 0694 b3bd
