checkpoints/cnn_lstm/cnn_lstm_o_45.pt (torch, 22146 bytes, 8 tensors)

weight f4 [14, 8, 3]
0.042365618 0.019547453 -0.031708248 0.16382603 -0.017443117 0.3992116 -0.01663714 0.12565666
-0.024044875 -0.4360208 0.16279964 0.31909513 0.04594443 0.05938513 0.016493395 0.03225717
-0.09373675 0.04877766 0.17920265 -0.1282196 -0.17570835 0.27965814 -0.027117945 0.30726513
0.040801056 -0.0030346655 0.0718363 -0.11650399 0.07077491 0.117053196 -0.059333123 0.043414257
-0.08497571 0.28578427 0.24760176 -0.13906032 0.2937403 0.26693308 0.21885212 -0.096561775
-0.1526159 0.015514384 -0.12744361 0.069746576 -0.15406689 0.07669694 -0.13368034 0.09541815
-0.0205947 0.13311191 -0.12776639 0.008081001 0.21270873 0.15263645 -0.042959325 0.07491932
0.16461192 -0.13964395 -0.046764385 0.10678347 0.34868544 0.00043404163 0.05230235 -0.103773706
-0.099165924 0.05952885 -0.2552127 0.1173167 -0.22374417 -0.46853542 -0.21570948 -0.33002847
-0.09042001 -0.20773837 -0.08619807 0.006397433 -0.053243086 -0.3040595 0.028759632 -0.015579938
0.1650809 0.22473662 0.24165525 -0.25530392 0.32061294 0.3043219 -0.30226547 -0.022090547
-0.25407267 -0.02665894 -0.05363052 -0.074618265 0.255626 0.008867236 -0.07504318 0.06593125
-0.18704912 -0.032994002 -0.092875846 -0.27149323 -0.13382003 -0.0436536 0.23968251 -0.11083694
-0.03328098 0.37694368 0.17625678 0.18296033 0.12527245 0.26668358 0.30782172 -0.121471755
0.17013434 0.28811535 0.115869075 0.2105056 0.25243485 -0.13295288 -0.21700224 0.029661734
0.0073603527 -0.1104638 -0.26916918 0.8171765 -0.27430427 -0.25271916 -0.18642758 0.14255433
0.007196059 0.07152102 0.018556893 0.324174 -0.09781864 -0.095211156 -0.09928059 -0.24581905
-0.0065146764 0.037260987 -0.015032165 0.16834024 -0.08114151 -0.1362926 0.13752735 -0.13068524
-0.028905986 0.069012545 -0.05471132 -0.29798883 0.057099212 0.12987481 -0.24598305 -0.16549543
-0.08332861 0.006495989 -0.08712123 0.15666385 0.18487097 -0.08915328 0.42729244 -0.08584725
0.08030578 -0.11272601 0.16620445 0.14011118 0.14485617 0.060286295 -0.108227655 -0.12982138
-0.09878361 -0.059951 -0.0095056305 0.1975319 0.09645563 0.1678549 -0.040815473 0.064774975
-0.017924724 0.24105369 -0.0013929057 -0.26267925 0.028136238 0.30929393 0.47073323 0.016054774
-0.049868163 -0.061248027 0.013793854 -0.14780687 -0.19273154 -0.3223762 0.036278937 -0.34229815
-0.13317999 0.052069534 -0.24540731 -0.07777166 0.1774838 0.5270875 0.28394765 0.057722963
-0.1910403 0.14059488 -0.011294556 -0.5540204 -0.2632573 -0.056083716 -0.06994564 -0.17421599
0.056335036 -0.0030047991 0.19504763 0.20139143 0.12123321 0.116334245 0.22636268 0.031385683
-0.15560319 -0.01272178 -0.003895678 -0.17074694 -0.27769524 -0.13172647 -0.08294298 0.2752812
0.16444391 -0.19092228 0.031082306 -0.33580726 0.34368724 0.10349364 0.34439528 -0.029311772
0.017883688 -0.09909588 -0.029154917 -0.029666822 -0.018983118 -0.10328086 0.13196145 0.19720584
0.2983369 0.1461696 0.096882395 0.07303726 0.3405405 -0.12960154 0.13958809 -0.10110971
-0.20233887 -0.46104214 -0.117633164 -0.29435167 0.297971 0.30980694 0.19115157 0.070417635
00000000: 9287 2d3d fb21 a03c 82e0 01bd 03c2 273e
00000010: dee4 8ebc 7665 cc3e 9d4a 88bc 24ac 003e
00000020: c2f9 c4bc 1e3e dfbe f3b4 263e 7060 a33e
00000030: 3a30 3c3d d23d 733d 281d 873c 1820 043d
00000040: 0ef9 bfbd 15cb 473d e680 373e 004c 03be
00000050: e4ec 33be 5a2f 8f3e 7426 debc db51 9d3e
00000060: 021f 273d 3de1 46bb e91e 933d a599 eebd
00000070: 70f2 903d 96b9 ef3d 4a07 73bd 26d3 313d
00000080: bf07 aebd 5152 923e 518b 7d3e d465 0ebe
00000090: 2165 963e 74ab 883e c51a 603e 2ec2 c5bd
000000a0: 5847 1cbe 0b30 7e3c 9480 02be 4bd7 8e3d
000000b0: b6c3 1dbe 4913 9d3d 80e3 08be 976a c33d
000000c0: 37b6 a8bc 7d4e 083e 31d5 02be 2d66 043c
000000d0: 51d0 593e bb4c 1c3e 1ef6 2fbd 4d6f 993d
000000e0: 0790 283e d3fe 0ebe 038c 3fbd 4bb1 da3d
000000f0: e686 b23e 1590 e339 fd3a 563d 4f87 d4bd
00000100: 8117 cbbd 86d4 733d 3dab 82be bd43 f03d
00000110: 311d 65be e0e3 efbe f2e2 5cbe 7ef9 a8be
00000120: 202e b9bd 5eb9 54be 9d88 b0bd 8fa1 d13b
00000130: 6c15 5abd b0ad 9bbe 5299 eb3c ff42 7fbc
00000140: f80a 293e 5b21 663e 7974 773e 32b7 82be
00000150: 6127 a43e 14d0 9b3e 8ac2 9abe 3cf7 b4bc
00000160: d015 82be d963 dabc adab 5bbd 76d1 98bd
00000170: 69e1 823e e247 113c 3db0 99bd f706 873d
00000180: ce89 3fbe b824 07bd b135 bebd 2901 8bbe
00000190: 1e08 09be 1ece 32bd 556f 753e 7afe e2bd
000001a0: a351 08bd c3fe c03e a87c 343e f459 3b3e
000001b0: 6c47 003e c08a 883e cf9a 9d3e 2fc6 f8bd
000001c0: b237 2e3e db83 933e c44c ed3d c88e 573e
000001d0: 243f 813e cd24 08be d635 5ebe 2afd f23c
000001e0: 1d2f f13b d83a e2bd 8bd0 89be 7b32 513f
000001f0: 9c71 8cbe 6864 81be dfe6 3ebe c3f9 113e
00000200: ebcc eb3b 9d79 923d a004 983c 22fa a53e
00000210: 2455 c8bd 11fe c2bd 9f53 cbbd fdb7 7bbe
00000220: 1179 d5bb fa9e 183d 7849 76bc 6261 2c3e
00000230: 852d a6bd 4a90 0bbe f8d3 0c3e 5ad2 05be
00000240: 3fcc ecbc 7356 8d3d fa18 60bd fe91 98be
00000250: dde0 693d e7fd 043e fbe2 7bbe a277 29be
00000260: 31a8 aabd 4edc d43b 9e6c b2bd 7d6c 203e
00000270: d14e 3d3e ff95 b6bd 13c6 da3e afd0 afbd
00000280: 5b77 a43d e5dc e6bd 8031 2a3e 4e79 0f3e
00000290: 2d55 143e c3ee 763d 76a6 ddbd e5ef 04be
000002a0: 104f cabd 2e8f 75bd 81bd 1bbc cd45 4a3e
000002b0: 888a c53d 28e2 2b3e 202e 27bd bea8 843d
000002c0: dfd6 92bc c7d6 763e 2992 b6ba e57d 86be
000002d0: f87d e63c c65b 9e3e f203 f13e 4d85 833c
000002e0: 8f42 4cbd 36df 7abd 9eff 613c af5a 17be
000002f0: 6b5b 45be 7e0e a5be 3999 143d b441 afbe
00000300: 5660 08be dd46 553d 0e4c 7bbe c046 9fbd
00000310: 50be 353e 35ef 063f 9661 913e ea6e 6c3d
00000320: 12a0 43be 1bf8 0f3e cd0c 39bc 48d4 0dbf
00000330: a9c9 86be 0ab8 65bd a93f 8fbd ad65 32be
00000340: 91bf 663d 2aec 44bb 91ba 473e 8e39 4e3e
00000350: 1e49 f83d a640 ee3d 9ecb 673e 468e 003d
00000360: 7156 1fbe 036f 50bc a24e 7fbb 49d8 2ebe
00000370: 122e 8ebe 4ee3 06be 02de a9bd a8f1 8c3e
00000380: fc63 283e 2181 43be 52a0 fe3c eeee abbe
00000390: c6f7 af3e 79f4 d33d 9454 b03e 3e1f f0bc
000003a0: d080 923c c8f2 cabd 4bd6 eebc d607 f3bc
000003b0: 7c82 9bbc ea84 d3bd e720 073e 54f0 493e
000003c0: 9dbf 983e 7cad 153e 476a c63d 8f94 953d
000003d0: 535b ae3e 44b6 04be 2ef0 0e3e 9c12 cfbd
000003e0: ec31 4fbe b70d ecbe a8e9 f0bd 43b5 96be
000003f0: a88f 983e 049f 9e3e 3dbd 433e 1f37 903d

bias f4 [14]
0.08571262 0.01770071 -0.18670754 0.2571504 0.14299639 0.123674706 0.27045876 0.23973212
0.19528863 0.20880623 0.1505898 0.07559123 0.12163928 -0.005519223
00000000: 198a af3d 1401 913c 4330 3fbe 38a9 833e
00000010: a56d 123e 2a49 fd3d 9279 8a3e 567c 753e
00000020: bef9 473e 4dd1 553e 3634 1a3e 93cf 9a3d
00000030: 041e f93d 99da b4bb

weight_ih_l0 f4 [80, 14]
0.14185743 0.02431519 -0.06352115 0.021384643 0.21158932 0.08693745 0.23601109 0.037779298
-0.18428674 0.08440974 -0.17528379 0.098066196 0.18437845 0.44045302 0.009647999 0.027247999
0.22846836 0.15652402 -0.25575525 0.37046355 -0.13566454 -0.13487996 0.15527248 0.18143117
0.1893726 -0.16823934 -0.06510594 -0.44706732 -0.049023036 -0.36862716 0.03630937 0.04056774
0.124346755 -0.117666125 0.078870855 -0.30862996 -0.041507926 -0.5653626 0.46633908 -0.062854744
-0.37926984 0.20334172 -0.055485684 -0.26822224 0.21028994 -0.2192671 0.15486766 0.04328616
0.19138084 0.06331271 -0.2312106 -0.2452385 0.15887815 -0.051158357 -0.07701254 0.1915095
-0.50592434 -0.30511922 -0.06592566 -0.06416337 -0.058461055 -0.05045894 0.25761434 0.19201033
0.52475643 0.17893532 0.41150993 -0.09378115 0.28235877 0.30288517 0.17226246 -0.33361852
-0.0031704376 0.21810643 0.05294414 -0.18256228 -0.35269672 -0.30070716 0.22091825 0.21170081
0.092164055 -0.040954866 -0.24331267 0.7566544 -0.12886022 -0.17506248 0.45520115 -0.21880606
-0.1775931 0.02242632 0.1467922 -0.29587013 0.11482135 -0.4495785 0.05627927 -0.18893039
-0.3951103 -0.05141372 0.117516086 -0.04508789 -0.073548384 0.17332427 0.068940744 -0.08826843
-0.14442801 0.18965633 0.032679863 0.11700963 0.18932791 0.015597228 -0.055029612 0.08535678
-0.004115428 -0.052567285 0.035042435 -0.06083915 0.060882844 -0.100398 0.49023068 -0.24695496
-0.18525511 -0.3162133 0.19054276 -0.07211882 -0.19391087 0.0044624694 -0.17593212 -0.1260913
0.122956425 0.23277728 0.025549721 0.008772982 0.89168507 0.09640857 0.1604799 0.010078124
0.49530417 0.2984913 -0.17857565 -0.21224946 -0.14929594 0.012680226 0.35312256 0.06176124
-0.08424247 0.06401822 0.06199827 0.40074876 0.097026214 0.0968843 0.5017345 0.5641099
0.08757799 -0.19350386 -0.32532972 0.0829263 -0.09165925 -0.1904385 0.1277016 -0.17898871
0.19707444 0.003065146 -0.14419132 -0.065888606 0.2186398 -0.03138514 0.09768574 0.06078632
0.15515374 -0.51328665 0.11061436 -0.30599818 -0.38543877 0.28060406 0.077234626 -0.28535816
-0.0718256 -0.4776423 0.020231547 -0.043439336 0.20857689 0.3169629 0.20071861 0.124717586
0.17661245 -0.072630934 0.24038522 -0.0784316 0.35401088 0.09986014 0.047675457 0.07134097
-0.17471091 0.07144143 -0.27775162 -0.052792467 0.15452339 -0.06846893 -0.00915213 -0.020649428
0.12779821 -0.10583549 0.2451803 -0.11302335 -0.17940085 -0.2355497 0.26857486 0.16895075
0.12171526 0.06930131 0.25831398 -0.1859199 0.3691267 0.24157324 0.3415743 0.27972218
-0.11205241 -0.14081483 -0.2635269 -0.13210839 -0.017533774 0.1835123 -0.18653695 0.1115069
-0.07736611 0.21074817 -0.3513161 0.13877814 0.33659607 -0.3275254 -0.03367885 -0.17879027
0.086078264 0.16372478 -0.09213296 0.09277131 -0.183735 0.3714072 0.06615045 -0.0190857
-0.03996205 0.12655763 -0.036521126 -0.34254822 -0.19625999 -0.3729599 -0.10419309 0.23830844
0.09419972 -0.12908676 0.12184045 1.0400277 -0.032899275 0.0011218695 -0.05958594 0.24679399
00000000: 1343 113e a630 c73c 6017 82bd d92e af3c
00000010: dfaa 583e 430c b23d e4ac 713e 77be 1a3d
00000020: aab5 3cbe 04df ac3d 987d 33be eed6 c83d
00000030: b4cd 3c3e 0f83 e13e a412 1e3c 3237 df3c
00000040: 9cf3 693e d547 203e 5af2 82be 66ad bd3e
00000050: a5eb 0abe f91d 0abe c0ff 1e3e 18c9 393e
00000060: e4ea 413e ef46 2cbe 4356 85bd 02e6 e4be
00000070: 61cc 48bd b3bc bcbe 22b9 143d 5c2a 263d
00000080: 83a9 fe3d f0fa f0bd 0b87 a13d bf04 9ebe
00000090: 3704 2abd 9abb 10bf ffc3 ee3e fdb9 80bd
000000a0: a82f c2be d038 503e f544 63bd 6d54 89be
000000b0: 3f56 573e 8e87 60be a195 1e3e d44c 313d
000000c0: 57f9 433e 18aa 813d 79c2 6cbe cd1f 7bbe
000000d0: f4b0 223e 6d8b 51bd c0b8 9dbd 111b 443e
000000e0: 4284 01bf 9638 9cbe 0804 87bd 1668 83bd
000000f0: dc74 6fbd 09ae 4ebd 07e6 833e 5b9e 443e
00000100: 7056 063f d23a 373e 6eb1 d23e 5510 c0bd
00000110: 5491 903e c413 9b3e 9265 303e 0cd0 aabe
00000120: 1ec7 4fbb 4b57 5f3e f4db 583d 9bf1 3abe
00000130: aa94 b4be 4af6 99be 6538 623e 19c8 583e
00000140: 82c0 bc3d 4ac0 27bd f526 79be 1ab4 413f
00000150: eff3 03be 9443 33be 2010 e93e b20e 60be
00000160: f7da 35be 67b7 b73c b250 163e 4a7c 97be
00000170: 7527 eb3d 272f e6be 1885 663d f876 41be
00000180: e64b cabe 3197 52bd 46ac f03d 14ae 38bd
00000190: 89a0 96bd eb7b 313e ce30 8d3d 14c6 b4bd
000001a0: f0e4 13be 4535 423e 52db 053d bfa2 ef3d
000001b0: 2ddf 413e 848b 7f3c bb66 61bd 89cf ae3d
000001c0: b6da 86bb cb50 57bd a888 0f3d 7932 79bd
000001d0: 4a60 793d 779d cdbd 84ff fa3e c3e1 7cbe
000001e0: 84b3 3dbe b6e6 a1be a41d 433e 08b3 93bd
000001f0: 9290 46be e839 923b 8d27 34be 141e 01be
00000200: 94d0 fb3d 2b5d 6e3e a64d d13c 8ebc 0f3c
00000210: 7945 643f db71 c53d d854 243e b71e 253c
00000220: 8298 fd3e dad3 983e 89dc 36be ec57 59be
00000230: 09e1 18be b9c0 4f3c 7bcc b43e 5bf9 7c3d
00000240: 5187 acbd fc1b 833d e6f1 7d3d f12e cd3e
00000250: aeb5 c63d 476b c63d ac71 003f 8269 103f
00000260: 175c b33d e025 46be 9e91 a6be 44d5 a93d
00000270: d8b7 bbbd 4f02 43be 35c4 023e d148 37be
00000280: e2cd 493e 9ee0 483b e4a6 13be 9bf0 86bd
00000290: 1de3 5f3e b48d 00bd 760f c83d 14fb 783d
000002a0: 9fe0 1e3e c166 03bf c889 e23d cbab 9cbe
000002b0: 3b58 c5be 56ab 8f3e 302d 9e3d 771a 92be
000002c0: 4d19 93bd 888d f4be a1bc a53c 72ed 31bd
000002d0: 2e95 553e f648 a23e 2e89 4d3e ef6b ff3d
000002e0: e5d9 343e 87bf 94bd 8b27 763e bfa0 a0bd
000002f0: ea40 b53e 7983 cc3d 5747 433d 371b 923d
00000300: 6be7 32be e24f 923d 7635 8ebe ea3c 58bd
00000310: 613b 1e3e 7039 8cbd d1f2 15bc fd28 a9bc
00000320: 89dd 023e 47c0 d8bd 8b10 7b3e c978 e7bd
00000330: dbb4 37be f133 71be a582 893e 6d01 2d3e
00000340: da45 f93d d8ed 8d3d bb41 843e c961 3ebe
00000350: 2dfe bc3e fa5e 773e d4e2 ae3e bf37 8f3e
00000360: bc7b e5bd c331 10be ffec 86be 6c47 07be
00000370: fda2 8fbc a6ea 3b3e 8b03 3fbe bb5d e43d
00000380: 2072 9ebd 5ece 573e b4df b3be db1b 0e3e
00000390: 5256 ac3e 69b1 a7be d5f2 09bd cc14 37be
000003a0: cd49 b03d 78a7 273e 35b0 bcbd e2fe bd3d
000003b0: 0725 3cbe 1629 be3e e379 873d 9d59 9cbc
000003c0: 3faf 23bd 5398 013e 2d97 15bd 7b62 afbe
000003d0: 61f8 48be 9af4 bebe 3063 d5bd 2107 743e
000003e0: c8eb c03d 522f 04be 7c87 f93d a11f 853f
000003f0: 64c1 06bd b20b 933a 6310 74bd 90b7 7c3e

weight_hh_l0 f4 [80, 20]
-0.22236027 0.2706047 -0.12449479 -0.02297344 -0.0055495785 0.2926933 0.23068076 0.058519162
0.25131047 0.052204806 -0.33360952 -0.17455365 -0.5018099 0.31127095 -0.034011558 -0.25745147
-0.10271583 0.06117244 0.019073565 -0.07062811 -0.09135795 -0.2607105 -0.18929392 -0.13499302
-0.24773285 -0.074826255 0.14171301 -0.35403007 0.4645346 0.2871157 0.027235284 -0.009881707
0.029827451 -0.08746568 -0.1652845 -0.009645947 -0.21078806 0.080059774 -0.07641997 0.1892588
0.26392707 -0.04221179 0.21730903 -0.018318124 0.23470806 -0.039635565 0.16209415 0.10722134
-0.23026648 0.45253378 -0.058236472 0.2569465 0.09971791 -0.26792592 0.015530893 0.22420447
-0.030815013 0.1028043 -0.2289883 -0.025220362 0.166367 0.27572614 -0.03056048 -0.14510635
0.012740845 -0.34001273 -0.12312669 0.051078636 -0.12678485 0.087182835 0.021608587 0.12614931
-0.14672804 0.29416493 0.19352105 -0.16103548 -0.038842723 0.2612916 -0.09170496 -0.12851214
0.2071102 0.13319044 -0.2611547 0.036912136 0.03973732 -0.28049716 0.17225957 0.47551292
-0.2001065 0.4092474 -0.23295546 0.008605331 0.31903365 0.3098007 0.12275156 -0.2817489
0.2749079 -0.35236776 -0.5030415 -0.03031973 0.28468466 0.073647186 -0.10264924 0.19702287
-0.07084754 0.15712048 0.24220523 -0.2570698 -0.04284402 -0.48058158 -0.11882928 0.05285728
0.06810184 0.1264754 0.1628722 0.53434837 -0.1315125 0.08254428 0.10279298 0.05509987
-0.04826874 0.018716665 0.009874479 0.08948399 0.30247322 0.0593744 0.28739524 -0.21554098
0.06947156 0.3790854 -0.011759278 0.23042022 0.2629291 -0.045272414 0.10679199 0.02086501
-0.11710349 0.033529222 0.097451635 0.026767474 -0.086657435 0.4821196 0.13067459 0.0031400705
0.011115474 0.14478706 -0.13671166 -0.15520667 0.13167997 -0.682638 -0.27209908 -0.4199585
-0.20101033 0.40864465 0.08439051 -0.6622634 0.1992548 0.03367226 0.06230899 0.062120467
-0.18446949 -0.100763716 0.1547252 -0.24495813 0.32776353 0.2603483 -0.009492979 -0.12600878
-0.30600554 0.056241486 0.028337685 -0.042948302 0.4416098 -0.024345806 -0.2527488 0.083324485
-0.36587524 0.027101787 0.20086846 0.022197504 0.37214726 -0.06654786 0.2651394 -0.17986615
0.33819735 0.43702513 0.23498686 -0.31103757 -0.17571995 -0.08358778 -0.08822104 -0.25177675
-0.021650352 0.5638564 -0.09854208 -0.04849106 0.033805702 0.11397871 0.2121532 0.21228942
-0.09762865 -0.2927781 0.08538474 -0.1499277 0.6385595 0.18860902 0.31624654 -0.037806448
-0.047899198 0.3310616 -0.06109098 -0.22540598 0.15774658 0.03579082 -0.3208442 0.012973928
0.25538665 -0.26223436 -0.08633671 0.24087393 -0.019400252 -0.2657011 0.18828186 -0.049527887
0.34951344 0.4278288 0.33297193 -0.4080924 -0.2994753 -0.5101232 -0.099190705 -0.37973633
0.3354231 0.1601411 -0.08316639 -0.02285333 -0.51643115 -0.069189385 0.07013579 -0.094324484
-0.70079553 -0.210294 0.31023538 -0.18720163 0.16626927 0.33947945 0.19154863 -0.6634679
0.22433515 0.5147038 -0.4494082 -0.022164715 0.043265224 -0.2287388 -0.18331309 -0.019094212
00000000: 69b2 63be b38c 8a3e 20f7 febd cc32 bcbc
00000010: 3dd9 b5bb e5db 953e 9437 6c3e cab1 6f3d
00000020: c4ab 803e b5d4 553d dece aabe 31be 32be
00000030: 9d76 00bf e85e 9f3e b44f 0bbd aed0 83be
00000040: ad5c d2bd f48f 7a3d 2a40 9c3c 78a5 90bd
00000050: e019 bbbd d97b 85be 44d6 41be 9c3b 0abe
00000060: aead 7dbe 823e 99bd 371d 113e 6e43 b5be
00000070: 7bd7 ed3e d400 933e 881c df3c e2e6 21bc
00000080: b358 f43c 3521 b3bd 5740 29be 090a 1ebc
00000090: d3d8 57be 61f6 a33d 1382 9cbd 0fcd 413e
000000a0: 7321 873e 45e6 2cbd 4286 5e3e e40f 96bc
000000b0: 4f57 703e e758 22bd 02fc 253e dd96 db3d
000000c0: faca 6bbe 82b2 e73e 5e89 6ebd 7e8e 833e
000000d0: e738 cc3d 962d 89be 4975 7e3c db95 653e
000000e0: c46f fcbc 108b d23d e97b 6abe ef9a cebc
000000f0: 1c5c 2a3e fa2b 8d3e f959 fabc c296 14be
00000100: fabe 503c 2616 aebe d929 fcbd d537 513d
00000110: e3d3 01be ea8c b23d 7e04 b13c 492d 013e
00000120: e03f 16be c99c 963e 622a 463e 7ce6 24be
00000130: 8c19 1fbd 03c8 853e cfcf bbbd b098 03be
00000140: b214 543e 1363 083e 12b6 85be 2e31 173d
00000150: 9ac3 223d 539d 8fbe d064 303e 6e76 f33e
00000160: b8e8 4cbe e088 d13e e08b 6ebe 60fd 0c3c
00000170: 6158 a33e 339e 9e3e 2b65 fb3d 6441 90be
00000180: bac0 8c3e 8c69 b4be 54c7 00bf 1561 f8bc
00000190: 30c2 913e 56d4 963d c439 d2bd 5dc0 493e
000001a0: 8418 91bd 31e4 203e a604 783e a79e 83be
000001b0: 367d 2fbd ca0e f6be c45c f3bd e080 583d
000001c0: fa78 8b3d c482 013e f8c7 263e 0ecb 083f
000001d0: 36ab 06be fa0c a93d 2085 d23d 67b0 613d
000001e0: 71b5 45bd b153 993c 91c8 213c 6243 b73d
000001f0: c5dd 9a3e 9232 733d 7825 933e c6b6 5cbe
00000200: 1b47 8e3d 7b17 c23e fda9 40bc 47f3 6b3e
00000210: a59e 863e 916f 39bd c2b5 da3d 19ed aa3c
00000220: f4d3 efbd f055 093d b994 c73d 7647 db3c
00000230: 7479 b1bd 61d8 f63e 8fcf 053e a4c9 4d3b
00000240: ad1d 363c 0f43 143e 24fe 0bbe 7fee 1ebe
00000250: 1dd7 063e 5dc1 2ebf 9250 8bbe cd04 d7be
00000260: a7d5 4dbe df39 d13e efd4 ac3d 188a 29bf
00000270: 7309 4c3e eceb 093d b637 7f3d 0872 7e3d
00000280: 92e5 3cbe 355d cebd 4870 1e3e 4ed6 7abe
00000290: 9fd0 a73e 5f4c 853e 7188 1bbc 7208 01be
000002a0: c2ac 9cbe 795d 663d 6f24 e83c 8fea 2fbd
000002b0: ae1a e23e db70 c7bc 4a68 81be 07a6 aa3d
000002c0: 0054 bbbe 9104 de3c 76b0 4d3e 8ad7 b53c
000002d0: 168a be3e 3f4a 88bd 5ac0 873e d52e 38be
000002e0: 3428 ad3e c2c1 df3e 65a0 703e 5140 9fbe
000002f0: eeef 33be 1230 abbd 3cad b4bd e2e8 80be
00000300: 145c b1bc e558 103f 6ed0 c9bd 909e 46bd
00000310: d977 0a3d ab6d e93d b03e 593e 6662 593e
00000320: 88f1 c7bd 03e7 95be 32de ae3d a686 19be
00000330: a378 233f b922 413e 11eb a13e efda 1abd
00000340: f331 44bd e880 a93e 893a 7abd d3d0 66be
00000350: 5288 213e 6599 123d b145 a4be 9990 543c
00000360: 0ac2 823e 9543 86be 4dd1 b0bd a8a7 763e
00000370: 47ed 9ebc f909 88be f6cc 403e c1dd 4abd
00000380: 6df3 b23e 600c db3e 4c7b aa3e 7df1 d0be
00000390: d454 99be 6f97 02bf 7f24 cbbd cd6c c2be
000003a0: 94bc ab3e 07fc 233e 2453 aabd e836 bbbc
000003b0: d534 04bf 2ab3 8dbd 5aa3 8f3d 322d c1bd
000003c0: 5667 33bf 4f57 57be 2cd7 9e3e c9b1 3fbe
000003d0: 7e42 2a3e 40d0 ad3e 5325 443e 08d9 29bf
000003e0: 1db8 653e a1c3 033f d518 e6be c792 b5bc
000003f0: e036 313d 813a 6abe 6db6 3bbe 776b 9cbc

bias_ih_l0 f4 [80]
-0.007575405 -0.17561415 -0.07711477 0.16337667 0.14851251 -0.08295712 0.14355682 0.14287336
0.10447653 0.114076726 0.31423673 0.29521334 0.108397864 0.07808128 0.18628283 -0.05702505
0.16633935 -0.050078508 0.1345201 -0.016533483 -0.0106960805 0.1549644 -0.026404819 0.24492012
0.20736249 -0.06434392 0.017212193 0.23784794 0.14604838 0.13849127 0.1648459 0.17740409
-0.108272746 0.19838163 0.22155625 -0.055597544 0.080239475 -0.20210063 0.084669575 0.17320324
-0.07119769 0.04161547 0.1464533 0.04963523 0.06727088 -0.12486312 0.22156587 0.07611835
-0.14704801 0.020643357 0.12817372 0.078129925 0.043458752 0.019987406 -0.26834685 0.10524463
-0.026354907 -0.01574619 0.18240592 0.032931667 0.026132071 0.04942652 0.101496406 -0.108604975
0.14277157 0.21499744 -0.14995816 0.0833258 0.12531218 0.37013045 -0.16644011 0.011168999
0.06930634 0.2531643 -0.015840985 0.12709656 -0.041988827 0.1089617 -0.092305414 -0.09453186
00000000: 1a3b f8bb 32d4 33be 59ee 9dbd 374c 273e
00000010: aa13 183e 6ce5 a9bd 8f00 133e 654d 123e
00000020: caf7 d53d 0fa1 e93d a3e3 a03e 3426 973e
00000030: b3ff dd3d 14e9 9f3d edc0 3e3e 1993 69bd
00000040: dd54 2a3e 1f1f 4dbd a3bf 093e 3a71 87bc
00000050: 9d3e 2fbc fdae 1e3e eb4e d8bc 57cc 7a3e
00000060: d556 543e bfc6 83bd 9600 8d3c 698e 733e
00000070: b58d 153e a8d0 0d3e 5dcd 283e 6ba9 353e
00000080: 1abe ddbd 8e24 4b3e a4df 623e 40ba 63bd
00000090: 9854 a43d 78f3 4ebe 3e67 ad3d 315c 313e
000000a0: 18d0 91bd fc74 2a3d dbf7 153e 504e 4b3d
000000b0: 51c5 893d 3cb8 ffbd 2ae2 623e f0e3 9b3d
000000c0: c193 16be 421c a93c f93f 033e 9502 a03d
000000d0: ce01 323d a1bc a33c c264 89be 7f8a d73d
000000e0: 3fe6 d7bc 27fe 80bc 9ec8 3a3e 5be3 063d
000000f0: ed12 d63c 7673 4a3d 59dd cf3d 496c debd
00000100: b632 123e 4a28 5c3e a28e 19be b8a6 aa3d
00000110: d651 003e bd81 bd3e 476f 2abe 2dfe 363c
00000120: 7bf0 8d3d c09e 813e f4c4 81bc 9a25 023e
00000130: 7afc 2bbd 5027 df3d 9f0a bdbd eb99 c1bd

bias_hh_l0 f4 [80]
0.17037885 0.12120301 -0.13580096 0.09767073 0.10205976 -0.19154738 -0.0047299284 -0.07603332
-0.044474307 0.17733945 0.0894581 0.012122396 0.010636824 -0.0743851 0.024388522 0.27656105
-0.18418401 0.02400261 0.10525269 -0.10135708 -0.034705423 0.2839903 -0.07573492 0.14790319
0.23250374 0.37124392 -0.16345607 0.13143417 -0.02612634 0.056648508 0.28879908 0.03381137
-0.08481875 0.0089966 0.103206664 0.1887867 0.2085964 0.08182487 -0.01961851 0.16204327
0.1349065 -0.15805763 0.05779193 -0.28531298 -0.09631953 0.065871835 0.035143986 0.028622225
-0.05820021 -0.010405312 0.06750044 -0.022347976 -0.003584955 0.03386222 -0.046847 -0.10189975
0.050416596 0.1348931 0.036151066 0.1912365 -0.0017694664 0.2285398 0.2918967 0.043046407
0.114929125 0.04279174 -0.006185807 -0.072524525 -0.038126666 0.33676878 0.08962866 0.12302706
0.3013376 -0.021987973 0.22652347 -0.08119848 0.061401483 0.27310097 -0.038027123 0.12514305
00000000: cb77 2e3e 4939 f83d 680f 0bbe 9707 c83d
00000010: b504 d13d ff24 44be 84fd 9abb 5bb7 9bbd
00000020: b12a 36bd 7998 353e cf35 b73d 049d 463c
00000030: 1346 2e3c 3757 98bd 70ca c73c 6999 8d3e
00000040: bc9a 3cbe 1fa1 c43c b98e d73d 4d94 cfbd
00000050: 4627 0ebd 2d67 913e e91a 9bbd ef73 173e
00000060: 7615 6e3e af13 be3e 0761 27be ae96 063e
00000070: e806 d6bc 4408 683d 79dd 933e cb7d 0a3d
00000080: 74b5 adbd 7a66 133c 045e d33d 4d51 413e
00000090: 4b9a 553e cc93 a73d ffb6 a0bc acee 253e
000000a0: ee24 0a3e dcd9 21be 3bb7 6c3d 8b14 92be
000000b0: 2c43 c5bd d0e7 863d 24f3 0f3d 2879 ea3c
000000c0: 5863 6ebd 0b7b 2abc ac3d 8a3d 1a13 b7bc
000000d0: 90f1 6abb 1cb3 0a3d a4e2 3fbd d1b0 d0bd
000000e0: a281 4e3d 6b21 0a3e 2413 143d 80d3 433e
000000f0: 71ed e7ba 5606 6a3e 7c73 953e 6e51 303d
00000100: f65f eb3d 6446 2f3d 4fb2 cabb bd87 94bd
00000110: b52a 1cbd f56c ac3e 3b8f b73d 9cf5 fb3d
00000120: ec48 9a3e 1f20 b4bc c5f5 673e 644b a6bd
00000130: 1f80 7b3d e4d3 8b3e 54c2 1bbd 8025 003e

weight f4 [45, 20]
-0.039505877 0.29201248 0.22685996 -0.5079973 -0.22225119 -0.05974098 0.2953305 0.34302586
-0.25392482 0.15800387 -0.1911194 -0.24498235 0.14825459 -0.14898522 -0.12207326 0.13798474
0.36022946 0.7697553 0.3504915 0.053675648 0.14090042 0.21723194 0.11754363 -0.24221462
-0.23433143 -0.042946555 0.2580259 0.10604716 -0.0595336 0.043636072 -0.18417378 -0.12074493
0.2010082 -0.29110476 0.0805995 0.25577816 0.17373782 0.6912939 0.16079868 0.012644379
0.21132043 0.24947217 -0.19890764 -0.14462492 -0.1718875 -0.0056831306 0.16044359 -0.009219507
-0.113499805 0.07196322 -0.10460177 -0.09570313 0.117148116 -0.39013717 -0.15052757 0.37514958
0.093995154 0.6717491 0.13940926 -0.07506018 0.13645475 0.07515564 -0.2543439 -0.05794275
-0.23518887 -0.018918995 0.016114345 -0.103458695 -0.11451284 0.13348319 0.00933583 -0.032120876
0.022911636 -0.18613364 -0.086242765 0.5275688 0.11871319 0.4506928 0.031846892 0.04795983
-0.16305017 0.05877365 -0.25269154 0.15100878 -0.21691209 -0.034403093 -0.035055973 -0.11002961
-0.24807046 0.15432407 -0.050540917 0.012480781 -0.085311696 0.0025169544 -0.18032339 0.46860346
0.16291331 0.42672774 0.078505926 0.07202327 -0.13789578 0.026079634 -0.0841344 0.25952363
-0.2244772 0.035332624 -0.011132843 -0.19610032 -0.02781859 0.081908636 -0.1033055 0.12559201
-0.14668314 0.10156255 0.117533796 0.31080422 0.031674646 0.33867466 0.035270013 0.13888292
-0.12747243 0.113035604 -0.09565984 0.295807 -0.09809173 0.07543452 -0.032194402 -0.28490448
0.13610423 0.020058883 -0.13759424 0.049618475 -0.10099042 0.008173409 -0.056099303 0.1066694
0.11876636 0.106474124 0.1865859 0.21391246 -0.16553405 0.08449334 -0.11409384 0.25576487
0.029810727 0.07495036 0.117788896 -0.18027997 0.29102916 -0.0687647 -0.10972207 -0.10483048
-0.077807665 -0.022532184 -0.007359568 -0.012259237 0.10960767 -0.025929002 0.096602574 0.34148014
-0.020385323 0.14114906 -0.0588164 0.17967664 -0.042295795 0.10309947 -0.009971893 -0.08416884
0.1890897 -0.069994 -0.12537794 -0.25946766 0.008006602 0.029367823 -0.228182 -0.0759907
0.057096727 -0.10225861 0.20102453 0.25216767 0.07029458 0.08644034 -0.011759574 0.11401308
-0.10660549 0.10895628 -0.21653984 -0.16876821 -0.048838675 -0.15307261 -0.088444956 -0.30678287
0.040778875 0.085086964 -0.028968183 0.03501007 0.040476393 -0.14455095 0.032448195 0.29662454
-0.017624969 0.15361959 0.08218646 -0.08379239 -0.09914833 0.06512563 -0.28929168 0.062064063
-0.05293708 -0.2958774 -0.09275542 -0.20714346 -0.04204745 0.03725923 -0.05552956 0.0868526
0.010718112 -0.05761999 0.018535018 0.35130206 -0.015898261 0.2579553 0.05877798 -0.058184616
-0.03739873 0.12007611 -0.23913117 0.10760286 -0.0965327 -0.31531408 0.023553753 -0.061046723
-0.057527363 -0.0010179508 -0.20995389 0.021209568 0.10128373 -0.007276134 0.21339488 0.27577218
-0.09094954 0.26838005 -0.010982274 -0.19793423 0.10587992 0.142285 -0.035638824 0.10706655
-0.21606712 -0.26945072 0.14898218 0.02614959 -0.16219585 -0.10930633 -0.053981036 0.10177046
00000000: ead0 21bd a982 953e fa4d 683e 1c0c 02bf
00000010: d195 63be f5b2 74bd 8f35 973e 16a1 af3e
00000020: 6f02 82be c4cb 213e ceb4 43be a7dc 7abe
00000030: 0dd0 173e 958f 18be 8c01 fabd df4b 0d3e
00000040: ff6f b83e af0e 453f 9f73 b33e ffda 5b3d
00000050: 3348 103e 0d72 5e3e b7ba f03d 1c07 78be
00000060: 94f4 6fbe bae8 2fbd f91b 843e 412f d93d
00000070: 81d9 73bd bdbb 323d 0d98 3cbe 1e49 f7bd
00000080: 18d5 4d3e af0b 95be 5a11 a53d 5bf5 823e
00000090: 54e8 313e a3f8 303f 69a8 243e 5f2a 4f3c
000000a0: 6264 583e a275 7f3e 72ae 4bbe 8e18 14be
000000b0: 4703 30be 8e39 babb 534b 243e 6a0d 17bc
000000c0: 9672 e8bd 7461 933d 7439 d6bd 0100 c4bd
000000d0: 5aeb ef3d 0fc0 c7be e623 1abe 9b13 c03e
000000e0: 8880 c03d c0f7 2b3f 4dc1 0e3e 27b9 99bd
000000f0: cbba 0b3e 33eb 993d 5d39 82be 6155 6dbd
00000100: 5ad5 70be 02fc 9abc 3b02 843c 27e2 d3bd
00000110: b585 eabd d1af 083e 4ff5 183c 2e91 03bd
00000120: 2fb1 bb3c d199 3ebe 0ca0 b0bd c00e 073f
00000130: e71f f33d 35c1 e63e e371 023d 8771 443d
00000140: a0f6 26be a4bc 703d c960 81be 0ca2 1a3e
00000150: 341e 5ebe 42ea 0cbd da96 0fbd 3457 e1bd
00000160: 2f06 7ebe 2107 1e3e fe03 4fbd 317c 4c3c
00000170: e6b7 aebd 7df3 243b b2a6 38be cbec ef3e
00000180: bfd2 263e 0f7c da3e b7c7 a03d f080 933d
00000190: 8d34 0dbe f5a4 d53c a84e acbd 48e0 843e
000001a0: 5add 65be f1b8 103d 8766 36bc 86ce 48be
000001b0: d0e3 e3bc b7bf a73d d591 d3bd 319b 003e
000001c0: 1b34 16be 0700 d03d 8fb5 f03d bb21 9f3e
000001d0: 46bd 013d c466 ad3e 4a77 103d 5337 0e3e
000001e0: 2288 02be 367f e73d 4ee9 c3bd 0474 973e
000001f0: 51e4 c8bd 6a7d 9a3d 47de 03bd 00df 91be
00000200: e85e 0b3e 8752 a43c 81e5 0cbe be3c 4b3d
00000210: 11d4 cebd c3e9 053c 62c8 65bd 7d75 da3d
00000220: c73b f33d 1b0f da3d 6010 3f3e de0b 5b3e
00000230: c281 29be d80a ad3d 08aa e9bd 9df3 823e
00000240: a035 f43c 937f 993d 4e3b f13d 509b 38be
00000250: c601 953e 82d4 8cbd f7b5 e0bd 5db1 d6bd
00000260: a059 9fbd 6a95 b8bc 8828 f1bb f7da 48bc
00000270: fc79 e03d 0f69 d4bc 92d7 c53d 7cd6 ae3e
00000280: 1fff a6bc 6189 103e 77e9 70bd 27fd 373e
00000290: 5b3e 2dbd d125 d33d 2761 23bc b660 acbd
000002a0: bba0 413e 0459 8fbd 1363 00be f2d8 84be
000002b0: 1f2e 033c ca94 f03c 8ba8 69be 03a1 9bbd
000002c0: 42de 693d f66c d1bd 60d9 4d3e 1f1c 813e
000002d0: 9bf6 8f3d a207 b13d 3aab 40bc b17f e93d
000002e0: fb53 dabd 7824 df3d 9fbc 5dbe 93d1 2cbe
000002f0: 100b 48bd 11bf 1cbe a122 b5bd a512 9dbe
00000300: c007 273d 1342 ae3d af4e edbc b866 0f3d
00000310: 93ca 253d 2a05 14be 66e8 043d 2cdf 973e
00000320: 3d62 90bc 744e 1d3e 6051 a83d 589b abbd
00000330: 480e cbbd 9660 853d 0a1e 94be e336 7e3d
00000340: 8dd4 58bd 3e7d 97be 8ef6 bdbd 6a1d 54be
00000350: f239 2cbd 229d 183d f772 63bd c7df b13d
00000360: 059b 2f3c f002 6cbd c0d6 973c dddd b33e
00000370: 123d 82bc b812 843e 2ec1 703d fe52 6ebd
00000380: 692f 19bd 77ea f53d cdde 74be e35e dc3d
00000390: f0b2 c5bd d970 a1be cdf3 c03c 210c 7abd
000003a0: d0a1 6bbd c36c 85ba 27fe 56be b0bf ad3c
000003b0: d86d cf3d a36c eebb 3084 5a3e 0332 8d3e
000003c0: c143 babd 1c69 893e ffee 33bc 45af 4abe
000003d0: 92d7 d83d 29b3 113e 04fa 11bd b545 db3d
000003e0: b340 5dbe 72f5 89be c98e 183e aa37 d63c
000003f0: ab16 26be ffdb dfbd 381b 5dbd 086d d03d

bias f4 [45]
-0.10360945 0.087385274 0.06690743 0.08874839 0.020688275 0.121387705 0.055132892 0.081618205
0.023561502 0.10886883 0.08855736 0.049687035 0.058220163 0.09257176 -0.016722988 0.08079517
0.036579855 -0.0018532075 0.08447248 -0.040571947 -0.054784782 -0.051504415 0.067690045 0.034214064
-0.0035234138 0.155583 0.057342567 0.108329564 0.09810775 0.059362736 0.071406685 0.06962433
-0.033582292 -0.014340634 -0.015455243 -0.034382094 -0.07836098 -0.05516272 0.019886784 -0.06684985
0.049717225 0.11529872 -0.02253314 0.0044243806 -0.08259637
00000000: 3131 d4bd 0df7 b23d c306 893d b7c1 b53d
00000010: 757a a93c 1e9a f83d 07d3 613d 7227 a73d
00000020: 0d04 c13c 9ff6 de3d 905d b53d a284 4b3d
00000030: 4478 6e3d 4396 bd3d a6fe 88bc f077 a53d
00000040: c2d4 153d 53e7 f2ba e8ff ac3d c52e 26bd
00000050: 0266 60bd 4bf6 52bd 14a1 8a3d 0c24 0c3d
00000060: 13e9 66bb 2651 1f3e 0ae0 6a3d e4db dd3d
00000070: b7ec c83d 5726 733d ab3d 923d 3397 8e3d
00000080: 968d 09bd fbf4 6abc fd37 7dbc 3dd4 0cbd
00000090: b97b a0bd 4ef2 61bd 9ce9 a23c 93e8 88bd
000000a0: 4aa4 4b3d bc21 ec3d 6b97 b8bc 65fa 903b
000000b0: 4928 a9bd
