checkpoints/cnn_lstm/cnn_lstm_o_15.pt (torch, 19586 bytes, 8 tensors)

weight f4 [14, 8, 3]
00000000: a4e8 2abe ce41 c5bb 2177 f53d 74ea 33be
00000010: f8b6 98be b1af 8a3e 228b e2bd 6258 d53d
00000020: f440 863c e77e 9b3d 65c1 bcbd 6cfa 673e
00000030: dd6e 7dbd 5b60 083d 7eba 3a3e 406c 333b
00000040: 9cb1 fcbc 10b2 573e a6ef de3d efc3 4c3d
00000050: 5b29 253e e0d0 113f 1fc6 f03e 5d7f f33e
00000060: 8949 05be 0dff 11bc c79d 01be 219d ca3d
00000070: b636 41be 3067 46be f4d8 cebd e9c5 46be
00000080: c886 373e fc4a 883d 22d9 823d a080 1bbd
00000090: 1d9b ca3b b811 d7bd f02b 18bd 9092 aa3c
000000a0: 1e86 2bbe 4df4 0bbb 7e07 11bd 1c9a b03d
000000b0: a0c3 3a3e 2d2d 17bc 929d 0ebd 16c1 343e
000000c0: f87d 22be 2cbe 2abe 2a62 b2bd ee55 bcbc
000000d0: 9f97 433d 1f12 86bd 67cc 25bd 5741 673d
000000e0: 5791 a43e dbc4 903d c222 343e 9c48 133f
000000f0: 7585 61be 6549 1cbd abd3 863e 1215 9abd
00000100: d9bd 0cbd 6308 573e 5f7d 45be 6e81 c33d
00000110: 0f8d e7bd 4917 c13d 14a1 46bd 3600 3d3e
00000120: 0511 163e 8803 7fbd 491e 19be 9bd7 a2be
00000130: 7fa8 9dbd 5a30 cabe 2970 063e 8b98 93bd
00000140: 8ec3 04bd 8937 313a 1418 6cbe 597c ecbe
00000150: 99da ad3d 5496 1a3d d4e7 e2be 5bf8 353e
00000160: c45c c23d a6f3 ab3e 5d34 0cbd 1d75 1b3d
00000170: 0c7b 8d3e bf44 c5be 1fce b0be ca4c bfbe
00000180: 9a48 fcba dbfa 85bd 494e 5bbe 0d54 3f3e
00000190: df6a debc 6bed 91be a427 d0bd 8e8a 22be
000001a0: e2b2 1abe d6ae 1c3e 067c babd d538 25bf
000001b0: 4cac 003f 66a4 b73e cb4e a3be 075c 9bbc
000001c0: 5f35 41be c038 0d3e b843 5d3d 9e19 8cbe
000001d0: eb52 f73d 3dc9 b83d 7578 163e 6ad2 65bd
000001e0: de2c 11bd 4e3f 5cbe 6aac 51be e3db a9be
000001f0: 6d9c 123e a3d0 163e 0cf0 3f3c 92f2 593e
00000200: a7c1 33bd 84f5 b9bd 26ca 8e3d 9edc 993e
00000210: 168b c9be 9adf b43c cb44 833d 6c8e 143e
00000220: 8ee2 c23e f743 143e 7b53 613e 4a00 7b3e
00000230: 2abb 3d3d 8d43 23be b042 74bd 422e 22be
00000240: 7c6f 83bd 5be1 033c 28c2 54be d33b d3be
00000250: 3e81 f4bd a023 e63d e953 30bc df4d 1fbc
00000260: e7ac 9b3d 35ed 8abe e909 143e 7ff2 a43e
00000270: c3ff 8abd 4be4 293e a3d1 4e3e 5fac c9bd
00000280: eac7 593d 6577 bcbd 686f 8cbd e90c b1bd
00000290: a186 cd3d a08e 93bd 3cd9 5abe 3981 36be
000002a0: c01a 83be 12dc b0bd d7e1 d23c 6339 55be
000002b0: b80e 5f3d f417 19bc a78c 51be f8a5 be3d
000002c0: 5f37 d73d 028c e53d a331 4c3e 5d30 0abe
000002d0: a95b dd3e 4b2b e83e 7b3b 9f3e d305 78bd
000002e0: 12ae b9bd ba92 34be 8ccd 18bd 6f55 383d
000002f0: 932f 003d 0e76 563d 5221 8dbd b326 393e
00000300: 7abf adbd 315c 2ebe 25c9 cebc 05ec c6be
00000310: 63e2 853e 5f5e a1be 6ae4 1cbc d3dd 4c3e
00000320: 50d6 f1bd aafb 81bd 208e 5c3e 117f 82be
00000330: 8af0 a23e 12a5 9bbe 9b26 883c 5c4b f5bc
00000340: 8c53 0fbe 7edf 20be c0f0 5dbe b5af 46be
00000350: 44f5 82be e470 84be c664 a7bc e48b 35be
00000360: f7c2 563d 277e 113e f2da 383e c329 bebc
00000370: 2704 d53c 06c8 c93e e716 4dbe 5bbf 35be
00000380: edda df3d 8de7 273c b349 2a3e 3283 413f
00000390: 5c01 bfbd 77e3 693d d18f bc3d 8c17 5c3b
000003a0: 5468 5cbd 3a0f 3dbe 61f7 413e 832c 7ebd
000003b0: 2a57 d7bd 0af5 233d 9228 6d3d 4774 54bd
000003c0: e45f 0b3e 3d6a 87be 69ca 033e a6b2 64be
000003d0: de36 efbd 4062 473e ffe0 d33d 19a2 57be
000003e0: c755 263e 18f5 97be 8100 60bf 927d 49bf
000003f0: 1236 f93e f0f7 05be 4d98 083e be22 9c3d
-0.16690308 -0.0060198074 0.11985613 -0.17569906 -0.29827094 0.27087167 -0.11061694 0.10417248
0.016388394 0.07592564 -0.092165746 0.22654122 -0.061873306 0.033295017 0.18235204 0.0027377754
-0.03084641 0.21064019 0.10885553 0.049991544 0.16129057 0.5695934 0.47026154 0.47558108
-0.13016333 -0.0089109065 -0.12657844 0.09893251 -0.18868527 -0.193753 -0.10099974 -0.19411434
0.17922509 0.06654927 0.06389071 -0.037964463 0.0061830417 -0.105014265 -0.037151277 0.02082184
-0.1675038 -0.0021355331 -0.035407536 0.08623144 0.18238688 -0.009227079 -0.03481824 0.17651781
-0.15868366 -0.16674107 -0.087101296 -0.022990193 0.04775202 -0.06546425 -0.040478136 0.056458797
0.32142136 0.07068797 0.17591384 0.5753267 -0.22023566 -0.038155932 0.26333365 -0.0752355
-0.03436074 0.20999293 -0.19286107 0.09546171 -0.11306202 0.094282694 -0.04849346 0.18457112
0.1465493 -0.062259227 -0.14952959 -0.3180512 -0.07698154 -0.39490014 0.13128723 -0.0720683
-0.032413058 0.00067602895 -0.2305606 -0.4618862 0.0848896 0.03774102 -0.44317496 0.17770521
0.0949035 0.33584327 -0.034229625 0.037953485 0.2763294 -0.38529012 -0.34532258 -0.37363273
-0.0019247711 -0.065419875 -0.21416582 0.18684407 -0.02715057 -0.28501448 -0.10163811 -0.15873167
-0.15107301 0.1530107 -0.09105687 -0.64539844 0.50262904 0.35867614 -0.31896052 -0.01896478
-0.18868016 0.1379118 0.05401966 -0.27363294 0.12076362 0.09022758 0.14694388 -0.05610887
-0.03544318 -0.21508524 -0.20475927 -0.33175573 0.14317484 0.14728026 0.0117149465 0.2128394
-0.043885853 -0.090800315 0.069721505 0.3005113 -0.39363927 0.022079278 0.064096056 0.14507455
0.38063473 0.14479052 0.22004502 0.24511829 0.04632107 -0.15943737 -0.05963391 -0.15837958
-0.06417748 0.008049334 -0.2077719 -0.4125658 -0.119387135 0.11237264 -0.010762193 -0.009723156
0.07601338 -0.271341 0.14456905 0.3221626 -0.06787064 0.16590993 0.20197158 -0.0984733
0.05316917 -0.0920246 -0.068571866 -0.086450405 0.10035444 -0.07204938 -0.21371931 -0.17822732
-0.25606346 -0.08635725 0.025742454 -0.20822673 0.054457396 -0.00934409 -0.20463811 0.09309
0.10508608 0.11208345 0.1994081 -0.13495012 0.43233994 0.4534553 0.31100067 -0.06055243
-0.090664044 -0.17634097 -0.0373054 0.04500335 0.03129537 0.05235868 -0.06891121 0.18081169
-0.08483787 -0.17027356 -0.025242398 -0.38851944 0.26149282 -0.31517312 -0.0095759425 0.20006494
-0.11808455 -0.06346829 0.21538591 -0.2548757 0.31824142 -0.30399376 0.016619971 -0.02994316
-0.13996714 -0.15710256 -0.2167387 -0.19402964 -0.25577748 -0.2586738 -0.020433795 -0.17729145
0.052432027 0.1420828 0.18052271 -0.023213273 0.026002957 0.39410418 -0.20028268 -0.17748778
0.10930429 0.010248077 0.16629677 0.75590813 -0.09326431 0.057101693 0.09207118 0.003358337
-0.053810433 -0.1846284 0.18942024 -0.06205417 -0.10514672 0.04002861 0.05790002 -0.051868703
0.13610798 -0.2644824 0.12870182 -0.22333774 -0.11680387 0.19471073 0.10345649 -0.21057929
0.16243659 -0.2967918 -0.8750077 -0.7870723 0.48674065 -0.13082862 0.13339348 0.07623814

bias f4 [14]
00000000: c272 dfbd 7a51 2abe 3185 f33c 51e5 88bb
00000010: 8e04 f63d 5fce 84be 2c57 aa3d 3fa0 583e
00000020: b7d3 27be f1f8 1fbe 6570 cf3d e573 24be
00000030: 315b e63d 9dfe 6b3d
-0.1091056 -0.16632643 0.029726597 -0.0041777273 0.120125875 -0.259387 0.08317408 0.21154879
-0.16389357 -0.15622307 0.101288594 -0.16059835 0.11247862 0.057615865

weight_ih_l0 f4 [80, 14]
00000000: 6199 e93e 3949 dcbc c4aa b63e 0ac9 8bb8
00000010: 4a31 df3e 4e44 ecbc 5411 e73d 8ccf a93e
00000020: fddf b33c dfd7 933e 8f12 673e d29c 0dbc
00000030: 78fb 243e 28c1 f93c b9f3 a43e bcfe c93c
00000040: d28a ef3e 77c2 573e 2812 693d f49d c6bd
00000050: d7b1 063e 7f37 9c3e 64a0 bd3e 84c1 363e
00000060: c53a 3e3e 2488 b43e f04a 0b3e 31a0 133e
00000070: 3a40 903d b93d 6e3d 977f 6bbd ef11 3cbf
00000080: b2d9 9d3e 285b 143f 04e8 563e 3f37 573e
00000090: 6b6c 8f3e 111b 183e 5de2 bc3e efb8 b4be
000000a0: 2d82 403e c3a5 033e e7ef ef3e 1070 e3bc
000000b0: 4904 16be ab25 ddbf 0500 06be b8e4 593e
000000c0: ab5c 4abd c8d9 d63e 194d c2be 11e4 03be
000000d0: 0244 1abe 75ca 893e 40e0 fe3e a844 443f
000000e0: a9d4 08bf 9396 5f3e 195f 1a3e dff1 a4be
000000f0: 2b8b 533e 3a85 22bf 4851 493d 68de b53d
00000100: c1ad b8bd bf6d 923e 3538 fdbe fc74 12bc
00000110: 0451 0fbf a558 563d ec09 093f 8c84 b73d
00000120: 7775 813d ad5c 513e 31d4 983e a42b b2bd
00000130: cefb 35bc 0776 f3bd 2e54 933e d8bf 95b9
00000140: f477 b6be 2f30 6c3e 23ec c03e 7339 aa3e
00000150: fa51 0bbf b3a8 cabc 12be b4be 57bc 02bf
00000160: 9fc1 8bbe b9e9 383f f7ca ba3d ca07 a7b9
00000170: 1988 753e 708a 77be edab 01bf 9d2e 41bf
00000180: c4f9 62be 8bd5 203f cf29 c33e bf33 ca3d
00000190: 06eb 04bd 3df3 4bbe 8e6c 76bd 2b4f 983e
000001a0: dc77 dc3e 7a66 fdbc 2681 053e b923 483d
000001b0: 6acf ca3d 3539 cbbe 998c fcbc f0fa 9fbe
000001c0: 7788 0bbe c2a3 bb3c bdfa 75bc 5a2d 56be
000001d0: 569d 13be bfbe d73e 7eb5 d03d 97d6 72bd
000001e0: 5f0c b53e d324 92bd da02 29be 6447 b43d
000001f0: 709a bc3c face 4f3e 5f69 bf3e 0b4f 6abd
00000200: 51ec 2e3e 4b58 4dbf af24 853e 5f13 ba3b
00000210: 89f2 cb3d de1b 9ebe c5e9 8e3e a5dd 5c3e
00000220: 65b1 aebd 1aca 803e 74e2 6f3c 7589 31bd
00000230: 41a2 fe3d 0385 613c c9ca 533e 95d3 33ba
00000240: ff7b f1be 89d9 f83e 4b21 293d f1f6 9fbe
00000250: 53ed 503f ab18 203f 9576 b4be 5721 84be
00000260: 08d7 b23d 4f3c b8bd 4f41 f43e d0c7 1f3e
00000270: 895f ce3d 26c7 c03d b0fc 0bbe 077b a63e
00000280: 15cb c13e 8010 2abe 1daa 013f c904 413e
00000290: c767 71bc 3443 08bf afcd af3e bce4 27bc
000002a0: 3b5d 6abd d252 183e 7658 c53e ad58 b83e
000002b0: 1cd1 ee3e 9de5 103f ad61 083f c153 da3d
000002c0: 3334 a83c 5aa5 af3e 189d 3a3e 95bf 09bf
000002d0: fdaf 003e 334d d9be 0574 91bc c315 0e3c
000002e0: b969 82bc e872 a83b 6b7e b63d e763 0d3d
000002f0: 6a2f 64bc 1f40 8c3e ded6 96bd 3348 5cbc
00000300: d18b 713e 9aca f73e de54 593c 6e0a 6c3d
00000310: 2549 613e f9f4 2dbe 3419 bb3e 080a 8abe
00000320: 88c1 163e f15b 263f d4c6 b23e 197d 9f3d
00000330: 8f4e 38be 562a 9ebe 059e 2d3d 2ca5 87bf
00000340: 3c11 563e 99b1 343d 5701 8ebd a9e3 dbbc
00000350: 7b82 883e 3f46 1cbe aa86 91be bd61 183f
00000360: e2b6 cbbd d97f 46be 6969 f83e f5fe a93d
00000370: 187f 13bf f286 e3be 7404 183e e915 383e
00000380: f6e2 b43e 3f7f 06bc 8a49 603e 1741 f0be
00000390: 9077 e2bd d071 b53e 4e4f 11be ab0f 05be
000003a0: 576a 3c3f f5a9 863e 05b5 b4be d9fa 2fbe
000003b0: 73d6 2e3e 9e6d 9f3e 858b 1cbf 220f 423d
000003c0: e8b8 29be ebc3 b53e 3035 c93e 4f44 29be
000003d0: 2347 903e 2548 edbd c002 263f 671f 44bf
000003e0: 94fd e83e 63cd 48be c607 03bf 8ab7 f13c
000003f0: efa9 963e e2fa 3b3e 0587 c6bd 8cfd 14be
0.4562483 -0.026890384 0.3567716 -6.665483e-05 0.43592292 -0.028841164 0.11282602 0.33166158
0.021957392 0.28875634 0.22565673 -0.008643346 0.16111553 0.030487612 0.32217196 0.0246576
0.467856 0.21070276 0.05690208 -0.09698096 0.13153778 0.3051109 0.3703643 0.17847258
0.18577106 0.35260117 0.13602805 0.14416577 0.070435 0.058164332 -0.057494726 -0.73464864
0.3083015 0.57951593 0.20986944 0.21017168 0.28012404 0.14854075 0.3689145 -0.35297343
0.18799658 0.12856202 0.46862718 -0.027763397 -0.14650072 -1.727712 -0.13085945 0.21278656
-0.04940478 0.4196303 -0.37949446 -0.12879969 -0.15065005 0.26912275 0.49780464 0.7666726
-0.53449494 0.21834783 0.1507534 -0.32215783 0.20658557 -0.6348454 0.04914978 0.08880311
-0.09017516 0.28599355 -0.49456945 -0.008939024 -0.55982995 0.05233063 0.53530765 0.08960828
0.06321233 0.20445509 0.2984939 -0.0869973 -0.011107398 -0.11887746 0.28775162 -0.0002856243
-0.35638392 0.23065256 0.37680158 0.33246955 -0.5442196 -0.024738645 -0.35301262 -0.51068634
-0.2729616 0.7223163 0.09120744 -0.00031858525 0.23977698 -0.24173903 -0.5065296 -0.7546175
-0.2216559 0.6282584 0.38117835 0.09873151 -0.0324507 -0.19917007 -0.06016212 0.297479
0.43060195 -0.030932654 0.13037547 0.048862193 0.09902842 -0.39692083 -0.030828761 -0.31246138
-0.13626276 0.022905234 -0.015013394 -0.20915738 -0.14415488 0.42137715 0.10190867 -0.05928668
0.35361 -0.0713593 -0.16504994 0.08802679 0.02302286 0.20293799 0.3738508 -0.057204287
0.17082335 -0.8021285 0.2600455 0.0056785787 0.09958369 -0.30880636 0.27912727 0.21568926
-0.08529929 0.2515419 0.014641393 -0.04334398 0.12433291 0.013764623 0.20682825 -0.0006859836
-0.47164914 0.48603466 0.041291516 -0.3124309 0.8161213 0.6253764 -0.3524672 -0.25806686
0.0873242 -0.08995878 0.47706077 0.15603566 0.10076816 0.094129845 -0.13670611 0.32515737
0.37850252 -0.16607857 0.506502 0.18849482 -0.014734215 -0.53227544 0.34336612 -0.010247406
-0.057217818 0.14875343 0.38544053 0.36005154 0.46643913 0.5660036 0.5327404 0.10660506
0.020532703 0.3430584 0.18223989 -0.53807956 0.12567134 -0.4244171 -0.017755518 0.008672181
-0.015919553 0.005140651 0.08910831 0.034519102 -0.01392732 0.2739267 -0.073652014 -0.013444948
0.23588492 0.4839676 0.013264863 0.057627134 0.22000559 -0.16987981 0.36542666 -0.26960778
0.14722264 0.6498404 0.3491732 0.07787532 -0.17998718 -0.30891675 0.042387027 -1.0597281
0.20905012 0.044114683 -0.06933849 -0.026841955 0.2666205 -0.15261172 -0.28423053 0.59524137
-0.099469915 -0.19384708 0.48517922 0.08300582 -0.57615805 -0.44438893 0.14845449 0.17977108
0.35329407 -0.008209049 0.21903053 -0.4692466 -0.11057961 0.35438395 -0.14190409 -0.12994258
0.7359976 0.26301542 -0.35294357 -0.17185535 0.17073993 0.3113832 -0.6115039 0.047377713
-0.16574442 0.35501036 0.3929839 -0.16529964 0.28179273 -0.11586026 0.64847946 -0.76610416
0.45505965 -0.19609599 -0.51183736 0.029506464 0.29426524 0.18357423 -0.09693722 -0.14549845

weight_hh_l0 f4 [80, 20]
00000000: 431d b43d e4d2 0cbe e495 1cbf f405 aebe
00000010: c703 883c 3c01 5abe 46d5 45be 87b5 29be
00000020: de7f afbb 2996 bfbd 1172 27be b66d 693c
00000030: 2597 d23d 6a4b ef3d 7f46 693d b983 0ebe
00000040: 2107 06bf 0af7 c43c ed57 9d3c ba8b 12be
00000050: 278b 02bf 7cf7 fd3d 66d2 013e 6653 ff3d
00000060: a11b 9c3e 7b4f 993d 8af3 12be 4258 bdbc
00000070: ff6b 943e a684 993e 2df6 26be 201a 6ebe
00000080: 7e13 413e 430b c1be 166b 0abf 5104 893d
00000090: 3d75 d1bd c84e c33e ca46 833d afac 11bf
000000a0: fe48 71bd eb34 54be d805 96be 68c4 21bf
000000b0: 0e1e 5c3e 9ab0 b7bd 8c7d fe3d b8cf 94bd
000000c0: e57f 2b3e f72a 9f3d 9371 57bd 166e 41be
000000d0: cef9 133d 49b3 bbbe 3e00 f2bd e6c8 963d
000000e0: 729f 37be cabc 533e 1012 8f3e c941 9dbe
000000f0: 6881 d1be 1cc3 e1bd 3df8 22be f16f b4be
00000100: 2705 533e 5b18 f4bd d3f5 9d3e 41fe 45be
00000110: 9b16 ad3d c4b6 80be 8ce4 803e 1573 a33c
00000120: 0662 2f3f 3eac ac3d 2ea6 0dbf 29bf afbd
00000130: 9471 e5bd ae23 c53e 7915 5a3e c17e dfbe
00000140: 3733 6cbe 1b53 9ebd 1758 71be b994 a7be
00000150: 4c81 013e e8a1 debe 7ad1 a33e 04ca 853d
00000160: 11f1 e73c c723 17be cbca 9ebe 4698 12be
00000170: dafb 0cbf b3ba 2bbf a2a7 013e a666 493f
00000180: 23c9 743d 88d2 3bbe 124c 34be 350d 8fbe
00000190: 5516 1f3d 3871 4fbd 2f7f 55bd 7f66 153e
000001a0: d23a 86be fa9a 97bd 398a 5fbe 1ce8 0dbe
000001b0: 4c43 8cbd 6c27 afbd 5cdc 9bbc 79b5 1abd
000001c0: 171d b13e 3585 33be edcd b6be eef1 c8bc
000001d0: 8f0f 8c3e 2ec4 a63e 67fc db3d 2f9e 0cbd
000001e0: 0f2d 583e 344f 573d 2148 95bd e484 87be
000001f0: 7324 253f 7071 a8be a5a7 64bd 891c c13e
00000200: 4096 4dbc d62e 85be 742d da3d 9adf 9c3d
00000210: df52 283e ff19 8c3d 8a4b bcbe bee0 b3be
00000220: 76ff 73be e5bd 83be 1867 003d ce14 dbbe
00000230: d740 aabd 0989 70be 1d2d 28be 9249 85be
00000240: 8f7b 93bd a9ac 07bb 2ba4 833e 04b7 51bc
00000250: d145 24be 5e17 d5be 4e00 13be d9fd 023e
00000260: f379 013f afad 563d 6d73 29bc c0c4 053d
00000270: dfa0 28bc 9268 25bd 602f f23d 4d2d 57be
00000280: 18d9 c4bb 2354 8b3d 52fb cc3d ff64 1abe
00000290: c0c5 90bd cd29 36bd 3810 373e e5b8 83be
000002a0: b0e3 833e 4339 8abd 4599 f33e 2304 2b3d
000002b0: a4d2 6f3e d49f 2a3d 2bfc aebe 2261 a2bd
000002c0: 95d8 aebe c1cc 683e a8aa a33e 9a28 db3d
000002d0: 9aa1 043e 9e64 453e eced 2abe 65ca 1dbf
000002e0: 4e97 ac3e 2cdf 52be 5b3d 0c3f c80c 62be
000002f0: d9de 7b3e a8cd 673d 2065 3e3d 4ab1 43be
00000300: bf8b 9a3e f329 753e f89e 73be 4fcf 1cbe
00000310: 0124 f0be 4e10 983e 91cf c9bd ee2f 26bf
00000320: 53f9 793c 5e75 d73d 99d3 a33d b263 a8bd
00000330: 3805 603e e19d 9abe cf0d 21bd fa2d 8dbd
00000340: e864 0c3e 9058 a7bd abbe abbd 72c3 92bd
00000350: eee4 593d 4dba 83be 74b6 c2be 2912 963c
00000360: b86a 903e efdd 473e 88e1 383e 4ce5 943e
00000370: 7466 6dbd 7658 1c3e 1e86 8f3d 59e5 13bd
00000380: 586e 833d 23c1 0abe f92f c53d 88fa 4abe
00000390: 8882 a6bc 77a5 593d 18c9 593b 2919 14be
000003a0: d766 ca3d 5462 3fbd 321d 9d3d 9a99 323e
000003b0: b6b1 df3b 97e5 56be bb6e cc3d 485b efbd
000003c0: af58 9fbe a1f1 b93d 8c4d e33e cc65 a53d
000003d0: 4dcc df3e 4a27 69be f607 01bc 675a a1be
000003e0: 373c 7d3e 4ca5 63be 2325 dd3e 5897 d5be
000003f0: 0035 10bd ebb0 56bd 56ae babe 9f65 e5be
0.08794644 -0.13752323 -0.61166215 -0.33988917 0.016603364 -0.21289533 -0.19319639 -0.16573153
-0.005355819 -0.09354813 -0.16352107 0.0142473485 0.10282735 0.11684306 0.056951996 -0.13917436
-0.5235463 0.024043579 0.019206965 -0.14311114 -0.5099358 0.124007195 0.12677917 0.12467079
0.3048983 0.07485863 -0.14350715 -0.023113374 0.28988644 0.29984015 -0.16304846 -0.23252153
0.18855092 -0.37703905 -0.5406965 0.066902764 -0.102274396 0.38146043 0.06409986 -0.5690412
-0.0589075 -0.20723312 -0.29301333 -0.6319032 0.2149584 -0.08969231 0.1242629 -0.07266182
0.16748007 0.07771867 -0.052598547 -0.1888965 0.036126904 -0.3666022 -0.118164524 0.07362537
-0.17931917 0.20677486 0.27943468 -0.30714253 -0.40919042 -0.11023542 -0.15915008 -0.35241655
0.20607434 -0.11918708 0.30851611 -0.19335271 0.08451577 -0.2513944 0.25174367 0.019952336
0.68508947 0.0843129 -0.55331695 -0.08581383 -0.11203304 0.38503784 0.21297254 -0.43651393
-0.23066412 -0.07730695 -0.2356876 -0.32730654 0.12646979 -0.434829 0.31995755 0.06532672
0.028313192 -0.14759742 -0.31014094 -0.143159 -0.55071795 -0.67081755 0.12661603 0.78672254
0.05976213 -0.1834203 -0.17607144 -0.27939764 0.038839657 -0.050645083 -0.052123245 0.1458988
-0.2621675 -0.07402606 -0.21830072 -0.13858074 -0.06848773 -0.08552441 -0.019025974 -0.037770722
0.34592506 -0.17531283 -0.35703984 -0.024529424 0.2735562 0.32571548 0.10741501 -0.034330543
0.21110938 0.05256577 -0.07289148 -0.26468575 0.6450874 -0.32899046 -0.05582394 0.37717083
-0.012548029 -0.26012295 0.10653201 0.07659836 0.16437863 0.06840896 -0.36776382 -0.35132402
-0.2382792 -0.25730816 0.031348318 -0.4278931 -0.083131485 -0.23489775 -0.1642346 -0.26032692
-0.07201301 -0.0020702279 0.25711188 -0.012799982 -0.16042258 -0.4161939 -0.14355585 0.12792148
0.50576705 0.05241173 -0.010342461 0.03265834 -0.010292261 -0.04038293 0.11825442 -0.21013375
-0.006007325 0.06803157 0.10008873 -0.1507759 -0.07068968 -0.044473458 0.1787728 -0.25727
0.2575965 -0.06749203 0.47577873 0.041751992 0.23420197 0.04165633 -0.34176764 -0.07928683
-0.34149614 0.22734357 0.31966138 0.107011035 0.12952271 0.19276664 -0.16692322 -0.61636955
0.33709186 -0.20592946 0.5478112 -0.22075188 0.24596728 0.056592613 0.04648316 -0.19110599
0.30184743 0.23941784 -0.2379111 -0.15313457 -0.4690247 0.2969994 -0.09854043 -0.64916885
0.015257197 0.10520433 0.079993434 -0.0822214 0.21876991 -0.30198577 -0.03931981 -0.06893535
0.13710368 -0.08171189 -0.083859764 -0.071661845 0.05319684 -0.25728074 -0.38029826 0.018319206
0.2820642 0.19518255 0.18054783 0.2908119 -0.057959035 0.1526812 0.07008003 -0.036107395
0.06417531 -0.13550238 0.09628291 -0.19822133 -0.020325914 0.053136315 0.0033231433 -0.14462723
0.098828964 -0.046724632 0.07671584 0.17441407 0.0068266047 -0.20986019 0.09982058 -0.116873324
-0.31122348 0.0907929 0.443951 0.08076057 0.43710557 -0.22768894 -0.007875433 -0.31514284
0.24730001 -0.22231025 0.43192396 -0.4171703 -0.035206795 -0.052414816 -0.36461133 -0.44804093

bias_ih_l0 f4 [80]
00000000: d8e6 983c 94dc d43e f537 603e cdea c73d
00000010: a0de 313e 383e fd3d a151 d13d 7d5d 3ebe
00000020: a56a 13be d541 d83d ca3d aa3d 6a0e 26be
00000030: 0a98 2bbd 47e9 d23d 71d5 a33d b8dd 753d
00000040: a2fd 82bd 312c 743e 4881 b6bc a917 ef3e
00000050: 1f52 f2bd 3d41 953d a08b e23d 6179 d03d
00000060: cc8c 03be 0a07 813e b748 0dbd ea16 bfbb
00000070: fb9d f6bd 32a0 8bbc f0a8 1fbe 751c c83d
00000080: 08d0 9c3e e6b7 2dbe 1c79 973e 1847 953e
00000090: 962e 013e 814b 8e3e c4f5 83bd 3bf6 cd3c
000000a0: 423b cdbd 79e7 fcbd 777a 8abe 028d 6d3e
000000b0: 1f43 0b3d 5aca 27be 36bf 223e 7784 183e
000000c0: 89bd 323e ea98 78be 8396 3dbc 5ffc 953c
000000d0: ad9c 5cbd 39f0 94bb 591b 4cbe 8559 e0bd
000000e0: 4391 cabd 0392 5c3e 6881 ea3d 8eee 12be
000000f0: 7bd9 443e 0400 543e 9341 2f3e 98fd e7bc
00000100: 8f44 673d 7bc3 1bbe 733b 8ebc cd85 4c3d
00000110: 94c8 6f3e c4dd 5a3e 25c1 bb3d 37ad 443d
00000120: c881 0a3e 9047 a53d d46c 373e 81e9 013e
00000130: c6a4 093e e2d9 a4bc de96 d13d 8efa 223f
0.018664762 0.41574538 0.21896346 0.097615816 0.17370081 0.12365383 0.102206476 -0.1859035
-0.1439615 0.105594315 0.083125666 -0.16216436 -0.041893043 0.102984 0.07999695 0.0600259
-0.06396033 0.23844983 -0.022278443 0.4669774 -0.118320696 0.07287834 0.110617876 0.10179401
-0.12846678 0.25200683 -0.034493174 -0.005831589 -0.12041851 -0.01704416 -0.15591788 0.09771053
0.30627465 -0.16964683 0.29584587 0.29155803 0.12615427 0.2779198 -0.064433604 0.025141826
-0.10021068 -0.123488374 -0.27046558 0.23198321 0.03399956 -0.16385785 0.15893254 0.14894281
0.17455114 -0.24277082 -0.011571529 0.018308816 -0.053860355 -0.0045452383 -0.19932307 -0.109545745
-0.09890988 0.21540074 0.114504635 -0.14348814 0.19223587 0.20703131 0.17114858 -0.028319165
0.056461867 -0.15211289 -0.017362332 0.04993229 0.23416358 0.2137366 0.09167699 0.048016753
0.1352607 0.0807029 0.17912608 0.12686731 0.13441762 -0.020123426 0.10233854 0.63663566

bias_hh_l0 f4 [80]
00000000: 2a0f 4fbd ae2a ae3e b36d 173e 3ef1 d4bd
00000010: 3122 6d3e 39dc 54be aecf 6c3c 81f5 8dbd
00000020: 5811 4dbe 1bb6 683e 2bcc b63d 1bb1 3a3e
00000030: 564f 8a3d 11f8 4bbc df6b debc b9dd 9f3d
00000040: 27e3 3d3e 8a17 163e ba12 4e3e 6946 d23e
00000050: 8fb6 14be 5943 57be ee2f 453e bd49 7d3e
00000060: 6b2b 303e 8cce 1abe 618a 9e3e 673c 0bbe
00000070: 0cde 2a3e a8cf 92bd 40b4 42bd 9c95 18be
00000080: 83b7 a7bb fd72 4a3e e99a ac3d 5e01 713e
00000090: c9fb 523d a6a6 b73d 0776 4a3e 4c50 a63e
000000a0: 8423 5e3c 49ce 6cbd 57b7 3f3d acf8 a7bd
000000b0: 1bee debd 4397 743d acd8 0fbe c41a 5cbc
000000c0: 94b6 953d 9226 58be 8c80 343e b3af 87bc
000000d0: 946e 563e 896a e43d 57dd 2a3d 3a87 063e
000000e0: 4eab 7b3d e471 b8bd 0f83 e1bd ba9a 983c
000000f0: db38 9a3c a867 7ebd 3864 cb3d ec40 983e
00000100: f2d4 0abe 0dc4 103e a09f fd3d 0a40 9f3d
00000110: edc6 893d d34c 343e 3cd5 a13c 5720 31be
00000120: 6acc d13d ce8d b6bd 4ab7 803e 4e7b 993d
00000130: d18b d13d 90cf acba fc4f 643e 4410 063f
-0.05055157 0.34016937 0.1478794 -0.10397576 0.23157574 -0.20787133 0.014453812 -0.06931592
-0.20026147 0.22725718 0.08925661 0.18231623 0.067534134 -0.01244928 -0.027151046 0.07805962
0.18543683 0.14657417 0.20124331 0.41069344 -0.14522766 -0.21021785 0.19256565 0.2473516
0.17204063 -0.15117854 0.3096495 -0.1359726 0.16686267 -0.071685135 -0.04753518 -0.14900821
-0.005118312 0.19770427 0.08427984 0.23535678 0.051509652 0.089673325 0.19771586 0.32483137
0.013558272 -0.057813916 0.046805706 -0.08201727 -0.10885259 0.059714567 -0.14047498 -0.013434116
0.07310215 -0.21108463 0.17627162 -0.016563272 0.2094062 0.111531325 0.041714992 0.13137522
0.061442666 -0.09006098 -0.110113256 0.018628467 0.018825939 -0.062110573 0.099312246 0.2973703
-0.13557795 0.14137287 0.12383962 0.07775886 0.06727395 0.17607431 0.019754998 -0.17297493
0.10244067 -0.08913766 0.25139838 0.07494222 0.10231746 -0.0013184417 0.22296137 0.5236857

weight f4 [15, 20]
00000000: cc1d 913e ccd9 aebe 330f 793d b033 f53d
00000010: 5079 be3c 8f89 20be efbe 173d bdb5 1bbe
00000020: 403c 183c 0f74 18be bef1 d43e 59df 1bbe
00000030: 15b1 8ebd 7536 10be 1b9f 253e 37de 173c
00000040: 6eee e2bd e45b b03e 056f 6bbd 1b84 e03d
00000050: b949 a73e edbc b1be b0e5 843e c5d7 043e
00000060: a9a2 073d 6821 67be 786c ac3c 18ea 1cbe
00000070: 47dc 093e 1d42 08be df1d 173e cb5f b4bd
00000080: fc24 5d3b 1598 1fbe 2f58 113e 0877 683c
00000090: 2b4a 6dbd 8b79 a23e 5c4a 1bbb 8adb d43c
000000a0: 98a0 c83d 1aa5 76be b995 c23e 3b35 963d
000000b0: 045e a33d dd79 35be 1b0d 9b3d a531 4cbd
000000c0: 9ea7 a23d fb4a a3bd 44a1 d43d 9983 23be
000000d0: 5599 f63c cad8 0cbe 0959 aa3d 4424 dabd
000000e0: ab7b af3c fb16 4f3e 74fa a33b c593 dabc
000000f0: f83e 7dbd a418 14be 70ab cd3e 5433 d63d
00000100: c3be 8e3d 39ba 1ebd e883 273e c9ac 693d
00000110: 5b87 2c3e e9bd 493c 6d02 7cbc 2443 bf3c
00000120: e0ed 28bc 8b62 58be 3983 d3bd 057f 34be
00000130: 4ba0 f8bd c540 4e3e 396e 88bd 9093 343d
00000140: 2070 21be 66ad b9bd f5d2 483e ed0e 4a3d
00000150: 3650 113e ca3c 00be 9248 2a3e f0fa ba3d
00000160: 1fc6 1dbc d1a0 343e bbd9 203e d89b 693c
00000170: 31b7 093d d6aa 66be 4b05 f1bd 1a17 8dbe
00000180: 05e9 103d 2203 333e c46c 5ebd f950 3bb9
00000190: 3b14 a3bd b12d 90bd d0db c13c 50c9 093d
000001a0: edee 573e ad39 36be 1a28 f93d 0701 773c
000001b0: 3ecc 86bc 6146 8b3e 3711 3d3e 251a 0e3c
000001c0: bc6b bd3d ff07 58be 98ab 53bd 642b 33be
000001d0: 4564 cb3d 6188 303e 3edb 81bd 31f0 b8bc
000001e0: d928 14be fb76 f5bd 6c1d 54bd 2462 b53d
000001f0: d0a0 823e ab64 debd 3956 113e 94c2 0fbc
00000200: c72e 1a3e 4d03 2a3e 3e8a 263e e011 d2bb
00000210: 1234 cd3d 286a 0dbe 8cb4 69bd 84f0 3c3c
00000220: 619d 793d d86d cd3d d882 92bd 4559 9bbc
00000230: cda6 5abe efdf 90bd 7033 3ebd e329 cc3d
00000240: 560f 6a3e 58de d2bd ab6f 583e 7092 f1bd
00000250: 8a73 273e 2c03 f53c 5d18 013e 1990 8cbd
00000260: e434 733d 7a89 16bb 9d13 4a3c 9e74 0f3e
00000270: d1ff 9bbc 3403 f93c 761a 11be c3a7 70bd
00000280: 352e 1ebe 007b 63bc 4564 83bd 46d6 8c3d
00000290: f2d4 a63d d8a9 43be a091 883e 3022 3dbe
000002a0: 238e f03d 22af 82bd aa89 89bc 8530 eabd
000002b0: cfdb 7fbb cbe3 903b ac3f 803d 89a5 323e
000002c0: 511e 1dbe ba3f 113d 9ced 5bbe 5fff c0bd
000002d0: c56e 41be ed63 95bd 0b9a 21be 95ba 29be
000002e0: d54e 44bd 6a6e 2dbe dee5 8d3e 921b 26bd
000002f0: c599 81bc 9e3a 0bbd fc58 f63d 5756 ffbd
00000300: ad10 3fba 9c9b 223d 4086 8f3c 14ec c33d
00000310: 1c21 01be b6a8 e73d 9755 73be 5c54 f6bd
00000320: f9e1 063d 112b e5bd 12fd f9bd b4e2 b1be
00000330: 65a7 6dbd d488 46be f8e2 223e 8203 a1bd
00000340: 6288 9a3c de82 ddbc a4ba 573d b92b ebbc
00000350: 047f 0d3d 11db 37bd 4859 693d 92e2 063d
00000360: bd8a febd 79db 333e 9d5a 77be a189 09be
00000370: b65a f73c 0fff 30be 5064 65bd c025 c6be
00000380: 0e13 c23d d576 4abe e365 203c b4df 353c
00000390: 3904 793e 432c 1ebe a6c2 d53d 21de 9d3b
000003a0: 3cce e63d 6aaf 91bd 94a3 853d 23cf 7ebd
000003b0: 4175 68bd aba8 1c3e a181 22be 6294 3abe
000003c0: 7765 703c 74f9 92bd 9d07 503d 0307 cabe
000003d0: 1116 993e a1a8 0abe 6fd6 b4bd 2b1a bdbd
000003e0: e10c 103e 5a5b 32be 8e67 403e ad47 63bd
000003f0: 83d0 153e 56bb 163d e887 e33d 4317 58be
0.28343046 -0.3415054 0.06080551 0.11972749 0.023251206 -0.15677474 0.037047323 -0.15206046
0.0092917085 -0.14888023 0.41590685 -0.15221919 -0.069673695 -0.14083274 0.16173975 0.009269289
-0.11080633 0.34445107 -0.057478923 0.10962697 0.32673433 -0.3471445 0.25956488 0.12972935
0.03311411 -0.22571337 0.021047816 -0.15323675 0.13462935 -0.1330647 0.14757489 -0.088073336
0.0033743968 -0.15585358 0.14193796 0.0141885355 -0.05793206 0.31733355 -0.0023695445 0.02598359
0.09796256 -0.24086419 0.38004854 0.07334372 0.079769164 -0.17722268 0.07570859 -0.049852032
0.07942127 -0.07973286 0.103823215 -0.1596817 0.030102411 -0.13754573 0.08317763 -0.10651448
0.021421274 0.2022361 0.0050042216 -0.02668179 -0.06182763 -0.14462525 0.4016986 0.10459009
0.06969979 -0.038751815 0.16358912 0.057049546 0.16848509 0.0123133445 -0.015381438 0.023347445
-0.01031062 -0.21131341 -0.10327763 -0.17626579 -0.121399485 0.20141895 -0.06661648 0.04408604
-0.15765429 -0.09066276 0.19611724 0.04933064 0.14190754 -0.12523189 0.16629246 0.09129894
-0.009629755 0.17639472 0.15708058 0.014258347 0.03362197 -0.22526106 -0.11768588 -0.27556688
0.035378475 0.17481664 -0.054302946 -0.00017863874 -0.07962843 -0.07039965 0.023664385 0.033639252
0.21087237 -0.17795439 0.12165852 0.0150759285 -0.016454812 0.27202132 0.18463598 0.0086732255
0.09249064 -0.210968 -0.051677316 -0.17497021 0.09931234 0.17239524 -0.06340645 -0.02257547
-0.14468707 -0.11985584 -0.05178587 0.088566095 0.25513315 -0.10859045 0.14193048 -0.008774418
0.15056907 0.16602822 0.16263673 -0.0064108223 0.10019697 -0.13810027 -0.05705695 0.011531953
0.060941104 0.10030717 -0.07153863 -0.018963465 -0.21352692 -0.07073962 -0.046435773 0.09968927
0.22857413 -0.10296315 0.21136348 -0.11795509 0.16352668 0.029908739 0.1260695 -0.06863422
0.059376612 -0.0022970126 0.012333778 0.1400933 -0.019042881 0.030397035 -0.1417025 -0.05875374
-0.15447314 -0.013884306 -0.06415609 0.06876807 0.08146085 -0.19107759 0.26673603 -0.18470073
0.117458604 -0.0638106 -0.016789276 -0.114350356 -0.0039040928 0.0044216863 0.062621444 0.17445959
-0.15343596 0.035461165 -0.2147736 -0.09423708 -0.18889911 -0.0729445 -0.15781419 -0.16575082
-0.047926743 -0.16936651 0.27714437 -0.040553637 -0.015820393 -0.03399145 0.12028691 -0.1246764
-0.00072885567 0.039699182 0.01752007 0.09566513 -0.12610286 0.11311476 -0.23763119 -0.12027809
0.032930348 -0.11189855 -0.122064725 -0.34743273 -0.058020968 -0.19388133 0.15906894 -0.07861997
0.01886386 -0.027039941 0.05266823 -0.028707372 0.03454496 -0.044886652 0.05696991 0.032930918
-0.12428806 0.17564191 -0.2415566 -0.13431408 0.030194622 -0.17284797 -0.05600387 -0.38700676
0.09476291 -0.19771893 0.009789917 0.011100698 0.24318017 -0.15446572 0.10437517 0.0048177396
0.11269805 -0.07113536 0.06525341 -0.06220926 -0.056752447 0.15298717 -0.15869762 -0.18220666
0.014672629 -0.07176486 0.05078851 -0.39458475 0.29899648 -0.1354089 -0.088299625 -0.09233507
0.14067413 -0.1741766 0.18789503 -0.055488277 0.14630322 0.03679975 0.111099064 -0.21102624

bias f4 [15]
00000000: c910 82bd 82ee f7bc b250 033d 7e84 9c3d
00000010: 8795 4e3d fbea b03c 0bf7 1bbd 96a9 00bd
00000020: 6ecf 03bc 0707 9ebb 1d2c d13c 8263 47bd
00000030: 307c 8d3b 29ec 0ebd cbb7 81bd
-0.06350858 -0.030265097 0.03205938 0.076424584 0.05043557 0.021596422 -0.038077395 -0.03141173
-0.008045061 -0.004822615 0.02553373 -0.048678882 0.004317783 -0.03489319 -0.06333884
