checkpoints/cnn_lstm/cnn_lstm_o_150.pt (torch, 30987 bytes, 8 tensors)

weight f4 [14, 8, 3]
000000 05 ae 95 be 79 16 c7 bd 54 e6 46 3e 5f 42 b2 3e
       -0.2923433 -0.09721083 0.194238 0.34816262
000010 4c a7 f1 bc d9 9a ba 3e 32 eb c9 3d 0c 64 17 3e
       -0.029498719 0.36446264 0.09859313 0.14784259
000020 66 27 6d 3d a2 a4 ac 3e 73 67 a2 be fb 46 65 be
       0.0578989 0.33719355 -0.3171955 -0.22390358
000030 87 26 7a 3e 67 aa 72 3e b2 7d 06 be 04 91 82 bd
       0.2442876 0.23697816 -0.13133886 -0.06375316
000040 c1 cb 43 3d da e1 1f 3e bf 9a 12 be 8e b6 20 3e
       0.047801737 0.156135 -0.14316843 0.15694639
000050 86 2f 31 3d 12 9a 17 3d 6c d4 1a be 70 d3 85 3d
       0.043258213 0.037012167 -0.15120095 0.06534469
000060 b2 41 3b 3e e5 f2 05 3e 10 56 3c bd 7b ce ba be
       0.1828678 0.13080938 -0.045980513 -0.36485657
000070 bf bd 38 3e 6e b9 9e be 42 11 47 3d 8f 12 bd bd
       0.18041132 -0.31000847 0.048600443 -0.092320554
000080 52 30 46 bd 6a 01 3e 3e 15 57 39 be d9 b7 b3 3e
       -0.048385926 0.18555227 -0.18099625 0.35101202
000090 cc 95 ff bb f2 f6 8d 3e 8a b2 07 3e 9e 8e 36 3e
       -0.0077998396 0.27727467 0.13251701 0.17827842
0000a0 71 b3 b6 bd b5 84 7e bc f1 02 fb bd 22 cf f3 3d
       -0.089209445 -0.0155345695 -0.122564204 0.11904742
0000b0 2d 16 cc 3c 5d 08 03 be 36 47 34 be b8 14 d6 bb
       0.024912918 -0.12796159 -0.1760529 -0.0065332316
0000c0 62 29 ad 3d 76 f6 3a bd 78 c9 07 be f9 8a a4 be
       0.08455159 -0.0456452 -0.13260448 -0.32137278
0000d0 1e 10 26 bc 5e 99 b7 be 16 ea 9c 3d 64 16 68 3d
       -0.010135679 -0.35859197 0.07661836 0.05666198
0000e0 5e e6 e2 bb 67 c5 a2 3e a7 e7 3f 3d aa b5 b5 3e
       -0.0069244346 0.3179123 0.04685178 0.3549016
0000f0 cd 9c 56 3e 79 ec a2 3e 2b 14 1c be 63 04 2b bd
       0.20958252 0.3182104 -0.15242068 -0.04175223
000100 2a e0 19 3d f6 e6 0a 3e 07 50 8d bd 53 13 2a be
       0.037567295 0.13564667 -0.0690003 -0.16608934
000110 41 2f 17 3e a8 05 b2 3d 4c 66 81 3d b6 aa 1d 3d
       0.1476412 0.08692485 0.0631834 0.03849288
000120 6f 8e 06 3e b7 ba 2b be 8c 92 ce be ad 1e 5e 3a
       0.13140272 -0.16770445 -0.4034618 0.0008473199
000130 c5 e8 60 3c 2f c1 7d 3e ba 64 27 be 7f bc 30 be
       0.013727372 0.24780725 -0.16347018 -0.17259406
000140 56 50 6a 3d be c4 50 3d 5a 27 a2 bd 8e fd 36 ba
       0.05720552 0.050968878 -0.07917662 -0.00069805316
000150 dc ce 44 be 34 b3 35 3e 82 0e ad 3e 1a 84 fc bd
       -0.19219536 0.17744142 0.3380013 -0.12329884
000160 92 96 7a bb e5 66 88 3c bb bb dc 3d a1 72 09 3b
       -0.003823672 0.016650626 0.10777994 0.0020972865
000170 ef 2c c1 bd e7 99 0d 3e 01 8f df 3e 16 97 de 3e
       -0.094323985 0.1382824 0.4366379 0.43474644
000180 d3 aa f7 3d 5b b4 35 3e d4 34 dd 3d ca 1a 35 3c
       0.12093129 0.17744581 0.10801092 0.01105375
000190 a4 64 2e 3e 25 ff 19 3d bc 83 cb 3d ed a5 4b bd
       0.17030579 0.03759684 0.09937236 -0.049718786
0001a0 4c f0 0b 3e e0 74 63 be 64 dc 9c 3d 9e cb f6 bd
       0.13665885 -0.22212553 0.07659224 -0.12050556
0001b0 c6 4b 8e 3d b0 34 99 3e 28 43 c5 3e b6 63 bb bd
       0.069480464 0.2992301 0.385278 -0.09149878
0001c0 66 d4 de bd b7 39 2a 3e 40 e9 09 be 5b 61 de bc
       -0.108803555 0.16623579 -0.13467884 -0.027146032
0001d0 cd be 91 3d f0 fa 89 bd 09 47 c5 bc 66 41 8f be
       0.071164705 -0.06737316 -0.024081724 -0.27979583
0001e0 88 f0 16 3d 29 fe 27 bd e7 0d 65 3e 26 71 11 be
       0.036850482 -0.04101387 0.22368585 -0.14203319
0001f0 7a 5a bc be 80 cc db bd 42 a2 92 bd db 80 b0 3c
       -0.36787778 -0.10732365 -0.071598545 0.021545818
000200 f9 bd 42 be 2d 47 0f be bd 43 32 3d 9f 44 18 be
       -0.19017781 -0.13991995 0.04352163 -0.14869927
000210 7f 82 c3 3e 13 92 05 bf e4 cc e2 be 58 bd f8 bc
       0.38185498 -0.52176017 -0.44296944 -0.030363724
000220 16 25 35 3c 34 a8 9a 3b a5 98 d7 bd 56 02 f1 bd
       0.011056205 0.0047197584 -0.105271615 -0.11768024
000230 78 15 9a bd 42 4f 0c bd 32 09 0f be cb 03 94 bd
       -0.07523626 -0.034255274 -0.13968351 -0.07227286
000240 77 de 40 bd 51 c6 96 be ec 74 c1 3d e1 39 02 3d
       -0.04708716 -0.29448178 0.09446129 0.03179348
000250 cb 53 33 3e 12 16 89 3e 01 cc 75 be 53 7d 19 be
       0.17512433 0.2677465 -0.24003603 -0.14989214
000260 c5 2c 8b 3c 52 d1 10 be e8 ed e5 bc 11 f7 1d bd
       0.016989121 -0.1414235 -0.028067544 -0.0385657
000270 44 14 b4 bd 9d 6e d4 be 15 ab 9b bd e1 1f 8e bd
       -0.08792928 -0.4149064 -0.07600991 -0.06939674
000280 51 7a 13 be 1b 4e ff 3d a1 e2 05 be fc e7 8a be
       -0.14402129 0.12466069 -0.13074733 -0.27130115
000290 f3 4e 2c 3b 53 b4 b1 be a6 bf 3d be 3e d3 8f be
       0.0026292175 -0.3470789 -0.1853014 -0.28090852
0002a0 b6 03 b5 bd 69 c3 eb bb 39 0a 81 bc 3d 42 b2 3c
       -0.088385984 -0.0071949256 -0.015751945 0.0217601
0002b0 6a 4c 5a 3d ad b8 b1 bd 09 2a 26 3d 73 ae 35 3e
       0.05329553 -0.08677802 0.04056743 0.17742328
0002c0 c6 82 93 3e 41 ff 04 bf 46 1b cb 3d 33 f4 72 3e
       0.2881071 -0.51951987 0.09917311 0.23725967
0002d0 f9 6e c3 bd 35 3b dd bd 89 b8 00 bf 60 57 4a 3d
       -0.09542651 -0.108023085 -0.5028158 0.049399734
0002e0 92 a1 25 3d a2 ec 37 3c 35 82 5c 3c 4e 80 87 3e
       0.04043729 0.011225851 0.013458778 0.26465076
0002f0 1d e4 1f 3e 6a 68 98 bd 66 90 15 3e 63 28 0d be
       0.15614362 -0.074417904 0.14605865 -0.13784938
000300 ec 9f 80 3d f2 c3 16 be 85 89 ab bd ee f3 f5 3e
       0.06280503 -0.14723185 -0.08375839 0.48037666
000310 bc d8 41 3e a2 f6 23 3e fb 7f 22 bb 97 9f 8b be
       0.18930334 0.16012052 -0.002479552 -0.27270195
000320 27 70 fa 3d 1b e6 13 3e 99 ce 3d bd 38 9b 03 bc
       0.122284226 0.14443247 -0.046339605 -0.0080326125
000330 f5 11 13 3d 30 5d 82 bd e2 29 29 3d 7a 93 88 3c
       0.035905797 -0.0636543 0.04129971 0.016671885
000340 35 a4 ee bb 7e e3 f7 bd 94 d7 6a be 7d 08 ed bd
       -0.0072827586 -0.121039376 -0.22933799 -0.11573885
000350 bd fe 1d be 04 4b 65 be 19 23 bd be b9 06 ef bc
       -0.15429206 -0.22391897 -0.3694084 -0.02917801
000360 3d 40 06 be 54 9e 31 be a1 3f 0b bc 76 e3 1d be
       -0.13110442 -0.17345554 -0.008499057 -0.154188
000370 6a 46 21 be c2 1f 28 3e 83 07 a9 bc 95 58 15 bd
       -0.15749517 0.16418365 -0.020633465 -0.03646143
000380 1c 57 9b bd c4 4f 99 bb e3 3b 4d be 63 e3 f9 3c
       -0.07584974 -0.0046786983 -0.20042376 0.030503934
000390 53 fb 5c 3d c5 eb bd 3d a7 f5 28 3d e5 c3 ad bd
       0.05395062 0.09273485 0.041249897 -0.084846295
0003a0 f7 ec 8c 3d fa 99 da bd f2 1b b5 b9 60 09 21 be
       0.06881135 -0.106739 -0.0003454383 -0.15726233
0003b0 9b 94 f5 3b 8b db 3d be 6d 95 b8 bd 25 c1 44 3e
       0.007494522 -0.1854078 -0.09012876 0.19214304
0003c0 84 de 12 3e a4 77 b2 be f4 08 02 3d 9b b6 67 be
       0.14342695 -0.34856904 0.03174682 -0.22628252
0003d0 2d 00 c7 be 7c 02 e3 bd 32 3d 17 be e6 ea 09 3e
       -0.38867322 -0.11084458 -0.14769438 0.13468513
0003e0 9d 74 43 3e 77 b2 f8 3c 23 89 6d bd 20 3f 60 3e
       0.19087453 0.030358536 -0.057992112 0.2189908
0003f0 68 c8 eb bc f1 69 fc 3d c6 8e c6 3e 8d 4e 26 bd
       -0.028782085 0.12324894 0.38780802 -0.040602256

bias f4 [14]
000000 1f 4f 9d 3d f5 20 02 bd 80 98 55 3e 97 4a 29 3e
       0.07681107 -0.03176971 0.20858955 0.1653236
000010 51 e0 f8 3d 9d 16 43 3e c2 41 68 3c 81 23 e3 bd
       0.1215216 0.19051595 0.014175834 -0.11090756
000020 86 50 71 bc 95 66 01 be 3c b3 87 3e 51 f7 ac bd
       -0.014728671 -0.12636788 0.26503932 -0.08445609
000030 10 10 83 3e a4 3b 1b 3c
       0.25598192 0.009474669

weight_ih_l0 f4 [80, 14]
000000 d5 e4 16 3e 99 ba 9e 3e fb d4 19 be e3 42 3a 3e
       0.1473573 0.31001738 -0.15022652 0.18189578
000010 7e 83 fd 3b c3 08 e0 bd e9 4e d7 3e ab 6b 31 bd
       0.0077366224 -0.10939171 0.4205239 -0.04331557
000020 d5 0b 89 3b 86 47 1b be 36 26 39 3e 45 5f e5 bd
       0.0041823187 -0.15164003 0.18080983 -0.11199812
000030 81 75 94 3e 06 94 6c be c0 2b ca bd 4f f6 0c be
       0.28995898 -0.23103341 -0.09871626 -0.13765834
000040 2a d8 5b 3e 3a 6d 87 3e f5 df 2d bd 0a 27 32 be
       0.21469179 0.2645052 -0.04244991 -0.17397705
000050 f2 89 b7 3d a2 f1 cf 3d fe 99 16 bd 68 24 30 3e
       0.08961858 0.1015351 -0.036767952 0.17201388
000060 f2 79 0f 3d 62 a7 37 bd e0 87 68 bd 1d 84 1c 3e
       0.035028405 -0.044837363 -0.056770205 0.15284772
000070 74 8f 26 3e 48 fa 0a be 17 54 a5 bd 61 d9 d0 be
       0.1626566 -0.13572037 -0.080726795 -0.40790847
000080 86 b0 2d be 02 09 09 bd 65 bf ad 3e 01 b1 16 bd
       -0.1696187 -0.033455856 0.33935085 -0.036789898
000090 ba 1e 15 be 5b 4a 77 3d 9e ac 9d bd 7e 5d 1f 3d
       -0.14562503 0.060373645 -0.0769894 0.03890752
0000a0 92 4a 98 bd 05 b1 9c bc 9c a2 8d 3e ee 81 cf 3d
       -0.07436098 -0.019127378 0.27663124 0.10132204
0000b0 ef 35 74 3e cd 56 6b 3e b2 d6 5c be 57 9c b2 be
       0.23848699 0.2298233 -0.21566275 -0.34884903
0000c0 7d f5 95 3e e3 3b e7 3e fc a5 f7 bc e2 bc b2 3d
       0.29288855 0.45162877 -0.030230515 0.08727433
0000d0 10 56 82 bc 15 61 2b 3e 79 2c 4b 3e b8 ee 26 3e
       -0.015910178 0.16736253 0.19841184 0.16302001
0000e0 cc 9d 15 3d 2c 1b 92 be 99 5e 5a bd aa f4 a5 bc
       0.03652744 -0.28536355 -0.05331287 -0.020258266
0000f0 9c 6d 00 be 8a 5c 69 bf 0e 4a ea 3f 81 bd ce 3d
       -0.12541813 -0.9115683 1.830385 0.10094739
000100 13 ba cb 3d e3 88 fa 3d b4 3b 96 bd dd be 88 3e
       0.099476 0.1223314 -0.07335606 0.26708117
000110 a6 6d 11 bd 87 79 12 be e7 d4 32 be 51 29 78 3e
       -0.03550496 -0.14304172 -0.17464028 0.24234511
000120 66 70 85 be 39 06 62 3e 40 0b ef 3d d3 37 25 bd
       -0.26062316 0.22072686 0.11672068 -0.04033644
000130 94 f0 a4 be e1 53 a0 bc d8 58 e9 be ee 2d 37 be
       -0.32214797 -0.019571247 -0.45575595 -0.17888615
000140 c5 e3 46 be 22 4c 03 3e 33 b7 ec bd d6 54 a0 be
       -0.19422825 0.12822011 -0.1155838 -0.31314725
000150 9d b9 7c be 8c db 40 be 48 97 62 3e 89 d9 05 3e
       -0.24680181 -0.1883375 0.22128022 0.13071264
000160 6c a4 03 be 4e 61 81 bd 61 0b 81 3e d5 42 a5 3e
       -0.1285569 -0.063173875 0.25203994 0.3227755
000170 b9 57 9b bd b5 0c 41 3e 5d 48 8b bd eb c6 5a be
       -0.07585091 0.18852504 -0.068009116 -0.21364944
000180 a1 11 3a be ff 0d 5b 3e be 2b 74 3e 5b bf 8f 3e
       -0.18170787 0.21392058 0.23844811 0.2807568
000190 63 28 a6 3c 7b 13 12 bd 8c 81 e9 bd 9c 44 fc bd
       0.02028293 -0.03566311 -0.11401662 -0.12317774
0001a0 d7 ef c8 3e 2d ba 86 3e 66 a6 a0 be 4e 4a e3 3d
       0.39245483 0.26313916 -0.31376952 0.11098157
0001b0 15 35 67 3d be 54 11 bd 05 a0 b9 bd 5a 57 ab 3e
       0.056447107 -0.035481207 -0.090637244 0.3346508
0001c0 3f dc 84 3e 64 a7 9c 3e b9 20 04 3c dc d4 f3 3c
       0.25949284 0.3059646 0.008064442 0.029764585
0001d0 38 d5 1a 3e 01 05 7f bc 59 40 8c 3e 5c 9c e8 be
       0.15120399 -0.015565158 0.27392843 -0.45431793
0001e0 9b dd 06 bf 37 08 45 bc a8 3d a1 be 46 8d 9b 3e
       -0.52681893 -0.012025884 -0.31492352 0.3038122
0001f0 0c 2a cd 3e 0c c5 18 bd bb 49 44 3d 4b e3 b7 3d
       0.40071142 -0.037297294 0.047921877 0.089788996
000200 02 34 2d 3c 87 e2 cf be f4 32 b0 bc 42 c7 5a be
       0.010571482 -0.40602514 -0.021508671 -0.21365073
000210 81 f4 6e 3e a0 de 6c 3c 8e 95 36 bd 2d a6 34 be
       0.23335458 0.014457375 -0.04457622 -0.17641516
000220 c9 b7 ac bd 5b a8 33 3e 5f 04 cc 3d 7b 26 55 be
       -0.08433492 0.17544691 0.09961771 -0.2081546
000230 bd e1 4c 3c 35 48 1f be be 7a f0 bd 57 f4 4c 3e
       0.012504992 -0.15554889 -0.11742161 0.20015083
000240 f5 32 df 3d 66 97 96 be ba 04 f4 3c c3 d5 47 3d
       0.10898391 -0.29412383 0.02978741 0.048787843
000250 87 d3 00 be c8 63 1f 3e 25 bf b2 bd d3 b1 2a be
       -0.12580691 0.15565407 -0.08727864 -0.16669397
000260 f8 fa 9b 3c d9 c3 0d 3e 69 7e 42 bd 15 df c0 bc
       0.01904057 0.13844241 -0.047483835 -0.023543874
000270 23 84 d4 bd a6 51 8e 3e be 12 1a 3c fe cf 95 bd
       -0.103767656 0.27796668 0.009403883 -0.07315062
000280 31 5b b0 3e 53 08 79 be 16 55 8d be b6 75 bc 3d
       0.34444574 -0.24319582 -0.27603978 0.09202139
000290 57 31 59 bd 26 e3 25 3e a3 9f 66 3e d2 f3 93 bd
       -0.05302557 0.16199932 0.22521834 -0.072242394
0002a0 be cb 01 3e 22 3e d1 bd 8f 92 21 3e 25 98 a9 bd
       0.12675378 -0.10216929 0.15778564 -0.082809724
0002b0 50 b0 8a 3d 37 c6 b8 3d 32 b6 9e 3e c5 de 5e 3d
       0.0677191 0.090221815 0.3099838 0.05441167
0002c0 23 e6 2b 3d 45 f7 df bd 0a b1 04 3e bb 79 25 3e
       0.041967522 -0.10935835 0.1295816 0.16159718
0002d0 df 9d 9b 3e ce 5b a6 3d e5 a9 0f 3d e2 f4 a6 3e
       0.30393884 0.08122979 0.035074133 0.32608706
0002e0 7f 24 a1 3e 9e 60 cf 3d 41 db 90 3e 47 8d 85 be
       0.31473157 0.1012585 0.28292277 -0.2608435
0002f0 52 76 2f bb 05 36 47 3d 2f 19 64 be 51 79 7a 3d
       -0.0026773405 0.0486355 -0.22275232 0.061150853
000300 bd 1b 8a 3e 33 0c a2 3e 1e 46 36 be 90 78 54 3e
       0.26974288 0.31649932 -0.17800185 0.20749116
000310 90 40 df bd 9f a6 06 3e 2d 48 52 3e 2d e0 56 3e
       -0.10900986 0.13149498 0.20535345 0.20983954
000320 f5 d2 ba bd 5f 8c a6 3c 7c 87 8a 3e 67 f1 9b bc
       -0.09122268 0.020330606 0.2705649 -0.019036008
000330 0e d9 19 3d 6e 5a 9d bd 1f d7 15 be 6e 37 68 bd
       0.037560515 -0.07683264 -0.14632843 -0.056693487
000340 bd 29 42 3e 93 fd 83 bd c4 99 37 be 64 33 c9 bd
       0.18961234 -0.0644485 -0.1792975 -0.09824255
000350 9b 5d 8c bd 00 56 13 be fe 2e 05 be 34 61 57 bf
       -0.06853791 -0.14388275 -0.13006207 -0.84132695
000360 c7 93 27 bf 93 9d 34 bf 25 13 9a be e2 8e e5 3d
       -0.65459865 -0.7055294 -0.3009273 0.11208893
000370 c0 16 d8 3d a5 9a 37 3e de f4 c1 be 27 59 e5 3b
       0.10551214 0.17930086 -0.3788213 0.006999153
000380 06 0b 91 3d 03 95 aa ba be 59 c0 bd 70 95 39 3f
       0.07082181 -0.001301438 -0.09392117 0.7249365
000390 a1 94 52 3d 17 e8 8e bd 59 e4 a7 3e 33 64 2e bc
       0.051411275 -0.069778614 0.32791403 -0.010644007
0003a0 24 51 5f be e6 63 c0 3d a0 d7 81 bd ec e4 0a 3e
       -0.21808296 0.09394054 -0.06339955 0.1356389
0003b0 83 90 1f be d9 26 a8 3d e0 93 28 bd 67 52 9b bd
       -0.1558247 0.082105346 -0.04115665 -0.075840764
0003c0 23 d1 26 3e fe 7f 15 3e 85 78 88 3d 32 81 93 be
       0.16290717 0.14599606 0.06663612 -0.28809506
0003d0 1d 48 da 3e 37 46 4a 3e 3f 5b 79 be a6 f8 4e 3e
       0.42633143 0.19753347 -0.24351214 0.2021204
0003e0 6e 6d 29 3b bc 42 88 3e 4a ae a5 3e f6 a4 6e 3e
       0.0025852579 0.26613414 0.32359535 0.23305115
0003f0 01 35 13 be cb d7 92 3e 67 91 fc bd 0d f5 88 be
       -0.14375688 0.28680262 -0.12332421 -0.2674946

weight_hh_l0 f4 [80, 20]
000000 cd a2 9e be 22 79 1b 3e 2a c5 97 bd fc 03 b7 be
       -0.30983582 0.15182927 -0.07410653 -0.35745227
000010 5e 1f 73 3d c9 18 c0 bd e1 5e 94 3e 8d a0 cc 3c
       0.059356086 -0.093797274 0.28978637 0.0249789
000020 a9 a6 26 3e a0 8c a1 bd 37 ca b8 3d af e5 5b bd
       0.16274513 -0.0788815 0.090229444 -0.05368584
000030 fa c4 76 3b b2 ce 35 be fe e7 8b 3d f6 41 0e 3f
       0.0037654028 -0.17754629 0.068313584 0.555694
000040 98 cd 08 3e 1c e8 0b be 91 23 72 bd a1 14 84 3e
       0.13359678 -0.13662761 -0.05911595 0.2579699
000050 48 71 02 be 1d 4c 5b be a9 be af be db 30 fa 3d
       -0.12738526 -0.21415754 -0.3432515 0.1221635
000060 ae ef cd bd 47 5f 31 3e 5e 24 81 bc 2a 95 67 bd
       -0.10055481 0.17321502 -0.015764412 -0.05653874
000070 92 3e 53 be 01 cb 13 3d d3 db 92 3e e1 24 60 bc
       -0.20629337 0.03608227 0.28683338 -0.013680668
000080 4a 90 ab be 09 30 30 3e 12 35 41 be c8 c3 3f be
       -0.3350852 0.17205824 -0.18867901 -0.18727028
000090 dc 27 87 3e b8 6b 84 3e aa f0 e0 3d 5f e4 ab bd
       0.26397598 0.25863433 0.10983403 -0.08393168
0000a0 4b 68 74 bd 5f fc 1f be fc f9 6f 3e ac e3 fd 3d
       -0.059669774 -0.15623616 0.23435205 0.123969406
0000b0 ef 46 dc 3d 14 8d 8e 3e 7d ca 72 3d 2e 37 82 be
       0.10755717 0.2784201 0.05927514 -0.25432724
0000c0 0d b6 0d 3d a9 e5 11 3e dd 13 52 3e 23 37 e3 bd
       0.034597445 0.14247765 0.2051539 -0.11094501
0000d0 7d 3c 65 be 2e 7e ba be fe 11 e7 bc 09 f6 ca b9
       -0.22386356 -0.36424392 -0.028206822 -0.00038711753
0000e0 7e f3 d1 3d f5 04 04 3f 40 57 8b 3e 86 28 f1 be
       0.102515206 0.51570064 0.27215004 -0.4710123
0000f0 c8 0e 23 be 7b 5d f8 bc aa 25 59 3f 8f 38 8d bc
       -0.15923607 -0.030318012 0.84823096 -0.017238883
000100 fb 71 31 3e 13 76 21 3e bb 64 6d be 09 3c 66 3e
       0.17328636 0.15767698 -0.23182957 0.22483839
000110 3d af 4c be f6 91 7c be 2e b7 7e be db 6d 38 3e
       -0.19988723 -0.24665055 -0.24874565 0.18010657
000120 92 83 20 3e bc fb bc be 34 dc b0 bd 57 5f 66 3c
       0.1567519 -0.36910808 -0.086357504 0.014060817
000130 06 ab fd bd 35 1a 2f be 96 6c 63 3e db 16 17 3f
       -0.12386136 -0.17099841 0.22209391 0.5901925
000140 30 06 92 bb ea 93 37 3e 6d f4 d1 3d 73 e8 48 3f
       -0.004456304 0.17927518 0.10251699 0.7847969
000150 af 4d f7 bd cf 98 c0 3d 39 0d 1d 3e ee 19 ee 3c
       -0.12075364 0.09404146 0.15337075 0.029065099
000160 05 15 61 3e 87 59 0c bd b1 cf 99 3d 4f bf 77 be
       0.21980675 -0.034265067 0.07510317 -0.24194072
000170 6f 40 46 be cc e4 81 be e2 de 26 3d 91 14 d3 bd
       -0.19360517 -0.2536987 0.0407399 -0.10306657
000180 72 24 30 3d 8d 80 9d 3e 8c 16 e3 3d 93 59 e7 be
       0.043003507 0.3076214 0.11088285 -0.45185527
000190 4c 33 6d 3e a1 ae fc bd 6e a0 96 be c2 40 ae 3e
       0.231641 -0.12337995 -0.29419273 0.3403378
0001a0 2c 05 f7 bd 91 19 69 3e 5f fa c2 bd f3 fc 62 3d
       -0.12061533 0.22763659 -0.09520411 0.055417012
0001b0 e5 80 fd 3e 5c b3 a1 be 29 d2 1a 3e 12 4e 36 3e
       0.495124 -0.31582153 0.15119232 0.17803219
0001c0 76 39 f0 bb ea 6f cb 3d 77 69 9f 3d 09 c2 eb 3d
       -0.0073310686 0.09933455 0.07783788 0.11511619
0001d0 5e 0a 76 be 33 06 47 3e 81 6f 7a bb 0c 4b 93 be
       -0.24027392 0.19435959 -0.0038213434 -0.28768194
0001e0 52 dc 4f bb 88 4e 33 be 81 67 6a 3e 04 ba db be
       -0.0031717014 -0.17510426 0.22891046 -0.42915356
0001f0 33 3d 13 be 3c 63 c8 3d 67 15 af 3e 43 6e b3 be
       -0.14378814 0.097845525 0.34196016 -0.3504506
000200 6e 9c 9c be 03 b4 b0 3d 06 a7 d4 3d 31 c0 1d bd
       -0.30588096 0.086280845 0.1038342 -0.038513366
000210 c5 9e c6 bd 31 14 78 be 56 30 1f be 8e 50 50 3e
       -0.09698252 -0.24226452 -0.15545782 0.20343229
000220 fe f1 82 3e e7 63 51 3d 29 f3 00 3e fd 09 57 be
       0.2557525 0.051120665 0.12592758 -0.20999904
000230 97 0c b4 3a fb 85 9a be 1d 93 56 3e 31 ef e6 3d
       0.0013736662 -0.30180344 0.20954557 0.11276091
000240 61 fc d4 bd 61 d3 e9 bd 84 23 c8 3b b2 a7 46 bd
       -0.103997 -0.114172705 0.0061077494 -0.04849977
000250 5c da df be 1c 36 79 3e af 01 b4 3d cd 25 95 bd
       -0.43721282 0.24337047 0.087893836 -0.072826006
000260 d9 36 c4 3d df 3b 07 3f 6f 0d 8d be eb b2 75 be
       0.09580774 0.5282573 -0.27549312 -0.23994033
000270 09 43 87 3e 31 04 96 3e 4f aa 43 3d a6 7d f2 bb
       0.2641833 0.29300073 0.04776984 -0.0074002324
000280 a5 d4 80 3c e2 ac b2 be 91 86 86 be 72 4a e7 3e
       0.015726397 -0.34897524 -0.2627454 0.45173985
000290 d9 62 2b 3d 6a 78 81 3e 24 cf 76 3d eb 88 21 be
       0.041842315 0.2528718 0.06025614 -0.15774886
0002a0 8b f9 2d be 42 6d 84 be f7 e7 73 3e 14 ed 87 bd
       -0.16989724 -0.25864607 0.23818956 -0.06637016
0002b0 33 0e 1f be 3e 15 f4 bd 38 dc 84 be 3a be a3 3e
       -0.1553276 -0.11918114 -0.25949264 0.3198107
0002c0 d7 71 cd 3e 9c 8e fa be 03 c5 fe bc 23 aa fc 3d
       0.40125915 -0.48936927 -0.031099802 0.123371385
0002d0 24 85 1e be ac b6 cb bd 87 f2 91 be a0 b3 72 3d
       -0.15480477 -0.09946951 -0.28505346 0.059253335
0002e0 27 98 d9 bd da 7e ee bd 34 3e 82 3e ef 48 02 be
       -0.10624724 -0.11645289 0.25438082 -0.12723134
0002f0 81 92 9d 3e 93 18 35 be 36 fd 94 3e 45 da bb bd
       0.30775836 -0.17685156 0.29099435 -0.09172491
000300 9e c0 ca be ca e8 71 bd a4 84 5e be fc 53 62 be
       -0.3960008 -0.059059896 -0.21730286 -0.2210235
000310 39 35 91 3e 39 f4 66 3e ed 24 07 be e3 0f 47 be
       0.28360918 0.22554101 -0.1319768 -0.19439654
000320 e9 fc 15 3d c9 ca 3d bd 5a bb 35 be a5 b2 86 3d
       0.036618147 -0.04633597 -0.1774725 0.065770425
000330 47 8d f9 3c ab 12 63 3d 0a c8 1c 3e 7b 02 80 bd
       0.030462874 0.055437725 0.15310684 -0.06250473
000340 ec f4 91 be d0 19 aa bc 4a ae a4 bd eb cc b3 3d
       -0.28507173 -0.020764261 -0.080410555 0.087793194
000350 94 2e 63 bd 6d 89 3c be 73 b8 02 be 43 a9 94 bb
       -0.055464342 -0.18411799 -0.12765674 -0.004536779
000360 17 49 7f 3e ac fd b4 3d 99 54 69 3d a9 48 f1 3d
       0.24930225 0.088374466 0.056965444 0.11781437
000370 e1 c0 ef 3d c0 84 dd 3d bf b9 65 bb 29 01 d5 bb
       0.117067106 0.10816336 -0.003505334 -0.0065003824
000380 10 c5 3b 3d bb bb 00 bd b2 5d 6a 3d 70 4c 34 bc
       0.04584223 -0.031429034 0.05721826 -0.011004552
000390 fe cf cf 3d 4c b8 b5 bd 15 c6 de 3c 8b 9d 75 be
       0.10147093 -0.088730425 0.027194062 -0.23985879
0003a0 b2 ec 1c 3e 2a 89 2d bd f1 a5 5a 3c a9 be 30 be
       0.15324667 -0.042367138 0.013345228 -0.17260231
0003b0 f9 28 27 3e 60 d1 49 bc a4 e9 b7 3d 97 ca 97 3d
       0.16324224 -0.012317985 0.0898011 0.07411688
0003c0 6b 4f 20 3f fa ea 85 bd 4a 26 1c 3e 75 3e bf bd
       0.6262118 -0.06538959 0.15248981 -0.093380846
0003d0 7b 53 e5 3d 17 c4 25 3e 4e 2a ef 3d 61 59 61 3e
       0.11197563 0.16188084 0.11677991 0.22006752
0003e0 55 83 fa 3e 06 27 a7 bd e8 e6 8d bd 6d b1 88 bd
       0.48928323 -0.0816174 -0.069288075 -0.06674466
0003f0 89 c9 70 3c 12 47 89 be fb f7 3b 3d fd cb 3c 3d
       0.014696487 -0.26812035 0.04589079 0.046092976

bias_ih_l0 f4 [80]
000000 f9 d7 35 ba c9 2c 30 bd c3 77 9c 3e 3e 86 66 3e
       -0.00069367845 -0.04301146 0.3056012 0.22512147
000010 a7 ba d1 bc 6e 72 89 bb 56 2d 83 3d a4 13 89 bd
       -0.025601698 -0.0041945493 0.064051315 -0.06693199
000020 3a 57 8b bc 4b 04 d3 bc c5 26 63 be 4a ad 08 be
       -0.017009366 -0.025758883 -0.22182758 -0.13347355
000030 ed 4c d4 3d 0e 1b 50 bd 73 c5 c8 bd 49 d5 5d bd
       0.10366235 -0.05080705 -0.098032854 -0.054158483
000040 97 9a 90 3d 89 06 88 3e e3 3b 1b 3e 4a 4f 2e 3d
       0.07060736 0.26567486 0.15159564 0.042556085
000050 d7 79 d7 3d 6a 8f c8 bd 68 fa 79 3e 72 30 5b 3e
       0.10521286 -0.09792979 0.24411929 0.21405199
000060 58 fd c5 bb 9f ba 1e 3e ae 70 c7 bc 93 93 ac 3c
       -0.006042164 0.15500878 -0.024345722 0.021066463
000070 a3 73 a0 3e bb 70 04 3e 6f ec ed 3d cc e0 a4 3d
       0.31338224 0.12933628 0.11617362 0.08050689
000080 47 f4 0f bd 01 da af 3e 3f b7 0f be af b5 01 3e
       -0.03514507 0.3434601 -0.14034747 0.12666963
000090 58 36 99 bb 28 a7 37 3e d7 c6 83 3e 2d 97 ba 3c
       -0.0046756677 0.17934859 0.2573764 0.022777164
0000a0 32 6f ab 3c 63 6f f3 bd 2b 8c e0 3d 17 7c 33 3e
       0.020927045 -0.1188648 0.10964235 0.17527805
0000b0 cf 8e 32 3e 82 c7 19 3d 1d 25 d8 bd 46 f3 f9 bd
       0.1743729 0.03754378 -0.10553954 -0.12204604
0000c0 db 63 9f bd ca e3 cc bd 06 5f e4 3d ee b5 26 be
       -0.07782718 -0.10004385 0.11150937 -0.16280338
0000d0 fd 5b 5d be 11 57 70 3d f8 25 b7 bd 2a e3 9c 3d
       -0.21617122 0.058676783 -0.08942789 0.076605156
0000e0 c8 2f 77 bc 8f e1 f5 3c d1 91 b0 3d 7b e6 db bd
       -0.0150870755 0.030014781 0.08621562 -0.1073732
0000f0 bd d6 da bc df fb 16 3e e7 71 d7 bb 8c 21 88 3e
       -0.026713723 0.14744519 -0.0065748575 0.26588094
000100 22 24 3c 3e a2 ba 65 bc f7 e4 6f bd a3 ff d3 3d
       0.18373159 -0.0140215475 -0.058567967 0.10351493
000110 be d1 00 3e 69 0a 56 3e 00 de f7 3d fe 02 5c 3e
       0.1258001 0.20902409 0.1210289 0.21485516
000120 a6 4f f8 3d 72 f1 ad 3e ac d6 a9 3d 81 8c e1 3d
       0.12124567 0.3397327 0.082928985 0.11013127
000130 0a e0 3c be 8a ee f1 3e 04 6c 00 bc 22 29 a5 bc
       -0.18444839 0.47252303 -0.007838253 -0.020161215

bias_hh_l0 f4 [80]
000000 cf e9 41 3e 95 b6 c0 bd 71 0a 96 bd 25 f6 4a be
       0.18936847 -0.09409825 -0.0732621 -0.19820459
000010 2a 03 ad bd ac 9f ea 3d 3e 7e 3f 3e 07 fa 45 3e
       -0.08447869 0.11456236 0.18700501 0.19333659
000020 72 87 af 3d d9 2f 22 3e 33 4e 05 be 3b e9 37 bc
       0.08570756 0.15838565 -0.13018112 -0.01122504
000030 5d 3d 81 bd 0d 1e 26 3e fe ab b2 bd f6 17 37 3d
       -0.06310532 0.16222401 -0.08724211 0.044700585
000040 44 c4 7e 3e 87 f1 b4 3e 72 dd cb 3d 63 79 23 3e
       0.24879557 0.3534052 0.09954347 0.15964274
000050 bc 85 8e 3d 3d db 5c bd 83 8d 6f 3e 68 ce af 3e
       0.069591016 -0.05392002 0.23393826 0.34337163
000060 81 7d 68 3b dc 4e 6d 3d 70 a7 47 bd 9f 64 a0 bd
       0.0035475197 0.057936534 -0.048743665 -0.07831692
000070 13 df 31 3d e7 cb 38 3d f8 d7 1e be c8 1e 9b bd
       0.04342563 0.04511633 -0.15512073 -0.075742304
000080 06 2c 41 3e 22 ec 92 3d 7b 29 15 bc 58 02 d2 bd
       0.1886445 0.07173945 -0.009104128 -0.10254353
000090 56 b3 1d 3e 4d ed 10 3d 9d 13 24 3e 7e d5 8a bd
       0.15400442 0.035382558 0.16023107 -0.06779002
0000a0 e5 8c a5 bd 64 4c fc bd 82 7d 86 3d 6e 2a 4e bd
       -0.08083514 -0.12319258 0.065669075 -0.050333433
0000b0 96 b3 36 be e3 39 5a 3e c8 42 0c bc ed c4 21 3c
       -0.17841944 0.21311145 -0.008560844 0.009873611
0000c0 3c 72 00 3e 46 c5 3c 3d d5 41 29 3e 8e a1 b4 bd
       0.12543577 0.046086572 0.16529019 -0.088198766
0000d0 b5 d1 14 3d 04 ea 0f be 7f 2c c5 bd 29 79 cb bd
       0.036332805 -0.14054114 -0.096276276 -0.09935219
0000e0 65 f4 f4 bd 0b ae 0e 3e 70 67 1d 3e 28 2d c1 bd
       -0.11960677 0.1393358 0.1537149 -0.09432441
0000f0 81 14 0d bd 09 0c 88 bd 28 df 94 3e f9 30 86 bd
       -0.034443382 -0.066429205 0.29076505 -0.065523095
000100 df 9d 42 3e 2d 7b 40 3d 1e 1b 67 3d 8d bf 5f 3e
       0.19005536 0.04699247 0.056422345 0.21850415
000110 71 fe c7 3d 63 83 a0 3e 2b 14 17 be 87 0e f4 3d
       0.09765328 0.3135024 -0.14753787 0.11916833
000120 10 ae 4e 3e 9f 62 c5 3e ab a4 e6 3d 39 3e 9d bc
       0.20183587 0.38551804 0.11261877 -0.01919471
000130 0c 7c d7 bd e6 5e 97 3d c3 3e b6 3d f2 b3 65 bd
       -0.10521707 0.07391147 0.088986896 -0.056079812

weight f4 [150, 20]
000000 71 83 8e bd c2 fc 23 be 6c 87 c4 3e 01 ee d5 3c
       -0.06958664 -0.16014388 0.3838457 0.026114466
000010 90 a5 3b 3f ee de 8b bd 50 14 c5 3e 8e 27 35 3d
       0.73299503 -0.0682963 0.3849206 0.044227175
000020 11 01 f9 3d 88 d6 5d 3d c4 9c ba be b3 a4 16 3e
       0.121584065 0.05415967 -0.36447728 0.14711265
000030 8a b2 ed be 06 95 37 3f d6 9a 4c bd b8 ba a5 3e
       -0.46425277 0.71711767 -0.04995235 0.32369018
000040 93 5d 84 be cf d3 d5 3e cd 55 b6 3e 40 0b 19 bb
       -0.2585264 0.4176316 0.35612336 -0.0023352653
000050 b2 76 73 be 25 b4 4e 3d 9c fb da 3e e8 21 db 3c
       -0.23775747 0.050464768 0.42770088 0.026749566
000060 66 d3 12 3f 6c be 27 3d 5e 7c a4 3e dc 28 95 bc
       0.5735382 0.040953085 0.32126135 -0.01820796
000070 c6 0e 3f 3e 17 56 16 bc 8d 0d 0d be 0c cd 97 bc
       0.1865798 -0.009175799 -0.137747 -0.018530391
000080 3b 77 b5 be 40 55 3b 3f 45 e5 3f be 8d 9c 95 3e
       -0.35442528 0.73176956 -0.18739803 0.29221
000090 0a 49 85 be f2 be a5 3e c5 da 39 3e fd c7 58 bd
       -0.26032287 0.32372242 0.1814986 -0.0529251
0000a0 6b 94 5e be 96 35 51 3e 56 9a 92 3e cb 99 ac bd
       -0.21736304 0.20430598 0.28633374 -0.08427771
0000b0 7c 94 c6 3e 58 32 ef bc 74 03 90 3e 40 2b 37 bd
       0.3878516 -0.02919881 0.28127635 -0.04471898
0000c0 62 8f 85 3e b5 e5 d9 bc b5 43 96 be 2b ac 20 bd
       0.26085955 -0.02659879 -0.2934853 -0.039226692
0000d0 49 9d 85 bd c9 1d 1e 3f d1 8e ba be 3c 8d 35 3e
       -0.065241404 0.617642 -0.36437085 0.17729658
0000e0 80 3d c2 bb b4 e7 23 3e 21 77 02 bc 95 2a 04 3d
       -0.0059277415 0.16006356 -0.007962973 0.032267172
0000f0 7f 96 d1 bd 9f 4c 7e 3d 59 53 73 3e d9 fa 9b be
       -0.10233783 0.06208479 0.23762263 -0.3046482
000100 3a 9c 77 3e 7c 93 00 3d 81 27 8b 3d ef ee 82 bc
       0.2418069 0.031390652 0.06794644 -0.015983073
000110 73 26 93 3e 53 b5 fb bd 92 cd 22 be f9 64 ee 3c
       0.28740272 -0.12290444 -0.15898731 0.029100882
000120 0e d1 2c 3e 24 5a 03 3f 63 07 c8 be 5e 70 48 3e
       0.16876623 0.5130942 -0.39068136 0.19574115
000130 e8 18 2f 3d 31 91 d7 3d ca 39 93 bc 37 d5 b1 ba
       0.04274836 0.1052574 -0.017971892 -0.0013567571
000140 1f 8c b8 bd 1a eb 15 3e e3 fa 1c 3e 0b b9 c1 be
       -0.09011101 0.14640465 0.1533008 -0.3783649
000150 20 cb 9a 3e e4 d5 ca 3e 34 41 02 be 97 8e 8c 3c
       0.30233097 0.3961631 -0.12720186 0.017157836
000160 a7 3c 44 3e 0c 24 0b be 3f ac 91 3d 09 75 12 be
       0.19163762 -0.1358797 0.071129315 -0.14302458
000170 12 92 b6 3e 31 d4 72 3e 27 e7 c0 be cd a4 86 3d
       0.35658318 0.23713757 -0.37676355 0.06574402
000180 13 ee 69 3d 5f 32 88 3d 50 00 c2 3d 35 27 d5 bd
       0.05711181 0.066502325 0.09472716 -0.10407869
000190 62 c7 59 be 75 70 f1 3d c0 af aa bd a7 80 cf be
       -0.21267465 0.117890276 -0.08334303 -0.4052784
0001a0 fc 58 3e 3e f2 3c b7 3d 5a 5c 11 3c 1c a4 f3 bc
       0.18588632 0.08947171 0.008872116 -0.02974134
0001b0 4e 4d 24 3d 93 49 51 be c4 19 4f be 65 40 24 be
       0.040112786 -0.20438223 -0.20224673 -0.1604019
0001c0 f5 6c ec 3e f6 7f b9 3d 9d cb 4a be 18 12 12 bd
       0.46176878 0.0905761 -0.19804235 -0.035661787
0001d0 30 a7 0b be 12 d4 ca bb 85 6c 43 3d 3c d5 2a be
       -0.13637996 -0.0061898315 0.047710914 -0.16682905
0001e0 f4 e7 a8 be 44 78 53 3e 38 3b 94 bd e3 23 c0 be
       -0.32989466 0.20651346 -0.072378576 -0.3752738
0001f0 09 f3 89 3e 0f 10 3d 3e 11 26 02 3d 08 70 e4 bd
       0.26943234 0.18463157 0.031774584 -0.11154181
000200 d4 ec 14 3e 02 70 06 be 29 99 55 3e 16 41 ff 3c
       0.14543468 -0.13128665 0.20859207 0.031158965
000210 f7 21 cf 3e 15 53 f0 bd 13 13 40 3b d9 d4 ba bd
       0.404556 -0.11734597 0.0029308244 -0.09122629
000220 70 28 f5 bd 02 fc df bd 89 76 60 3e 5d 64 af bd
       -0.119706035 -0.109367386 0.21920218 -0.08564065
000230 bf a8 98 be 92 eb 06 3d 6a 96 91 bd 81 43 bb be
       -0.29816243 0.0329395 -0.07108767 -0.3657494
000240 3a 8f df 3d af c4 29 be 4d 9c 14 3e a5 c4 39 be
       0.1091599 -0.16578935 0.14512749 -0.1814142
000250 f7 84 8a 3e 63 b1 54 be b2 58 1c 3e 42 79 fd bc
       0.2705457 -0.20770793 0.1526821 -0.03094161
000260 34 43 8b 3e 1c e6 40 be 66 2d 18 3e 2a 62 82 bd
       0.2719971 -0.1883778 0.14861068 -0.063663796
000270 ad ba 4a be be 5c 36 be 59 ff 6e 3e 73 39 ed 3d
       -0.19797774 -0.17808816 0.23339595 0.11583223
000280 53 5a 80 be 29 c6 4c be 5b 99 96 3d e8 7c 32 be
       -0.25068912 -0.19997467 0.07353469 -0.1743046
000290 95 b4 9d 3d f1 7a 07 be 51 98 fa 3d a2 4e 03 be
       0.07700459 -0.13230492 0.12236083 -0.12822965
0002a0 59 fb af 3e 20 90 81 be 2c 86 98 3e aa 51 62 bc
       0.3437145 -0.2530527 0.29789865 -0.013813416
0002b0 40 ec 5e 3e 94 df c3 be b3 e2 45 3e d2 03 81 bd
       0.2176981 -0.38256514 0.1932476 -0.06299557
0002c0 03 05 d9 bd 54 9b bd bd 59 20 9a 3e 83 1c 7d 3e
       -0.10596659 -0.09258142 0.30102804 0.24717908
0002d0 ca 5b 85 3d 47 f8 82 be e8 ba fa 3d a3 a9 da bd
       0.06511648 -0.25580046 0.12242681 -0.10676887
0002e0 ad 65 6c 3e a7 d7 2b be 1b 46 97 3d 29 e0 e6 bd
       0.23085661 -0.16781484 0.073864184 -0.11273224
0002f0 ee 3d 4a 3e 1d a4 93 be 60 54 1c 3e c4 00 82 3d
       0.19750187 -0.28836146 0.15266562 0.06347802
000300 4c 5a d7 3d 75 46 e5 be 85 c1 0c 3e 0b c5 36 bd
       0.1051527 -0.44780317 0.13745697 -0.04462151
000310 21 f7 27 bd 21 6e 3b bd 27 16 70 3e 5e cb 62 3e
       -0.041007165 -0.045759324 0.2344595 0.22147891
000320 db 87 3c 3e fd 90 62 bd db 3c 06 3d 47 03 cb bd
       0.184112 -0.055314053 0.03277288 -0.099127345
000330 37 11 84 3e 44 52 4c be 8b bc 24 3e fb 96 ce bd
       0.25794384 -0.19953257 0.16087548 -0.10087391
000340 27 d0 fa 3c e9 6f 7e be 94 d3 37 3e 03 c8 49 3e
       0.030616833 -0.24847378 0.17951804 0.19705205
000350 f7 b6 ac bc 6b 80 b0 be dd 8e 25 3e da 7c b9 3d
       -0.021083338 -0.34472975 0.1616778 0.09057017
000360 a1 89 26 be 3c 66 8d 3d 1b 6d b5 3d c5 b3 91 3e
       -0.16263439 0.06904265 0.08858701 0.28457466
000370 8b 1a 08 3e 13 61 0f be 73 fe f7 bd 9c ab 13 b8
       0.13291375 -0.14001875 -0.12109079 -3.5207355e-05
000380 0f c8 9c 3e 26 55 bb be 89 2d c7 3d 3a 99 ae 3c
       0.30621383 -0.365884 0.09725482 0.021313298
000390 3b bc 66 bd 20 04 15 bd 3a 0a 0c 3e 5b 31 c7 3d
       -0.056331854 -0.036380887 0.13675776 0.09726211
0003a0 95 de 21 be 66 4a 88 be f6 15 50 bc 4d 99 40 3e
       -0.15807565 -0.26619262 -0.012700548 0.1880848
0003b0 e9 f4 9f be e2 36 df 3d 7d 50 d2 3c a5 19 30 3e
       -0.3124154 0.1089914 0.025673145 0.17197283
0003c0 b3 49 ca 3d 95 1c 03 be 96 95 06 be c6 06 50 3d
       0.09877338 -0.12803872 -0.13143 0.05078771
0003d0 64 57 b7 3e 07 51 f0 bd 4c fb f4 3d 90 d0 43 3e
       0.3580886 -0.11734205 0.119619936 0.19122529
0003e0 dc 68 8b bc fd b8 3e 3e f2 35 6b 3e 72 15 07 3e
       -0.017017774 0.18625255 0.22969797 0.13191774
0003f0 cd 95 95 be b4 43 2e be ee 71 ee bd e0 df 95 3e
       -0.2921585 -0.17018014 -0.11642824 0.29272366

bias f4 [150]
000000 4b 93 b3 bc 09 59 2e bd 52 c3 de 3d da eb 00 3e
       -0.02192082 -0.04256538 0.10877098 0.1258997
000010 a0 d4 ee bc 5d 19 0b 3e e5 87 29 3d 26 57 bc 3d
       -0.029154122 0.13583894 0.041389365 0.0919631
000020 5b 24 9d 3c 45 48 67 3d 38 03 38 3e d9 ab 24 3e
       0.019182375 0.056465406 0.17969978 0.1608118
000030 0e 65 01 3c 31 d4 68 bd 97 84 ce 3c cf ce 25 3d
       0.0078976285 -0.056842986 0.025209708 0.04048043
000040 d6 fb a8 3c b0 9f b5 3c 2b f3 e0 3b 49 cb 03 3e
       0.020627897 0.022170871 0.0068649254 0.12870516
000050 f4 d5 19 3e 62 c2 90 3d d8 27 b9 3d b7 4d 97 bb
       0.15023023 0.070683256 0.09040803 -0.0046174186
000060 d8 0c 90 3d 34 3e cc 3d 7c d6 f0 3d 26 26 04 3e
       0.070337 0.09972802 0.1175966 0.12905177
000070 81 3d fc 3a 03 63 17 bd c8 d5 1b 3d 3e 1e ab 3d
       0.0019244404 -0.03695966 0.038045675 0.083553776
000080 c8 5a 43 3d eb 61 f4 3d f4 34 7f 3d 59 2c 28 3d
       0.047693998 0.11932739 0.06230636 0.04105792
000090 07 d8 07 3e 64 93 87 3d 7a 37 1d 3d 1b dd b9 3d
       0.13266002 0.066199094 0.038382985 0.09075376
0000a0 b5 c8 28 3e e2 77 04 3e 06 b7 78 bc de bf 10 bc
       0.16482814 0.12936357 -0.015180355 -0.008834807
0000b0 4e 6a 9a 3d 0d 29 84 bd 0d 48 2c 3d b5 da e3 3d
       0.07539807 -0.06453142 0.0420609 0.111256994
0000c0 5a ff c9 3d 37 b9 dd 3c 4f 3d 8b 3d dc bb 97 3d
       0.098631576 0.027065856 0.06798803 0.07408878
0000d0 c3 85 1b 3d 1f 88 32 3d 12 bb e2 3d 31 99 2d bc
       0.037969362 0.043586846 0.11070837 -0.010595606
0000e0 8c b6 15 3e ab 41 96 3d 9c 7b 6f 3d ab 92 d7 bc
       0.14620417 0.07336744 0.058467492 -0.026315054
0000f0 a6 96 67 3d ee 84 df 3d 69 58 0b 3e 04 73 a1 3d
       0.056540154 0.10914026 0.13607945 0.078832656
000100 a0 72 bb 3d 66 b1 61 3d a7 a9 50 bd 77 21 17 3e
       0.09152722 0.05510082 -0.050943043 0.1475886
000110 b2 16 b9 3d 9f 48 f3 3c 51 85 8f 3c 74 7f 2e 3e
       0.09037532 0.029697714 0.017519625 0.17040807
000120 59 14 8b 3c f2 d9 80 3d e7 05 17 bd e0 2b 24 3e
       0.016977476 0.0629157 -0.036870863 0.16032362
000130 9f 46 37 3d a5 ee 0b bd 77 44 73 3d 75 2a 1a 3c
       0.044745084 -0.034163136 0.059391465 0.009409537
000140 ee 5b 5c 3c 89 c5 0b 3d cf 33 89 bd d1 84 11 3d
       0.013449652 0.03412393 -0.06699335 0.035527054
000150 c2 7f 92 bc fe 9e ec b9 41 59 c2 bd 2f 38 d5 bc
       -0.017883185 -0.00045131886 -0.0948968 -0.026027767
000160 1c 54 0a bd 75 d5 f4 bc 20 5e 47 3d d0 9b 74 3b
       -0.03377162 -0.02988694 0.04867375 0.0037324317
000170 91 61 c4 bc ea 60 c1 bc 18 a3 21 bd 6e f3 74 bd
       -0.023972305 -0.023605783 -0.03946218 -0.059802465
000180 a9 2d a3 bc c5 28 74 bc 23 e6 fc bd 9d f4 47 39
       -0.019919233 -0.014902298 -0.123485826 0.00019069244
000190 99 da 6d 3c 24 b3 a8 3c 8f 76 c4 bd d3 47 ae bd
       0.01451745 0.020593233 -0.09592926 -0.08509793
0001a0 1c e5 e5 bd 85 45 4f bd a7 4e 4e bd 3e 87 a9 3b
       -0.1122534 -0.05060341 -0.050367977 0.005173593
0001b0 cb 9e a7 bd 8f 6d 11 3c d0 a6 ad bb 8a fb 99 bc
       -0.08184584 0.008876218 -0.0052994266 -0.018796701
0001c0 39 09 5e bd ed 06 cb bc 31 ae 1d 3d 3f 49 89 bc
       -0.054208014 -0.024783576 0.0384962 -0.01675856
0001d0 90 b3 5a 3c f5 89 87 bd 67 e8 a2 bd a0 88 61 bd
       0.013348475 -0.0661811 -0.079544835 -0.055061936
0001e0 90 0e 07 be 28 5d 84 bd fc df 7f 3d e6 2d 6b 3d
       -0.13189149 -0.06463081 0.062469468 0.05741682
0001f0 08 d1 72 3c 86 43 ab 3c bc 6a e2 3c 24 a9 42 bd
       0.014820345 0.020906221 0.027638786 -0.047524586
000200 c2 86 db bd ad 56 b4 3d 82 7a 8a 3b a8 19 95 3a
       -0.107190624 0.088055946 0.00422603 0.0011375444
000210 57 3d 47 bd 3b fb b0 bd c2 01 73 3c f4 07 11 bd
       -0.048642483 -0.086416684 0.014831962 -0.035407975
000220 72 43 dc 3d b7 d5 96 3d 1c 31 fe 3b 47 f5 90 3d
       0.10755052 0.073649816 0.007757319 0.07078033
000230 e7 3d 9b bc ff 1f a7 3d 75 2f 5c 3d 59 1d 05 bd
       -0.018950416 0.081604 0.053756196 -0.03249869
000240 df 9c c7 bc 17 c9 3d 3d fe 72 da 3b 92 d5 a5 bd
       -0.024366794 0.046334352 0.00666654 -0.08097376
000250 44 f3 89 bd 4e 75 1b 3c
       -0.06735852 0.009488417
