checkpoints/lstm/ANN_o_15.pt (torch, 429580 bytes, 8 tensors)

weight f4 [200, 400]
000000 91 51 b9 bb f4 d8 b4 3c 60 07 0a 3d 47 da 4e bd
       -0.0056554754 0.022076108 0.03369844 -0.050501134
000010 db 52 4b bb f3 be 2c bd cb be f4 3b 04 ab a0 3c
       -0.0031024728 -0.04217429 0.0074690334 0.019612797
000020 8a af 12 bc 13 f2 3c 3c 10 3f 4c bd 58 10 0d bc
       -0.008952985 0.011532324 -0.04986483 -0.008609854
000030 12 97 a2 3c dc a6 0b 3b b3 9e 9b 3d f7 0e f3 ba
       0.019847427 0.0021309173 0.07598629 -0.0018543889
000040 3f 25 ea bc d2 c5 be 3c c6 41 28 3c 2b 27 85 bb
       -0.028582213 0.023287687 0.010269588 -0.004063507
000050 ae 74 b4 bc f3 ed 33 37 f6 cd 39 3d 54 7f d2 3c
       -0.022028293 1.0724633e-05 0.045362435 0.02569548
000060 4d fa 53 bd b3 aa a5 bc d4 94 36 bd 94 44 45 3c
       -0.051752377 -0.020222997 -0.044575527 0.012040276
000070 e5 47 93 bd 87 fb 99 bd 48 de 16 3b 93 9a 10 bd
       -0.07191447 -0.07518678 0.0023020674 -0.035303663
000080 72 3b eb 3c 7a 9e e8 b9 0a 36 41 3b 2d 96 da bc
       0.02871487 -0.00044368563 0.0029481673 -0.026682938
000090 7b c0 c4 3a 5a f4 82 bd 6b 1a ee bb 44 85 64 3c
       0.0015010977 -0.063942626 -0.007266333 0.013947789
0000a0 ce bd 8a bd 77 bf a1 bc df b6 a8 bc e3 24 14 3b
       -0.067744836 -0.019744618 -0.020595012 0.0022604994
0000b0 a5 46 fd 3c c1 90 aa bc 25 03 4d bc 20 60 60 3d
       0.030917475 -0.020820977 -0.012512957 0.054779172
0000c0 a7 0f 4a bd e7 1f 4a 3a 23 90 96 3a 09 86 57 bd
       -0.049331333 0.00077104423 0.0011487048 -0.05261806
0000d0 c8 54 06 bd 2e 12 36 bc d9 52 00 bd 7a 9d f5 3b
       -0.032795697 -0.011112733 -0.03132901 0.0074955793
0000e0 2b 9e b9 3c d2 1c 8b bc 30 13 99 3b ce 68 67 3c
       0.022658428 -0.016981516 0.004671477 0.0141241085
0000f0 c8 19 35 bd 6e 31 a2 bc ae eb d5 bb 55 55 0e bd
       -0.04421404 -0.01979896 -0.0065283393 -0.034749348
000100 8b ab 3f bd 96 7a d7 3c 2b f4 72 bd 1e ac 8f 3c
       -0.046794455 0.02630357 -0.059314888 0.017538127
000110 88 c1 42 bd ef 05 f0 bc 50 2b 63 bd 29 c9 a8 3c
       -0.047547847 -0.029299704 -0.055461228 0.020603733
000120 df 32 61 3c 8e 13 9b bc 2f 2e 11 bd 0e 86 06 bd
       0.013745039 -0.018930223 -0.035444435 -0.03284269
000130 d4 e3 04 3d 71 4b 1e bd b0 06 95 3c 8d 55 7f bc
       0.032443836 -0.038646165 0.018191665 -0.015584362
000140 f3 e1 26 bc be 8c 14 bc 87 09 96 bc 78 17 4b bd
       -0.010185706 -0.009066759 -0.01831509 -0.04958293
000150 2a 77 5d 3c 90 d8 4b 3c 85 b7 ed bc 6b 65 4b 3d
       0.01351718 0.012441769 -0.029018173 0.049657267
000160 2c 45 b9 bc 67 3f 34 bd a0 aa 06 bd c7 4b c0 bc
       -0.022615992 -0.044005778 -0.032877564 -0.023473633
000170 ab ac b9 3b 9c 2e 3c bd f3 8f 2e bd 7a ff e1 bc
       0.0056663356 -0.045942888 -0.04261775 -0.027587641
000180 74 ea 0c bc d1 35 c1 bc 6b f0 85 bd f6 c1 93 bc
       -0.00860082 -0.023585232 -0.06539997 -0.018036824
000190 17 ba e3 bc 5a e2 d2 bb 5e 8a a5 bc 12 79 3e bc
       -0.027798695 -0.0064356746 -0.02020758 -0.011625545
0001a0 65 d9 6d bd e6 3a 98 3b d1 63 e5 bc 4a 35 f9 3b
       -0.05806865 0.004645693 -0.028001698 0.0076052295
0001b0 6d ff 67 3d 13 d5 67 bb 9a bb c6 bc c1 ca 5f 3c
       0.056640077 -0.0035374805 -0.024259377 0.01365918
0001c0 97 89 c5 3c 22 b4 65 bd 52 4c 20 3c da df 84 bd
       0.02411346 -0.05607999 0.009783821 -0.06488009
0001d0 06 cb 6e 3d 8e 40 8a 3c 30 94 f2 3c d8 33 98 39
       0.058299087 0.016876485 0.029611677 0.00029030326
0001e0 1d 60 53 3c 20 aa 58 bd dc 9f 68 bd e1 be 61 bd
       0.012901333 -0.05289662 -0.05679308 -0.055113677
0001f0 e7 4f 87 3d c2 1b fe 3b fa 2c ff bc 30 86 25 3d
       0.06607037 0.007754774 -0.031149376 0.040411174
000200 d2 57 39 bd 3e d6 98 3c 53 34 c8 3b fc 7b 06 bc
       -0.045249768 0.018656846 0.006109753 -0.008208271
000210 25 82 96 3c b6 3f d3 3c ee 0c 8b 3c 9a 24 5c bb
       0.018372605 0.025787216 0.016973939 -0.0033591152
000220 dd 63 29 3d 5e c3 4a bd f4 58 8a 3b 08 48 2a 3c
       0.041355003 -0.049502723 0.00422203 0.01039315
000230 c1 3c 9e bd 62 04 4e bd 35 d0 f6 bc 57 8b 02 bd
       -0.07726432 -0.05029715 -0.030128578 -0.031871166
000240 1e c4 6a bd 59 41 0e bd cb be 08 bd 5b da f6 bc
       -0.05731594 -0.03473029 -0.03338508 -0.030133417
000250 7f 06 95 bb bd e7 f1 3c 08 67 df bb fc a2 07 3b
       -0.0045478935 0.029529447 -0.006817702 0.0020696511
000260 d5 2d a4 bc 55 f1 02 bd 45 50 5d bc a7 e3 45 3c
       -0.020041386 -0.031968433 -0.013507907 0.012078202
000270 7b 94 c8 bc e6 f9 42 3c b3 26 3e b9 59 c8 15 3c
       -0.024484864 0.011900401 -0.00018134229 0.009142005
000280 ca dd 8b 3c 32 b0 2a bd 0a 9d 48 bd af 15 68 bd
       0.01707353 -0.04167194 -0.04897789 -0.056661304
000290 85 6f 00 bc bd c0 ee 3a b0 09 09 bd 35 7b 2b bc
       -0.007839088 0.00182154 -0.033456504 -0.010466387
0002a0 66 01 88 bd cf ff ae bc 33 2b f3 bc 16 d8 47 bd
       -0.06640892 -0.021362213 -0.029683685 -0.04879006
0002b0 e4 fa ce 3c bb 8a e5 3b c6 4f 41 bd 75 d7 31 3d
       0.025266118 0.0070050634 -0.04719522 0.043418366
0002c0 4a b5 6a 3c e2 36 3d bd 64 61 ad 3c 27 81 33 bd
       0.014325449 -0.04619492 0.021164604 -0.04382434
0002d0 ae 55 06 3d c5 85 03 3d 03 25 6a 3c bf ea 4c 3d
       0.032796554 0.032109994 0.014291051 0.05002856
0002e0 3c b0 7c ba 30 73 c2 bc f5 86 04 3c 24 24 2c 3c
       -0.0009639298 -0.023736566 0.008088817 0.0105066635
0002f0 fb 19 24 3c 66 31 ff bb 01 5a 01 bd c6 e0 18 3d
       0.01001596 -0.007787871 -0.031579975 0.037323736
000300 41 bb 1f bd 7c 7e 52 bd 83 f3 7d 3c a3 e8 38 bd
       -0.03899694 -0.051390156 0.015499952 -0.045143735
000310 94 7b b2 3c f3 86 1a bc 44 23 82 bc e5 38 42 3d
       0.021787442 -0.009431588 -0.015885957 0.04741754
000320 35 72 89 bd 1b cc 0a bd 3a 99 df 3c 4f e2 87 bd
       -0.067112364 -0.033886056 0.027294744 -0.06634962
000330 af 74 be bc cd 48 00 bd ed 7d 06 3d 12 e3 2b bc
       -0.023248998 -0.03131943 0.032834936 -0.0104911495
000340 a4 cd 41 bd cb 1f 2a bd 72 ab cf bc d1 5e f1 bc
       -0.047315255 -0.041534226 -0.025350306 -0.029464157
000350 ae 87 c1 bc 7a 09 5f bd ac 05 ec 3b 99 5a b4 bc
       -0.023624267 -0.054452397 0.0072028246 -0.022015857
000360 1c bc d5 3c ec 8e fc bc 94 21 5c 3c b7 a6 d5 bc
       0.026090674 -0.03082987 0.01343574 -0.026080472
000370 02 4c b6 bc 82 27 09 3d 17 2d 38 bd 72 f5 04 bd
       -0.02225304 0.033484943 -0.044964876 -0.032460637
000380 e4 99 36 bc 8d 63 ac bc d9 e9 07 3c f6 1c 59 3c
       -0.011145089 -0.021043563 0.0082955 0.013251534
000390 37 80 6d bc 0d 24 44 3b d1 db 24 bd 9b 78 4f 3d
       -0.014495901 0.0029928715 -0.040248696 0.050652128
0003a0 e0 c6 40 bc 3f 72 96 bd a3 76 55 3c 05 e5 0e bd
       -0.0117661655 -0.073460095 0.0130287735 -0.03488638
0003b0 56 ea 6e bb 76 5f 2c ba 52 8d 1e bb f6 bf 90 bc
       -0.0036455593 -0.0006575504 -0.002419312 -0.01766966
0003c0 b4 9e b5 bc 1f 45 59 bd ae c7 cb 3c e8 b6 15 bd
       -0.022170402 -0.053044435 0.024875488 -0.036551386
0003d0 12 69 1e 3d f1 03 fb 3c 73 1e e6 3c 65 56 12 bd
       0.03867442 0.030641528 0.028090691 -0.035726923
0003e0 50 20 8b 3c 02 25 e3 bc 11 18 63 bd 75 39 82 bd
       0.016983181 -0.027727608 -0.055442873 -0.06358615
0003f0 4d fd a7 3d 36 c7 f7 bc 98 7f e2 3c 4e 55 44 3d
       0.0820261 -0.030246358 0.027648732 0.047932915

bias f4 [200]
000000 ea 79 44 bd 7e 4c 54 bd 7f a0 70 bb ed 2a 61 bd
       -0.04796783 -0.05183076 -0.0036716757 -0.054972578
000010 27 06 9a 3c 0d e4 42 3c f3 d3 59 3d 31 f1 3f bd
       0.018801762 0.011895192 0.053180646 -0.046860877
000020 1b 06 25 bd d3 11 98 3d a1 84 df bd 43 5b cb 3c
       -0.040289026 0.07425275 -0.10913969 0.02482379
000030 11 3f 3f bd 45 e2 c3 3d 86 fd 8a bd be 98 5a 3d
       -0.046691004 0.09564642 -0.06786637 0.053368323
000040 14 1c fc 3c bb 7c 82 bd b0 cc 76 bc 46 33 3b 3d
       0.030775107 -0.06371447 -0.01506345 0.045703195
000050 e9 d7 da bd de f5 b4 bc 86 c4 85 bd 6a 52 60 3c
       -0.10685713 -0.022089895 -0.065316245 0.013691524
000060 9a b2 e9 3a e5 0e 2c bd 65 6f 29 bd 3b a9 9e bd
       0.0017829717 -0.042006392 -0.041366 -0.07747122
000070 82 f9 95 3c 35 fd 83 bb d9 2f 13 3d 10 d1 cc 3d
       0.018307451 -0.0040279874 0.035934303 0.10000813
000080 fb 6f 11 ba 96 d6 d6 bd 72 15 0f bc c5 06 1b be
       -0.00055479974 -0.10490148 -0.00873314 -0.15139301
000090 29 ac 97 bd 77 0d b5 3c af 11 a6 3c ca e5 6a 3d
       -0.07405884 0.022101147 0.020272104 0.05734805
0000a0 d7 c9 00 3d 7b 3c f5 bc 48 10 1f 3d 3e 8e 1a bd
       0.03144249 -0.029936066 0.038833886 -0.03773331
0000b0 bb 61 07 3d 2e ee 8e bd b4 d6 9d 3d 22 15 f2 bd
       0.033052187 -0.06979023 0.07706967 -0.11820437
0000c0 c4 8f 0e 3c ff c5 60 3d 2f 2a 8a bc 58 55 05 3d
       0.008701269 0.054876324 -0.016865818 0.032552093
0000d0 06 b6 a1 bc 77 32 bf bc 36 85 62 bd 8c f9 5a bd
       -0.019740116 -0.023339493 -0.05530282 -0.053460643
0000e0 82 a3 c1 bd ed 95 5c bd d1 0e 14 be 81 b1 91 bd
       -0.09455015 -0.053853918 -0.14458777 -0.07113934
0000f0 e8 79 88 3d 30 c7 96 3c 42 60 f5 3c 39 75 ba bd
       0.06663877 0.018405527 0.029953126 -0.0910439
000100 a7 df ae bd e3 fe 9e 3c cd cd 7f bc 04 0a 09 be
       -0.08538752 0.019408649 -0.015613032 -0.13382727
000110 0f 40 79 3d b9 f9 0d bd 53 e4 cb 39 bc 49 a3 bb
       0.060852107 -0.034661982 0.00038889292 -0.004983155
000120 2b bb 71 bd a4 9b 31 3d 7a 18 37 3d 17 57 58 bd
       -0.059016388 0.04336132 0.044701077 -0.05281743
000130 0c 3b 34 3c 56 61 33 bc 8c 8a 32 bd 7a ec ab bc
       0.011000406 -0.0109485 -0.04358916 -0.020986784
000140 aa 28 a8 bd 61 63 49 bd b9 34 87 bc 4d 2a 45 bd
       -0.08210881 -0.04916704 -0.016504632 -0.048136044
000150 b1 5b 0d 3d ad 6e 09 3d 80 58 9c bd e6 50 8c bd
       0.034511272 0.033552814 -0.076340675 -0.06851368
000160 9d 79 5f be 13 c1 8d bd 83 dc 3d bc 7e d9 63 3c
       -0.21823736 -0.069215916 -0.011588219 0.013906835
000170 d1 99 9f 3c a1 df 3a bd b5 1b 7e bd 74 2d 80 bc
       0.019482525 -0.045623425 -0.062038142 -0.015646674
000180 d0 76 a7 bc f3 84 e1 3c 5f f5 04 be 0f 98 6c bd
       -0.020442396 0.027529215 -0.12984227 -0.057762202
000190 e0 d2 e0 3b 51 3d 92 3c cd bf 50 bd 45 9d b7 3c
       0.0068610758 0.017851504 -0.050964165 0.02241386
0001a0 0a 8a 43 bd fd 70 57 bc 43 54 99 3c 7f e9 8a 3d
       -0.047739066 -0.013149497 0.018716937 0.06782817
0001b0 fb f7 0a 3d 8e 63 a6 bc da e0 77 3d d2 e8 54 bd
       0.0339279 -0.020311143 0.06051717 -0.051979847
0001c0 7f b9 a8 bd a5 e7 2f bd b4 00 d3 3d 6e 57 27 bc
       -0.082385056 -0.042945523 0.103028685 -0.010213716
0001d0 60 0c 23 3d 49 92 a6 bd 02 7f 66 bd 19 ce 8a b7
       0.039806724 -0.081333704 -0.056273468 -1.6546854e-05
0001e0 60 3f 9e bb 89 c4 18 3b 6d 44 38 3b e3 94 4f ba
       -0.004829332 0.0023310503 0.0028116957 -0.0007918609
0001f0 13 55 14 bd 1b 98 5a bd aa 43 3d bd 76 b9 96 bd
       -0.036213946 -0.053367715 -0.046207108 -0.073595926
000200 9e ec 09 bd db 34 35 bb d7 f4 9d bd d7 40 93 3c
       -0.03367292 -0.0027649913 -0.07712715 0.017975254
000210 71 3b af 3d 64 3a 94 bc eb 45 a0 bc 19 7b bd bb
       0.085562594 -0.01809425 -0.01956459 -0.0057824966
000220 ea 85 98 bc f2 18 30 3a ce 6b 52 3d a9 f3 d1 bd
       -0.018618543 0.00067175843 0.05137234 -0.102515526
000230 97 d7 a4 bd 5b 35 28 bd 05 fb f0 bd 14 ef c3 bd
       -0.08048933 -0.04106651 -0.11766628 -0.09567085
000240 2f 35 9f 3d 78 5e 5d 3d cb 49 5a bd 42 a9 d8 3b
       0.07773816 0.05404517 -0.05329303 0.006611974
000250 b1 63 01 bd f5 31 ba 3c 2c 42 ed bc a8 ff 74 3b
       -0.031589214 0.0227289 -0.028962217 0.0037383828
000260 74 f9 ce bc 46 e5 ca 3c 5f 9f db 3c e2 4c 17 bd
       -0.025265433 0.02476753 0.026809392 -0.036938556
000270 7e 93 fb bc 90 ea a7 bc 18 0b 0d bd 72 db 29 bd
       -0.030709978 -0.02049759 -0.034434408 -0.041469045
000280 b4 79 d9 bc 35 fb b5 bc 04 97 c0 bb 51 6c ac bd
       -0.02654729 -0.022214511 -0.0058773775 -0.08419097
000290 b7 b3 2a 3d 4f c4 80 bd 9d eb ed bd a5 af 3a bc
       0.041675296 -0.06287443 -0.11617205 -0.011394416
0002a0 dd fc f8 3b 1b 95 02 bc 5e 94 13 3d 1b 3d 36 bc
       0.007598503 -0.00797012 0.036030166 -0.011122967
0002b0 3a 93 12 bd 3a 40 9d bc 97 35 19 3c e3 06 72 bb
       -0.035784937 -0.019195665 0.009351156 -0.0036930374
0002c0 4f 49 fc 3b 08 88 52 bd 57 79 58 3d ba 55 28 3c
       0.0076991688 -0.05139926 0.052850094 0.010274345
0002d0 80 e7 03 bd 08 f7 c3 3b f4 b7 39 bd a0 92 22 be
       -0.032203197 0.005980376 -0.045341447 -0.15876245
0002e0 6a 45 31 3d 7e 9e b5 3c 24 f1 45 bd 84 65 5b bb
       0.04327909 0.022170302 -0.048325673 -0.0033477256
0002f0 e4 bd 50 bd ba bb ba bd 23 a1 5b bc 63 14 90 3d
       -0.050962344 -0.09117837 -0.013405117 0.070351385
000300 d8 3e 59 bc a9 1d c8 bc 17 a2 8c bc 0f 72 97 bd
       -0.013259612 -0.024428206 -0.017167134 -0.07394802
000310 9e 7f f0 bd 0a 7e 87 3c 2f 6c 49 bd c2 a0 02 3d
       -0.11743091 0.016539592 -0.049175438 0.03189159

weight f4 [100, 200]
000000 70 79 85 3d 39 37 5b bd ff 45 71 bb 42 3b 3e bc
       0.06517303 -0.05351946 -0.0036815403 -0.011610808
000010 1f 97 93 bb 31 bb 75 bd 83 32 dc bb bb 8a 3f bd
       -0.004504099 -0.059992973 -0.0067198887 -0.046763163
000020 e1 41 38 bc 8c 15 16 3d e4 af 90 bd ac b6 4d 3d
       -0.0112461755 0.036641642 -0.070647985 0.050223038
000030 26 2a 88 3d df dc 8d bc 32 c1 30 3d af 62 28 bc
       0.06648664 -0.017317234 0.043152995 -0.010277434
000040 57 46 12 bd ef 57 5e bd 9b 24 27 3d 2d 4c 8e bd
       -0.035711613 -0.05428308 0.040806394 -0.06948123
000050 52 ae 00 3d 4d b8 60 bd e4 04 c9 bb 33 52 80 bd
       0.031416245 -0.054863263 -0.006134616 -0.06265678
000060 48 79 ca bc 8a f9 05 bd db a9 59 3b a3 04 4f bd
       -0.024716035 -0.032708682 0.0033212814 -0.05054153
000070 41 ee 99 bd 54 70 0b 3d 62 3b c9 bc fb bd 21 bd
       -0.075161465 0.03404267 -0.024564449 -0.03948782
000080 2c 8a 35 bd 23 22 6f bd 54 26 5f bd 84 0f f0 3c
       -0.044321224 -0.058382165 -0.054479912 0.029304273
000090 91 ae 3a 3c 91 dd 92 bd a0 77 53 3d ba 90 d6 3c
       0.011394159 -0.07171167 0.051627755 0.026192058
0000a0 e0 5e dc bd 04 67 85 bd 14 1e fe 3c 05 40 09 bd
       -0.107602835 -0.06513789 0.031020202 -0.03350832
0000b0 be 45 52 bd 4a dd 40 bc 06 91 a6 bd ed 33 5c bd
       -0.051336043 -0.011771509 -0.0813313 -0.053760458
0000c0 b6 5d 56 bb 02 59 fb 3c e3 4c 85 bd 3b d1 49 bd
       -0.0032709665 0.03068209 -0.065088056 -0.049271803
0000d0 94 4c 00 bd 5f 88 72 bd 41 34 01 3d 5e 57 b6 bc
       -0.03132303 -0.059212085 0.031543974 -0.022258457
0000e0 7a 58 f1 3b 72 ab 0e 3d ab 51 3a bd 3e f8 61 3c
       0.0073652836 0.03483147 -0.04548804 0.013792096
0000f0 c8 12 33 bd eb cf 60 3c ab 6f d1 ba 4b 6a 02 bd
       -0.043719083 0.0137214465 -0.0015978714 -0.03183965
000100 73 27 7a bd 22 41 71 bd 6d c2 04 3d 3c dd 06 bd
       -0.061072778 -0.058900006 0.03241198 -0.03292583
000110 7f e4 93 bd 00 c8 74 3d f8 e8 03 bd a0 57 bd bc
       -0.072213165 0.059761047 -0.0322046 -0.023113072
000120 9e d9 2b bd 3f 0d d4 bc e0 c7 e9 3c bc e2 b9 3c
       -0.041955583 -0.025885222 0.02853769 0.022691123
000130 99 6b 67 3c 9e 20 7f 3d 6f 8b 4c 3d a9 fe 20 3c
       0.014124774 0.062286966 0.04993766 0.009826341
000140 66 29 2f bd 58 e5 6c bd b1 f8 84 bd 80 39 d6 bc
       -0.04276409 -0.057835907 -0.064927466 -0.026150465
000150 d9 fe d0 3c 19 0c 83 3d 9f cc f6 3b 79 2a fc 3c
       0.025512146 0.06398792 0.007531717 0.030781971
000160 29 24 92 bd c3 98 0b bd ed bc 0e bd 33 58 13 3d
       -0.07135803 -0.03408123 -0.034848142 0.035972785
000170 38 f9 bc bb 83 87 44 bd 37 c2 1a 3c 65 72 8c ba
       -0.005767014 -0.047980797 0.0094457185 -0.0010715245
000180 05 66 61 3d 5b 7b b5 3c 41 99 1d bd f3 78 75 bd
       0.055028934 0.022153547 -0.038476232 -0.0599298
000190 4a b0 64 bd 07 1f 94 3a c1 92 7f 3c bf c8 04 bd
       -0.055832185 0.0011300751 0.015598954 -0.03241801
0001a0 76 1d 41 3d 23 fb 9a bd a6 69 b5 3c 84 f7 61 bc
       0.047147237 -0.07567432 0.022145104 -0.0137919225
0001b0 15 b3 9f bd 5f 6e f6 b9 94 92 90 bd 3e 5f 86 3c
       -0.07797829 -0.0004700301 -0.070592076 0.016402837
0001c0 63 8e 95 bd ce 54 5d bd e2 af 1c 3c b9 f4 b2 3c
       -0.07302549 -0.054035954 0.009563418 0.021845208
0001d0 e4 4a 45 bd d3 b0 21 3d 47 31 31 3d 59 06 c2 3c
       -0.048167124 0.039475273 0.043259885 0.023684667
0001e0 06 6c d0 ba df 9c 95 bc 89 42 cf bb 51 ba 2e bd
       -0.0015901334 -0.018263279 -0.0063250703 -0.042658154
0001f0 dd b5 86 3d 68 f6 07 3d bb 20 a9 3b 15 d5 3b 3c
       0.065776564 0.033193976 0.0051613725 0.011464377
000200 e8 69 0e 3d a6 6a bd bd 56 4c ed 3b 94 cd 96 ba
       0.03476897 -0.09248857 0.007241766 -0.0011505359
000210 1e 86 96 bc 72 21 a5 bc b6 50 49 bd 61 ee 74 3d
       -0.018374499 -0.02015755 -0.049149238 0.05979765
000220 82 af f2 bc f2 61 22 bd b3 c2 86 bd 8f 58 7c bb
       -0.029624704 -0.03964419 -0.06580105 -0.0038504933
000230 5f 3a 7c 3c cd 2b 9b bd 93 3b 31 bd 7d 38 88 bd
       0.015394776 -0.07576714 -0.043269705 -0.06651399
000240 55 3f 93 bc a3 f8 95 bd 6c 4c 40 bd 17 57 88 3b
       -0.017974535 -0.07322814 -0.04694788 0.0041607725
000250 de 6b 32 bc 06 d0 9e 3c b9 0b b1 bd cf 92 a3 3c
       -0.010889975 0.019386303 -0.08644814 0.019967465
000260 d1 53 0e bd 1b a5 7c bd 77 2e 46 bd ad 8b fa 3c
       -0.034747902 -0.061680894 -0.048384156 0.03058418
000270 3e bf 42 bd 6b 83 e7 3c cc a8 ed 3c b8 4a 06 bd
       -0.047545664 0.028260907 0.029011153 -0.0327861
000280 49 5b a6 bc c6 b5 b1 bd 20 c4 ed bc 93 09 d6 3c
       -0.0203072 -0.08677249 -0.029024184 0.026127612
000290 27 9d 5e 3c df a4 09 bc a4 15 41 3d 16 49 84 3c
       0.013587273 -0.008401125 0.04713978 0.016148131
0002a0 ff 6e 1b 3d b6 5c f8 3b 32 7f 01 3c 07 5f 25 3d
       0.03794765 0.0075794114 0.007903861 0.04037383
0002b0 8f 52 11 bd 98 8d 6a 3c 27 54 c5 bd f6 e9 25 bd
       -0.035479125 0.014315985 -0.096351914 -0.040506326
0002c0 35 20 26 bd e9 0b ef 3c e0 1c 62 bd dc 72 b2 bd
       -0.04055806 0.029180484 -0.05520332 -0.08713314
0002d0 44 a1 29 3d 03 e4 16 bd df b6 f7 3c e9 51 01 bc
       0.04141356 -0.036838543 0.030238567 -0.007893064
0002e0 26 0d 7d 3c d7 6c 70 3b 27 2b 71 bc 27 51 75 bd
       0.015445029 0.0036685967 -0.014719761 -0.059891846
0002f0 0e ad 77 3c 46 a4 62 bd 74 c9 1b bd 1c 81 f5 bc
       0.015116943 -0.055332445 -0.038033918 -0.02996879
000300 be 99 8c bd a4 4c ab bd a3 dd 4e bd e5 8c 07 3d
       -0.068652615 -0.083642274 -0.050504338 0.033093352
000310 3a 0c 6d bd f7 b3 77 bd 27 1b a5 3c ff 1f a8 bd
       -0.05787299 -0.060474362 0.020154549 -0.08209228
000320 81 68 d9 bd 8f eb 84 3d bd 5d 12 be 3f 5c 6f 3b
       -0.10615636 0.06490242 -0.14293571 0.0036523489
000330 ad 68 37 bd 84 cb 24 3c ae 9f 47 ba 10 f2 94 3d
       -0.04477756 0.0100582875 -0.00076150417 0.07272732
000340 08 75 c3 bc 75 e0 cf bd ad d9 23 3d 09 ed 9c 3d
       -0.023859516 -0.10150234 0.040002514 0.07662398
000350 43 52 80 bd 2f 14 a5 3d 07 f0 d1 3c 42 90 53 3d
       -0.0626569 0.0806049 0.02562715 0.051651247
000360 ac eb 4b bd 30 a7 01 3e 5f 0d 57 3d 38 38 ea bc
       -0.0497853 0.12661433 0.052502986 -0.02859126
000370 0d e8 3e 3e 94 fd 2e 3e 2e fd 13 bd ed 94 ad bd
       0.18643208 0.1708892 -0.036130123 -0.08475671
000380 33 00 0a 3d e1 39 ee 3d e6 54 31 bd 92 73 d6 3d
       0.033691596 0.11632133 -0.043293856 0.10471262
000390 74 5d 24 3e ad 2e 9b 3d 5a f4 e7 bd f4 93 f7 3c
       0.16051275 0.07577262 -0.11325903 0.030221917
0003a0 98 b4 fa 3d 76 d1 d2 3d 23 2b fd bd ab d2 53 bd
       0.12241477 0.10293858 -0.12361743 -0.05171458
0003b0 5e 6b 19 3c aa 9b c5 3b c1 05 52 bd 87 f2 e1 3d
       0.009363977 0.0060305195 -0.05127502 0.110325865
0003c0 5d 5a 9f 3d 51 29 3d 3e c0 b8 c9 3c 52 22 26 bb
       0.07780907 0.18472792 0.024624228 -0.0025350046
0003d0 95 8e 5b bd cb eb 04 3e a8 ef 90 bc 20 84 4f bd
       -0.053602774 0.12980573 -0.017692402 -0.050663114
0003e0 d9 d4 ca 3c a8 85 e0 3c ba 1f 45 3e 72 39 55 3d
       0.024759697 0.027407482 0.19250384 0.052056737
0003f0 34 d7 58 be 74 be a6 3a 9f bd f9 3d a2 fe 0a bd
       -0.21175843 0.0012721554 0.121943705 -0.033934243

bias f4 [100]
000000 95 95 81 bd 92 52 52 3d 0b 2e 37 bc a5 05 a6 3c
       -0.06327359 0.051348276 -0.011180411 0.020266363
000010 7f 57 0f 3e e9 ca 20 3d d6 d8 2c 3d 08 a5 e2 3b
       0.13998221 0.03925601 0.04219898 0.006916646
000020 c1 42 ba 3d 25 7a 9c bb 87 99 21 bd 90 b7 f1 3d
       0.090947635 -0.004775303 -0.039453056 0.1180259
000030 80 06 78 bc 1c 83 f5 bb a9 ca 73 3d dd f5 d0 3d
       -0.0151382685 -0.007492436 0.059519444 0.10203145
000040 d9 35 74 bd e5 5e c5 3d 96 05 cd 3c e4 68 02 3d
       -0.059621666 0.0963724 0.025027078 0.031838313
000050 72 c7 bc bc 5b 8d 38 3d eb 5f 82 3d b8 fd 23 3d
       -0.023044322 0.045056682 0.06365951 0.040036887
000060 16 24 2a 3e d4 63 99 3d 30 40 2b bc 54 a7 53 bd
       0.16615328 0.07489744 -0.010452315 -0.05167325
000070 42 03 27 bd ab 21 80 bd 9a 58 25 bd 4f 91 94 bc
       -0.04077459 -0.06256422 -0.0403677 -0.018135695
000080 58 a8 cd 3d 0c 4d 39 bd c3 2a 23 3c f1 1f 44 bd
       0.10041875 -0.045239493 0.009958926 -0.047882024
000090 e1 55 9a 3d f9 8d a6 bc 30 42 cd bc 58 bf 92 3c
       0.07535911 -0.02033137 -0.025055975 0.017913505
0000a0 79 ec 02 3c 5d f1 0b 3d 8a 82 7e bd 83 d4 35 3d
       0.00799095 0.03416573 -0.06213621 0.04439212
0000b0 4a 75 06 bc 58 24 c9 3c 1a b2 d1 bd 95 19 15 3d
       -0.008206675 0.024553463 -0.10239048 0.03640135
0000c0 d4 b2 62 3b 00 50 2a 3e e4 97 b7 bd d0 81 0d 3c
       0.0034591453 0.1663208 -0.08964518 0.008636907
0000d0 ac a5 55 3c 3f d9 82 3d 6a d9 67 3b bf 00 1d 3d
       0.0130399875 0.06389093 0.0035377392 0.03833079
0000e0 a0 18 ac bd 39 85 9f 3c 12 77 ad bd 93 7c 4d bc
       -0.08403134 0.019472705 -0.084699765 -0.012541908
0000f0 a1 ae 2c 3d 90 5a 17 3d e2 fa a0 bd 73 cf bd 3d
       0.042158727 0.0369516 -0.07860352 0.092680834
000100 fe 29 66 bc b5 e6 9d 3d 99 2c 54 3c fa 06 59 3d
       -0.014048098 0.077100195 0.012950086 0.05298517
000110 88 77 a6 3b 54 66 e7 3c ee de 60 3c 8f cd 4f 3d
       0.005080167 0.028247036 0.013725026 0.050733145
000120 a5 2e 40 bc 51 f5 b5 bd a0 d6 75 bd 2d 9b 8e bd
       -0.011729871 -0.08884681 -0.060019135 -0.06963191
000130 e2 c9 a5 3d b1 1d 4e bd 3c 51 6a 3d 1c 03 c0 3d
       0.08095147 -0.050321285 0.057206377 0.09375593
000140 56 08 15 3c 42 d3 48 3d 03 4e 97 bc fb 23 e1 3c
       0.009096226 0.049029596 -0.018469816 0.027482977
000150 a4 4d 56 3b 6c 2f 88 bd cb 92 d1 3d 08 5a 6f bc
       0.0032700086 -0.0664967 0.10233077 -0.0146088675
000160 c0 ce a1 3d b4 1a ac 3d c9 bd 04 bd 7f 48 57 3d
       0.079007626 0.08403531 -0.032407556 0.052559372
000170 16 90 4a 3c 89 0a 43 bd a5 0e 12 be 6b ab 0e bd
       0.012363454 -0.04761747 -0.14263399 -0.034831446
000180 e0 70 93 3d fe ff b3 bd 39 b4 b0 bd 40 a8 87 bd
       0.071992636 -0.08789061 -0.08628125 -0.06623888

weight f4 [50, 100]
000000 8d c1 64 3c 86 c6 1b bc 75 0c 57 bd ef 5a 9b bd
       0.013962162 -0.009507781 -0.052502114 -0.075857036
000010 e5 c6 85 3c 88 8a ac bd 35 91 c8 bd 59 67 ad 3d
       0.016330192 -0.0842486 -0.09793321 0.084669776
000020 49 31 96 bd 1b c8 68 bd e7 00 d1 3c ce 49 d8 bd
       -0.07333619 -0.05683146 0.025513126 -0.10560952
000030 13 7d 27 bd b8 f9 70 3c d9 06 38 bd 1f 31 46 3d
       -0.040890764 0.014707975 -0.044928405 0.04838669
000040 6b ac c1 bc 5e 3d 8b bc 28 b0 87 3d 5e 99 22 3d
       -0.023641786 -0.016997036 0.06625396 0.039697044
000050 7b 50 78 bd ff 6b 85 3d ae c6 a1 bd d2 27 bb bd
       -0.060623627 0.06514739 -0.07899223 -0.091384545
000060 45 75 51 bd ee c4 67 bd ee 4b bb bd 66 31 d0 bd
       -0.051137228 -0.05658429 -0.09145342 -0.10165672
000070 18 59 0d bd 8a 19 71 bd 16 de 58 3d 69 96 a4 3d
       -0.034508795 -0.058862247 0.052946173 0.08036501
000080 ff 4e 86 bd b0 fc 0b bd 60 e3 67 bd f7 b8 78 3d
       -0.06558036 -0.03417653 -0.056613326 0.06072327
000090 80 29 61 bc 33 fa bf bd 16 ac 57 3d b6 52 bf bd
       -0.0137428045 -0.093738936 0.05265435 -0.09341948
0000a0 26 59 60 bd 1b f4 90 3d 9d 95 1b bd 57 d1 b6 bd
       -0.05477252 0.070778094 -0.03798448 -0.08926647
0000b0 6a 61 2a 3d 6b 64 76 3d 40 53 a1 3b 94 4f 9f bd
       0.041596808 0.06015436 0.0049232543 -0.0777885
0000c0 07 42 89 bd 3d 82 48 bd 77 a2 13 3d f3 4e 29 bd
       -0.06702047 -0.04895233 0.03604361 -0.041335057
0000d0 78 79 46 3c cf e0 12 3d d0 c0 82 bd 47 31 95 bd
       0.012113921 0.035858925 -0.06384432 -0.072847895
0000e0 fa 2f 80 bc 0a c2 27 3d a0 02 f5 bc 1b 53 10 3d
       -0.015647877 0.040956534 -0.029908478 0.035235506
0000f0 c5 9e 04 3d ed 13 9e 3d 38 89 e6 3c 44 8c 09 bb
       0.032377977 0.07718644 0.028141603 -0.0020988146
000100 83 45 b7 bd 47 71 0d bd c9 19 1d 3d b6 e4 85 bd
       -0.08948805 -0.034531858 0.03835467 -0.06537764
000110 1a 1a 61 3d f5 c2 2a bc 0d 9a 67 bd 40 cf ca 3c
       0.054956533 -0.010422458 -0.0565434 0.024757028
000120 47 da bd bd cd 4e 9a 3b 8d e9 f5 bd 33 51 7b bd
       -0.09270149 0.004709101 -0.12007437 -0.061356734
000130 1a 12 b7 bd ed 7a 6f 3d c0 53 13 3a d8 1e bd bd
       -0.089389995 0.05846684 0.00056200847 -0.092343986
000140 da f6 70 bd b0 18 62 3c 10 01 dd bd b7 0c e3 bc
       -0.058829166 0.013799831 -0.10791218 -0.027716024
000150 ec 02 8b 3c c3 ca 37 3d f3 a2 83 3c 1c dc 82 bd
       0.016969167 0.044871103 0.016068911 -0.06389639
000160 9c a7 ad 3c 19 e5 77 bc 68 63 87 bd c9 80 c1 bd
       0.021198086 -0.015130305 -0.06610757 -0.09448392
000170 4a b9 61 3c 55 f5 fd bc 33 8f 57 bd 7d a4 d6 bb
       0.0137770865 -0.031000772 -0.0526268 -0.0065503702
000180 c6 91 5b 3c da df d0 bc f9 04 7f 3d 77 67 57 bb
       0.013401454 -0.025497366 0.0622606 -0.0032868066
000190 82 d9 cb 3d 8e 61 8f bd 07 4a 8a bd 55 1b e1 bd
       0.09953596 -0.07001029 -0.06752401 -0.10991541
0001a0 3d 0e 65 bd 9d c9 78 bd b7 29 8b 3d 2b 35 a9 3d
       -0.05592178 -0.06073915 0.06795066 0.08262094
0001b0 33 80 50 3b 07 fb da 3c 0a b8 16 bd 00 52 65 bd
       0.0031814694 0.026731027 -0.036796607 -0.055986404
0001c0 6b 78 a4 bd aa e2 bd bd cd 94 d1 bb c0 43 61 3d
       -0.080307804 -0.09271748 -0.0063959123 0.054996252
0001d0 80 40 fb bb 87 c9 8e bd 01 11 12 3d cb c0 b4 bd
       -0.007667601 -0.06972032 0.035660747 -0.08825835
0001e0 00 48 3f bd 00 14 74 bd ba 5e b0 3c 77 72 25 bd
       -0.046699524 -0.059589386 0.021529544 -0.040392365
0001f0 17 7f c0 bd 1d e2 88 bc 0d 2e 94 bc 62 04 94 3d
       -0.093992405 -0.016709382 -0.018088365 0.072273985
000200 77 61 04 bd a5 58 9d bd 4d e7 b9 3d 9a 81 1d 3c
       -0.032319512 -0.07682923 0.0907732 0.009613419
000210 05 fd a4 3d 9d f1 0f 3d 57 f2 bd 3d 15 e8 8c 3d
       0.08056072 0.03514253 0.09274738 0.06880204
000220 23 40 54 3d 86 d3 cb bd 5f b8 c0 bd 38 e2 3b 3d
       0.051818978 -0.09952454 -0.09410166 0.045870036
000230 40 1f a6 bd db f3 99 bd 32 81 93 bd 48 d7 8b bd
       -0.08111429 -0.07517215 -0.072023764 -0.06828171
000240 28 7e 8e bd b3 9a 27 bc d0 62 26 bd bb b3 95 bb
       -0.06957656 -0.010229754 -0.04062158 -0.0045685447
000250 92 ca 8d 3d 63 63 84 3d de 52 1d 3d 00 08 80 bd
       0.06923403 0.06464269 0.038409106 -0.06251526
000260 93 d0 89 3c 3d ec c7 bd 72 dc 5f bd 2b 40 8c bd
       0.016823089 -0.09761856 -0.054653592 -0.068481766
000270 a7 27 3a 3c ed f4 b4 3d 4d 0d 40 bd a8 ba ef bd
       0.011361993 0.088357784 -0.046887685 -0.11705524
000280 23 89 4b 3d d0 b1 a4 3d 2f e6 c7 bd 86 94 94 3d
       0.04969133 0.080417275 -0.09760701 0.07254891
000290 47 a9 cf 3b 65 22 15 3d 27 59 27 bc c7 12 93 3c
       0.006337318 0.036409754 -0.010214127 0.01795329
0002a0 3f ee b6 bd e8 67 a6 3d 78 6f 90 3d a7 56 15 3c
       -0.089321606 0.08125287 0.07052511 0.009114898
0002b0 c1 4b b8 3b 80 3f f9 bb a3 3a 0c 3d e0 8a 62 3d
       0.005624265 -0.0076064467 0.034235608 0.055308223
0002c0 23 e4 c9 bd a7 13 0b bc 85 e7 36 3d 73 0e d4 bd
       -0.09857967 -0.008488572 0.044654388 -0.103543185
0002d0 33 0f 54 ba 2a 4b 31 bd 54 6d 2d bd d5 21 25 3d
       -0.0008089423 -0.043284573 -0.04234059 0.040315468
0002e0 5d da 81 bd fa 4d 9f 3c 84 61 90 bc f3 b1 b0 bd
       -0.063404776 0.019446362 -0.017624624 -0.08627691
0002f0 3b 46 a1 bd 10 39 17 3d 4d fc 07 3c 3d 60 97 bd
       -0.078747235 0.036919653 0.008299899 -0.07391403
000300 37 04 97 bd 03 40 3d 3d 2c 09 b1 bd 67 e9 bd bc
       -0.07373851 0.046203624 -0.086443275 -0.023182584
000310 1e 7e fc bc 80 42 a1 bb aa 82 01 3d a8 60 af bd
       -0.030821856 -0.0049212575 0.03161875 -0.085633576
000320 95 ea 3f bd 02 05 1a bd de 92 d8 3c 9d 46 9c 3c
       -0.046854574 -0.037602432 0.02643722 0.01907664
000330 45 0b 2a be d3 28 8f 3d e4 05 68 bc 80 44 f4 bd
       -0.16605861 0.069902085 -0.014161561 -0.11927128
000340 bb 20 34 3e 4e 10 7d 3d 4b dc 14 be 2e de d3 bd
       0.1759061 0.061783127 -0.1453716 -0.10345112
000350 6a aa 95 3c 22 73 d6 3c e0 5f 7a bd 86 bf d5 3d
       0.018269736 0.026177946 -0.06112659 0.10436921
000360 03 d5 47 3c 39 a8 cc bd 4b 18 d8 bc 37 fa 07 3e
       0.012196782 -0.099930234 -0.026378771 0.13279043
000370 44 20 c5 bd ac 08 b7 3d 5a 38 08 bd 9f 75 08 3d
       -0.09625295 0.08937201 -0.033256866 0.033315297
000380 54 2d 64 be 93 bb 9a 3d 15 b5 44 3d d6 c1 a5 bd
       -0.22282916 0.07555308 0.048024256 -0.08093612
000390 14 4e 8f 3d 43 1b 65 be 31 ea 89 3d 1a 62 87 3d
       0.06997314 -0.22373681 0.067341216 0.06610508
0003a0 8c 24 ed 3d 6d d4 f4 bd 9f dc b1 bd f6 69 12 bd
       0.115792364 -0.119545795 -0.08684658 -0.035745583
0003b0 1c ad 79 3d 34 aa ab bd 27 fe 0b 3e 03 6a b9 3d
       0.060956106 -0.08382073 0.1367117 0.09053423
0003c0 72 bc 46 3d fe 88 c9 bd 01 39 c8 3d 6f 46 c2 3d
       0.04851956 -0.09840582 0.09776498 0.094860904
0003d0 ec e9 c3 3c 48 dc a0 bd c0 21 4f 3c cc 18 35 bc
       0.023915254 -0.07854515 0.012642324 -0.011053275
0003e0 52 3d e7 be e0 ee d6 bd ba db d1 3d e2 85 32 3d
       -0.4516397 -0.104947805 0.10246988 0.04358471
0003f0 9b b3 b0 3d b3 1b 66 3d 3a 18 6e 3d 66 07 7e bc
       0.08628007 0.05617876 0.058128573 -0.015504694

bias f4 [50]
000000 97 63 98 3c 3a 58 cb bd 5d bb de 3d a9 cc f7 bc
       0.018602176 -0.09928937 0.108755805 -0.030248957
000010 af 96 84 3d 54 02 db 3d 44 de 04 3d 48 5c 6f bb
       0.06474053 0.106938034 0.03243853 -0.003652351
000020 51 7d bd 3d b0 ff ad bc 45 b9 e8 3d ec 04 74 3d
       0.09252418 -0.021240085 0.11363462 0.059575006
000030 bb 17 8a 3d 24 a5 0f 3d bd f2 03 bd 95 05 e2 3d
       0.067428075 0.0350696 -0.032213915 0.11036221
000040 5d f2 33 bc 19 46 94 3d 12 47 99 bd 8d d5 84 bb
       -0.010983077 0.072399326 -0.07484259 -0.0040537775
000050 40 d7 1e bd c3 38 c1 3d 2e e1 b3 bd 34 a4 6f bd
       -0.038779497 0.094346546 -0.08783184 -0.058506206
000060 b3 2f e4 3c 96 5e bc 3d ae 70 17 bd a0 be 4e bd
       0.027854776 0.09197728 -0.036972694 -0.050474763
000070 a4 4d 2e bd de 0e a3 bc de 13 60 bd fd 3b 57 3d
       -0.042554513 -0.01990455 -0.054706447 0.052547444
000080 06 77 e6 3d bf 46 f9 3c ef 5d b6 bc 05 4f 0b bd
       0.11253171 0.030429242 -0.022261588 -0.034010906
000090 09 27 e8 bd 1c 84 02 bd 18 8a cd bc ab 64 bf 3d
       -0.1133557 -0.03186427 -0.025090262 0.09345373
0000a0 79 c4 b1 bd f9 17 db bd 32 38 95 3d 4d 1b be bc
       -0.08680052 -0.10697932 0.07286109 -0.023206377
0000b0 51 b7 31 bc 09 80 16 3d 35 4e a6 bc ad bc ab 3d
       -0.010846929 0.036743198 -0.020300964 0.083855964
0000c0 21 f2 40 bd a0 0d 86 bd
       -0.047105912 -0.065455675

weight f4 [15, 50]
000000 d7 43 f6 bd 85 de c4 bd f5 ff 26 bb cc bf df 3c
       -0.12024658 -0.09612755 -0.0025482152 0.027313136
000010 2b 2f 39 3d bc 7c d5 3c 87 2a 27 3e e5 be 9f bd
       0.045211 0.026060455 0.16324817 -0.07800082
000020 e7 de ab bd 89 55 cd 3d 8c 91 d6 3d 78 e5 b3 3d
       -0.083921246 0.1002608 0.104769796 0.08784002
000030 75 e9 ad 3c 0c 43 84 bd 0c bc a4 bc 38 a4 a2 3d
       0.021229485 -0.06458101 -0.020109199 0.079414785
000040 30 e9 7b 3d 1c 31 cc bb 1d e5 1c 3e f5 87 54 3d
       0.06150168 -0.00623144 0.15321775 0.05188747
000050 b4 ad 5c 3d 53 0c 40 3d 8a da c9 bd 8d 93 48 be
       0.053876594 0.046886753 -0.09856136 -0.19587536
000060 8c f6 75 3c a4 bf 4b 3c b2 c1 33 3e 82 e9 1a 3e
       0.015012395 0.012435827 0.17554358 0.15128139
000070 d0 5e 00 3e 1e 30 b3 3d 86 07 48 3c 86 d3 82 3b
       0.12536168 0.08749412 0.012208825 0.0039925007
000080 50 4a 84 bd f4 1a 48 be b3 59 5b 3d 4b 77 38 3e
       -0.064594865 -0.19541532 0.05355234 0.18014257
000090 11 ea e8 3c ff 99 17 3e 57 14 1a 3d 41 5d ff 3d
       0.028431924 0.14804839 0.037617054 0.12468959
0000a0 d2 f0 1b 3a e6 1e d2 bd 44 9b c9 bd f1 ed 18 3d
       0.0005948666 -0.102598 -0.09844068 0.037336294
0000b0 05 06 7b 3d b8 b5 5b bc ee 62 5d be 0c e3 9c be
       0.061285038 -0.013410024 -0.2161977 -0.30641973
0000c0 af 5f e2 3e 91 49 ec 3d 2f a3 e3 bd 37 74 a3 3d
       0.44213626 0.11537469 -0.11115109 0.079811506
0000d0 b2 05 d5 bd 6c 73 0f bd 4d 3b b4 3c ea ec 4f bd
       -0.10401477 -0.035022184 0.022000933 -0.05076305
0000e0 fd 40 e6 3d aa b2 49 bd db 19 4f bd 42 7f 8c bb
       0.11242864 -0.049242653 -0.050561767 -0.0042876313
0000f0 af 67 d9 bc ae 0c 2b bd 07 d8 83 3b 01 da f5 3d
       -0.026538698 -0.04176014 0.004023555 0.120044716
000100 79 d7 71 3d 2e 57 da 3c b0 7a 74 bd e6 90 f7 3d
       0.05904338 0.026652899 -0.059687316 0.12088184
000110 9c a6 a1 3d 37 4f 17 be 04 72 76 3c 21 56 24 3d
       0.07893106 -0.14776312 0.015041832 0.0401212
000120 a4 00 27 3b 57 7c 42 3c 86 a7 4a 3c 0e 2f f5 3d
       0.002548256 0.011870465 0.012369042 0.119718656
000130 21 08 65 bd fe dd 07 3e 74 1f 34 3e e3 45 a0 3d
       -0.055915955 0.13268277 0.17590123 0.0782583
000140 17 98 ac 3c 3c eb 97 3c b0 2c 96 3d a2 26 57 bd
       0.021068616 0.018544786 0.07332742 -0.052527077
000150 cb 46 d6 3d e5 b0 b6 3e 8b 68 28 3d 12 23 cb 3e
       0.104627214 0.35681835 0.041115325 0.39675194
000160 a2 52 d7 3d 07 e4 8c bd e9 72 c9 bd 0a 3c be bd
       0.10513808 -0.0687943 -0.098363705 -0.09288795
000170 b4 0c c2 bd f1 ee fc 3c 00 56 cd bd a3 e2 82 3c
       -0.09475079 0.030875655 -0.10026169 0.01597721
000180 d6 b1 4c bd 90 c6 7f be 68 3c 21 3e a8 4a bb 3d
       -0.049974285 -0.2497809 0.157457 0.09145099
000190 d2 94 ec 3d 1f 8c ff 3d 67 19 20 be 0a f8 f1 bd
       0.11551823 0.12477898 -0.1563469 -0.11814888
0001a0 ea b5 98 3c 19 f9 7d bd 2d ed bb 3d 7a 1b 31 bd
       0.01864143 -0.062005136 0.09176097 -0.043239094
0001b0 e2 3f d1 3d a5 bd 62 3b 95 e3 b2 bd 36 89 3b be
       0.10217263 0.00345979 -0.08734814 -0.1831406
0001c0 ee ca b6 3c d8 01 06 3e 75 50 4c 3b 41 e3 93 bd
       0.022313561 0.13086641 0.0031175886 -0.072210796
0001d0 2c 89 fb 3d c3 61 87 3e 30 59 00 3e 3f 47 08 3c
       0.12282023 0.26441774 0.12534022 0.008317768
0001e0 10 bf 00 3e b4 d4 9f 3c 8f 1d fd 3c 0a ca b4 3e
       0.12572885 0.019510604 0.030897884 0.35310394
0001f0 3f 6a f8 bc ca fa de 3d 5b 4a 12 be f9 50 f7 3d
       -0.0303241 0.10887678 -0.14286177 0.12075991
000200 f0 95 35 3e f6 52 f1 3d d8 44 20 bc 86 8d 92 bc
       0.17732978 0.11783402 -0.009782039 -0.01788975
000210 c2 c3 96 3c c8 36 e9 3d bd 7a fd 3d 01 47 87 3e
       0.018403891 0.11387402 0.12376926 0.2642136
000220 a5 58 e5 bd 77 2e 96 3d 82 8a 9b 3d 73 27 29 be
       -0.11198548 0.07333081 0.07594778 -0.16518955
000230 7a 99 c9 3d f7 74 d1 bd b9 73 6b 3d 6c 7d 4a bd
       0.098437265 -0.102273874 0.05748341 -0.049436018
000240 ba d1 c5 3c 4d fa 82 3d 9a 73 37 3d 55 c9 1c be
       0.024147857 0.06395397 0.04478798 -0.15311177
000250 9a 4e a5 bd 69 a5 91 3d 4c d4 16 3d 5f 12 85 3d
       -0.08071633 0.071116276 0.036823556 0.06497645
000260 a0 7e 03 be 1a 1e 8e bd 18 2b e5 3c ed 8b 8d 3d
       -0.12841272 -0.06939335 0.02797465 0.06911454
000270 11 fa 71 3d 12 a9 37 bd fd 15 63 3e 4b b3 09 3e
       0.059076373 -0.044838972 0.22176357 0.13447301
000280 9f 2f 0e 3d 2b f6 0e be d4 03 92 3d 0d 6b b1 bd
       0.034713384 -0.13961093 0.071296364 -0.086629964
000290 8a 80 31 bd 22 f3 53 bd a3 a4 cd bc 61 a3 8a 3e
       -0.043335475 -0.05174554 -0.025102919 0.27077773
0002a0 8f 1c e6 bd 99 76 80 bd c5 cb 2f bd 39 47 1d 3d
       -0.11235916 -0.06272621 -0.04291894 0.038398
0002b0 cb e5 7c bd 31 23 be 3e c2 b1 07 3d 59 ad 71 3b
       -0.061742585 0.37136224 0.033128507 0.0036877005
0002c0 59 97 c4 bd 12 b8 b2 3d 2e ba 05 3e 20 e7 ad bd
       -0.0959918 0.08726515 0.13059303 -0.08491349
0002d0 92 f6 cd bd 7e 5d 76 3d 62 f4 05 3e 2c 5f 68 3d
       -0.10056795 0.060147755 0.13081506 0.056731388
0002e0 a2 4c 9c 3d a2 6e 07 3d 9c 31 37 3b 5c ed a5 be
       0.07631804 0.033064492 0.0027953153 -0.32407653
0002f0 23 fa 9e bd 09 7d 8e bd f8 5c d4 bd 92 9b 3b 3e
       -0.077625535 -0.06957442 -0.10369295 0.18321064
000300 a0 42 1a 3e a6 8d eb 3b 53 fc fa 3d 6d 8e 73 bc
       0.15064478 0.0071885167 0.12255158 -0.0148655
000310 ac cf c1 3c 46 8a 90 bc 0b dc c3 bd b1 a1 7c bc
       0.023658596 -0.017644059 -0.09563454 -0.01541941
000320 bf 01 ae 3d 88 f2 0d be bb dd 9d bd e8 d2 8f 3c
       0.08496427 -0.1386205 -0.07708307 0.017556623
000330 5a 37 17 3d de 6f 38 3e b9 45 81 3c 81 46 8f 3c
       0.03691802 0.18011424 0.015780317 0.017489674
000340 a5 ff 86 3e 58 2e f4 3d 48 21 a0 3d e9 d5 d3 39
       0.26366916 0.11922902 0.07818848 0.00040404432
000350 76 a5 45 3d 74 78 04 be b9 60 98 3d 33 7b bf 3c
       0.0482535 -0.12936574 0.074403234 0.023374176
000360 05 0c 8f 3c c5 ed 0b 3e 3f 69 a5 bb 20 0c cb 3d
       0.017461786 0.1366492 -0.0050479467 0.09914422
000370 7a 79 d7 3d 21 86 7c 3b da db 32 bd 67 16 dd 3d
       0.10521217 0.0038532095 -0.043666698 0.107952885
000380 26 d9 ef 3d fe d0 fa bc 83 c2 ad 3d 24 ad bb bc
       0.1171134 -0.030617233 0.08484366 -0.022909708
000390 49 99 34 3d d6 c1 56 ba 25 8c 4d be 5e 1d 80 3d
       0.044091497 -0.0008192336 -0.20072992 0.06255601
0003a0 78 b6 31 3e 32 11 fd bc c9 72 bf bd 5b c7 b2 bd
       0.17354763 -0.030891988 -0.093480654 -0.0872943
0003b0 72 26 40 bc b3 bf 90 be c5 d2 07 be 93 ea 08 3e
       -0.011727916 -0.28271255 -0.13263996 0.13370733
0003c0 56 9c ed bd af 76 81 3a 2c 7c ff 3c af 18 ee bd
       -0.11602084 0.0009877289 0.03118714 -0.11625802
0003d0 d5 fe 6d 3e 94 4f d3 bd a8 79 6e 3d a0 c9 d0 3c
       0.23241742 -0.10317913 0.05822149 0.025486767
0003e0 a7 85 e7 3c 4d 74 96 bd 4d a0 42 bd ed df 8c bd
       0.028261973 -0.07346401 -0.047516156 -0.06878648
0003f0 1d af ae bc 7c 16 fe 3d 1a 49 2f bd 7e 2c 23 3e
       -0.021323735 0.12406632 -0.042794324 0.15934941

bias f4 [15]
000000 cb 38 1b 3b 02 a8 0f 3d 31 0e 69 3d 92 b1 73 3b
       0.0023684974 0.035072334 0.0568983 0.0037184698
000010 5c 27 93 bc 30 1d 0b 3d e5 d3 bf 3d 27 70 ae 3d
       -0.017963104 0.033963382 0.093665875 0.08517485
000020 00 d5 36 3d 96 4b c1 3b c0 a5 76 bb da 54 50 bc
       0.044636726 0.005898903 -0.0037635416 -0.012715543
000030 88 e8 6b b9 83 71 28 3d b8 c7 7e 3d
       -0.00022497971 0.04112388 0.062202185
