checkpoints/lstm/ANN_o_150.pt (torch, 457176 bytes, 8 tensors)

weight f4 [200, 400]
000000 b7 b3 57 bd 44 63 17 bd 53 e6 49 bd 0d 88 74 bc
       -0.052661624 -0.0369599 -0.04929192 -0.014925015
000010 e6 42 e1 ba a3 67 b7 3c 83 2f 8b bb 60 aa 0b 3d
       -0.0017186075 0.022388285 -0.004247607 0.03409803
000020 38 99 6b bd e8 ca 09 bd 79 87 ef bc 6a b2 7d 3c
       -0.057519168 -0.033640772 -0.029239403 0.015484432
000030 ea 93 8a 3c 7d 82 11 bd f1 85 1a bd 25 84 30 bd
       0.016916234 -0.035524834 -0.037725393 -0.043094773
000040 a1 f7 68 bd 4c 40 d6 3c 07 df ba bb 95 da 83 bc
       -0.056876782 0.026153706 -0.0057028565 -0.016095439
000050 23 b1 55 bc 67 86 22 bd 2c be a5 ba cb 32 9a 3c
       -0.013042721 -0.039678957 -0.0012645177 0.018823048
000060 0d 8f 12 3d 0b a4 26 bc 2d 93 2e bc 81 ad 8f bb
       0.035780955 -0.010170947 -0.010655207 -0.004384697
000070 9e b3 93 bc ee 15 56 bc f4 80 dc 3c 77 24 66 bd
       -0.018029984 -0.013066752 0.026916958 -0.05618712
000080 35 69 30 bd a0 c6 27 bd 59 89 0d bc 57 c2 2a bd
       -0.043069083 -0.040960908 -0.008638703 -0.041689243
000090 e7 00 15 bd 66 a7 1f bd e2 43 79 3c e0 61 98 3c
       -0.036377814 -0.038978003 0.015213938 0.018601358
0000a0 86 3c 44 3c 2e fe 85 3c 3c 2c f0 bc f8 d7 10 3d
       0.011977321 0.016356554 -0.029317968 0.035362214
0000b0 4c 67 bb bc 2d 55 98 bc 4b a2 21 bc 73 7f 69 bd
       -0.022876404 -0.018595302 -0.009865354 -0.05700631
0000c0 14 d3 1d 3d 8d 49 e5 3c b7 87 00 3d b6 ea 26 bd
       0.038531378 0.027989173 0.031379428 -0.04075118
0000d0 22 ba b8 3c 9e 4f ee bc 55 5a 13 bd 13 97 02 3d
       0.022549693 -0.029090699 -0.03597482 0.031882357
0000e0 2a be 2d 3c a0 a2 6e bc 24 fc b1 bc 80 c5 b3 3b
       0.010604421 -0.01456514 -0.021726675 0.0054861903
0000f0 0c 01 32 3c be 07 9d bc bc 20 cc bc a5 9d e7 bb
       0.010864507 -0.01916873 -0.024917953 -0.0070683532
000100 33 c7 43 bd 14 f1 02 3d 2a 82 16 bd 0c 16 c1 3c
       -0.047797393 0.03196819 -0.036745228 0.023570083
000110 67 bb d4 3b dc f8 42 3d be 2a 1d bd 9c 9b b9 ba
       0.0064920667 0.047600612 -0.03837084 -0.0014160755
000120 ab 7b 2f bd 35 0d 10 bc e9 d5 04 3d 46 5b 1c bc
       -0.04284255 -0.008792211 0.032430563 -0.009543246
000130 85 a0 58 bb 84 55 79 3b d3 d8 1f bd 3e f7 58 bc
       -0.0033054661 0.0038045356 -0.03902514 -0.013242541
000140 4c c1 d4 bc 25 7a 9f 3c c6 c1 1c bd 0a cf 0f bd
       -0.025971077 0.019467423 -0.038270734 -0.035109557
000150 07 2d 0e bd 56 44 da bc 11 d4 0a bd 7c d8 13 3d
       -0.03471091 -0.026643913 -0.03389365 0.036095127
000160 e3 ff da 3b 01 4e 1f 3d f6 2c 5c bd 54 96 4b bd
       0.006683336 0.03889275 -0.053753816 -0.04970391
000170 07 ac 16 bd 3a 82 b0 3a 8b 86 c5 bb 7b 49 56 bd
       -0.03678515 0.0013466545 -0.0060280017 -0.05231617
000180 36 33 3d 3b 86 e6 48 bd 29 88 e5 3c cb f8 43 bc
       0.0028869635 -0.04904797 0.028019028 -0.011961172
000190 6d b6 20 bc 3b d6 bc bc 7b 42 e9 bb 99 23 51 3c
       -0.009809119 -0.023051372 -0.007118521 0.012764835
0001a0 75 19 d4 3c 41 af a0 bc c7 cf cd 3c 39 4d da 3b
       0.025891045 -0.019614818 0.02512349 0.0066620377
0001b0 de e6 ae bc 37 ae 0e 3d 75 1c e3 3c fb 5b ea 3c
       -0.02135032 0.034834113 0.02772353 0.028608313
0001c0 15 d1 c5 bb 52 ee 24 3d 1e 8f 06 bd d4 a9 c1 bc
       -0.0060368874 0.040266342 -0.03285133 -0.02364055
0001d0 af 71 91 bb e3 6b 73 3b a5 66 e9 bc c0 7d fe 3c
       -0.004438601 0.0037143163 -0.028491328 0.031065822
0001e0 6e ee ea bb b5 9e 35 bd cd b3 9d bc cb 40 8e bc
       -0.0071695363 -0.044340808 -0.019250775 -0.01736488
0001f0 a9 72 06 3d 68 e9 ff 3c f8 b8 05 3d f5 81 11 3c
       0.032824192 0.031239226 0.032647103 0.008881082
000200 03 7d 67 bd 38 3b ac 3c f6 a5 d7 3c 0c aa 51 bd
       -0.056515705 0.021024331 0.026324254 -0.05118756
000210 2b 85 b3 3c e8 58 0d bd 75 ee 3a 3b 79 dd 29 bc
       0.021914085 -0.034508616 0.002852348 -0.010367745
000220 f8 9b 0e 3d 4c b6 1d 3d af 88 15 3d 50 35 23 3d
       0.034816712 0.03850393 0.036507305 0.039845765
000230 36 cb cb 3c f3 cb 10 bd c3 12 61 3b 6f 30 18 3d
       0.024877172 -0.03535075 0.0034343458 0.037155565
000240 e6 93 1b 3d a1 10 d5 bc 1e 66 3d bc ab ce 6a bd
       0.037982844 -0.026008906 -0.011559991 -0.057326
000250 70 98 4b bd ce 27 9a bb 0d 52 e0 3c 14 4e 6a bd
       -0.049705923 -0.004704452 0.027382875 -0.057203367
000260 0a 20 6d bd 46 28 31 bd 01 97 1e bd 89 2b 5f 3c
       -0.057891883 -0.0432513 -0.038718227 0.013621219
000270 8d 68 b9 bc 7b bf e0 bb a4 ca 17 3d f6 64 db 3b
       -0.022632862 -0.0068587638 0.037058488 0.006695385
000280 3a f2 77 bc c2 32 10 3d a5 4c 5b bc db 20 bf bc
       -0.015133435 0.035204656 -0.013384973 -0.023331096
000290 a3 18 37 bd 49 63 1d bd 18 d1 20 bd 54 46 fc b9
       -0.04470123 -0.038424764 -0.039261907 -0.00048117584
0002a0 9b fa 4a 3c 76 04 49 bd 18 14 22 bd 11 ee 14 3d
       0.012388851 -0.04907652 -0.039569944 0.03635985
0002b0 9b 84 88 bc 01 92 17 3d e5 67 74 bc ef aa ee bb
       -0.016664794 0.037004475 -0.0149173485 -0.0072835605
0002c0 34 69 52 bd 61 8b 6b bd 0e cc 43 3c 7d af 9e 3b
       -0.05136986 -0.05750597 0.011950506 0.004842697
0002d0 00 9f 2c 3c 81 c8 d8 3c 48 89 f4 3c e4 eb ce bc
       0.010535955 0.026462795 0.029850617 -0.025258966
0002e0 a9 d5 1e bd c4 0a 08 3d 9c 05 a6 3b 1d ff 10 bd
       -0.03877798 0.033213392 0.0050665867 -0.035399545
0002f0 16 2b bf bb 3c 60 48 3d 59 e1 5c 3d 01 d7 0e 3d
       -0.0058339937 0.0489199 0.053925846 0.034873012
000300 b0 22 70 bc a6 22 7e bc 2a 32 a7 bc 48 e0 1a 3d
       -0.014656708 -0.0155111905 -0.020409662 0.037811548
000310 96 53 ae bc 4f 2f e4 3c 7c eb 07 bd f0 dd ee 3c
       -0.021280091 0.02785459 -0.03318356 0.029158562
000320 db 0a 47 bd 48 51 bf bc 69 bb 44 3b 23 9c 67 bd
       -0.048594337 -0.023354188 0.0030018932 -0.056545388
000330 39 06 3b 3c 8b cf 57 bc 69 8a a3 bc 5e 45 ee bc
       0.011415058 -0.013172041 -0.01996346 -0.029085811
000340 41 cb c4 3c 9f 21 13 3d 7f 12 ac ba 42 86 36 bc
       0.0240227 0.035920735 -0.0013128071 -0.011140408
000350 ff 42 e7 3c f8 54 b6 bc 2a ea f1 bc 98 44 fc 3c
       0.028230188 -0.022257313 -0.029530603 0.030794427
000360 13 ff 29 3c a9 af 19 3d e3 47 d6 bb ba d5 bd bc
       0.010375756 0.03752104 -0.0065393313 -0.023173202
000370 3a b0 3c 3c a6 f3 08 bc a4 87 5b 3d 03 83 4d bc
       0.011516625 -0.008358872 0.053596154 -0.012543443
000380 06 d3 44 bd 6d 6f 5d 3c 43 e6 65 bd d8 bf 5a 3c
       -0.04805281 0.0135153355 -0.056127798 0.013351403
000390 03 97 e2 3c bc 21 18 3c bd 47 b2 bc 38 c0 20 3c
       0.027659899 0.009285387 -0.021762723 0.0098114535
0003a0 e4 fa 0c bd ae 70 55 bd 87 28 30 3c af 93 2c bd
       -0.034418955 -0.052109413 0.01075185 -0.04213303
0003b0 be f2 0b 3d d0 e1 87 bc a9 b7 4a 3d a2 fb df 3c
       0.034167044 -0.016587168 0.04949156 0.027341668
0003c0 13 d7 05 3c 5c 82 c9 3c 47 8f 3c bd 85 75 ec bc
       0.0081689535 0.024598293 -0.046035077 -0.028864631
0003d0 05 39 11 bc 75 53 f9 3c dd 8e 5b 3d b5 cc 15 3d
       -0.008863692 0.030435303 0.053603042 0.036572177
0003e0 dc 50 e1 3c ec 3a de 3c c4 d0 bc bc 04 3e 45 bd
       0.027504377 0.027127706 -0.023048766 -0.048154846
0003f0 79 0c 13 3c a3 ed 6b bc 81 ff 88 bc 6d f1 d4 39
       0.008975142 -0.014399919 -0.016723396 0.00040615667

bias f4 [200]
000000 30 56 ab bc c8 c0 81 bd c5 a5 4a bd 6d e9 ac 3d
       -0.02091512 -0.06335598 -0.049474496 0.0844296
000010 0b 85 1d bd 70 df da 3d 3a ef 26 bd 76 ec 73 3b
       -0.038456958 0.106871486 -0.040755488 0.00372198
000020 7e 1c 3f 3b b8 05 82 3d 02 a1 bd 3d fa 69 0b 3e
       0.002916127 0.06348747 0.092592254 0.13614646
000030 50 e8 a6 bb dc c1 37 3d ef 4b b5 3d df aa e4 3c
       -0.005093612 0.044862613 0.08852374 0.027913509
000040 a3 54 71 3c 6d 77 02 3e b0 6a 05 be 34 85 95 bc
       0.014729652 0.1274087 -0.1302898 -0.018251993
000050 30 d3 ab 3a 7c 20 c5 3c ce af 3b 3e d4 cc 86 3c
       0.0013109203 0.024063341 0.18328783 0.016455092
000060 02 3d 41 bd 48 dc e6 bc e3 c3 27 bd d2 f1 ff bd
       -0.047177322 -0.02818121 -0.040958297 -0.124972954
000070 ee 80 11 3e f2 9e 0d 3d 50 a0 b9 3d b9 fb 4e bc
       0.14209339 0.03457541 0.0906378 -0.012633258
000080 90 64 ba bc c3 05 2a 3e 09 9b 13 3e 69 1a b1 3c
       -0.02275303 0.1660376 0.1441461 0.021619039
000090 87 7e 02 3d 89 98 10 bd 81 ee 8f 3d 2f 82 9f bc
       0.031858947 -0.03530172 0.07027913 -0.019471256
0000a0 3c b4 a8 bd c5 73 da bc 97 7c d9 3d e2 92 39 3e
       -0.08237502 -0.026666531 0.10619467 0.18122438
0000b0 5a 1f b9 3c 71 23 f7 3c a3 2f ac bc 72 78 c4 3d
       0.022597957 0.030168267 -0.021018809 0.095932856
0000c0 97 1b d3 3d d5 ba 1e 3e 9d 28 05 3e de ff 01 bc
       0.10307997 0.15500958 0.13003774 -0.007934539
0000d0 f0 31 d2 3c cf 80 99 bd c4 9e bb 3d 31 d5 10 bd
       0.025658578 -0.074952714 0.091611415 -0.035359565
0000e0 f1 96 8f bd 8c ba 29 bd e1 5b 22 3d 86 4a 00 3d
       -0.07011212 -0.04143767 0.039638404 0.03132107
0000f0 1e 49 9a bd a9 d8 90 3d be 1d ec bb e5 59 fd bc
       -0.07533477 0.07072575 -0.007205694 -0.030926654
000100 3e dd 66 bd 93 7a b3 bc e5 f8 31 bd 43 61 c8 bc
       -0.056363337 -0.021909034 -0.043450255 -0.02446044
000110 d7 b9 c7 3d ce 15 0e ba 7a 61 d9 3c 32 14 e5 3c
       0.09752243 -0.0005420119 0.026535738 0.027963731
000120 fe 99 96 3d 7c fb d3 3d e5 72 f7 bc 24 8f c4 3d
       0.073535904 0.10350701 -0.030206153 0.095976144
000130 3a fe 1c ba d4 84 4e 3d f5 b5 30 3c 82 12 e9 bc
       -0.00059888104 0.050419644 0.010785569 -0.028451208
000140 a3 99 cf 3c 7b 9e 84 be 98 c0 ea 3d d9 ce 17 bd
       0.025341814 -0.2590216 0.114625156 -0.0370625
000150 5d eb eb 3d 1e 2e 3f bd 78 f4 6e 3d 43 96 09 bd
       0.11519501 -0.04667484 0.058338612 -0.033590566
000160 1e 24 75 bc 42 9b e8 3d cb 6f 8c 3d 6a ab 50 3e
       -0.014962224 0.11357738 0.0685726 0.2037789
000170 ea 7e b4 bc dd ea 90 bd 21 8c 32 bd 45 3a 11 3e
       -0.022033174 -0.070760466 -0.04359067 0.14182384
000180 33 56 32 bd c0 aa b5 bc 7c d4 bc bc 45 cf 6c bc
       -0.043539237 -0.022176147 -0.02305054 -0.014453714
000190 19 5e 1e bd 87 20 0e 3c 55 e8 a9 39 08 7b d0 3d
       -0.038663957 0.008674747 0.00032407293 0.10179716
0001a0 ea 41 12 3e 42 69 d6 3d 71 b8 0f bd 32 a5 4f 3d
       0.14282957 0.10469295 -0.035088006 0.050694652
0001b0 c3 78 21 be 5f 41 45 bd 16 62 02 bd a6 67 48 3d
       -0.15768723 -0.048158046 -0.031831823 0.04892697
0001c0 c3 c8 23 3d 5f e7 f5 3d 48 79 48 3d 4e fb 3b bc
       0.039986383 0.12007021 0.048943788 -0.01147349
0001d0 59 75 1f bc 8f 2c 0b 3d 17 bd 33 3d 75 60 07 bd
       -0.009732568 0.03397804 0.043881502 -0.033050973
0001e0 9e 47 cf bb fe 8a 7a bd 19 b7 26 bd 29 08 68 bd
       -0.006325676 -0.06116771 -0.04070196 -0.056648407
0001f0 a8 57 a7 bb 5b ad 19 3d ea 10 80 3d 45 ac 8a 3d
       -0.005106885 0.03751884 0.06253226 0.06771139
000200 36 fc 82 3d 1b 23 68 3d 2c 5b c8 bc 92 c3 bd 3d
       0.06395762 0.056674104 -0.024457537 0.09265818
000210 0b 60 f4 3d d1 c7 d8 3d fa 6f a2 3d f3 9b b9 bc
       0.11932381 0.10584987 0.07931514 -0.02265737
000220 2e 96 af bc 8b 15 6b 3d 8d 7f e9 3c 0e 29 30 bc
       -0.021433916 0.05739359 0.028503204 -0.010751976
000230 bf 61 16 3e 53 c0 27 bd ad 00 90 3d 2d 08 e5 3c
       0.14685725 -0.0409549 0.07031379 0.027958
000240 8a 5e 81 bd c8 50 91 bc f7 a0 16 3c dc 28 cb bc
       -0.0631686 -0.017738715 0.00919365 -0.024799757
000250 63 43 bc bc aa 36 08 3e b1 75 07 bd c8 05 03 3e
       -0.022981351 0.13302103 -0.033071224 0.12795174
000260 e5 49 2e 3d e2 eb 74 3d 81 07 45 bd 94 93 ac 3d
       0.04255094 0.059795268 -0.04810286 0.08426586
000270 63 05 28 3e 87 2c ff 3c 0a e8 0d bd 18 20 78 bc
       0.16408305 0.031149162 -0.034645118 -0.0151443705
000280 82 53 58 3c 8d 9b ec bc 97 86 c2 3d d9 cd 99 3c
       0.013203504 -0.028882766 0.09498327 0.018774914
000290 9b ab b7 bb 28 01 fe bc 1c 17 51 3d f8 c6 41 bd
       -0.0056051738 -0.03100641 0.05104743 -0.047308892
0002a0 91 3b 22 bd 93 94 31 bc 4c db 0a 3d 11 36 85 3d
       -0.03960759 -0.0108386455 0.033900544 0.06504453
0002b0 49 f2 a1 3d 24 5e 11 bd b5 c0 ec 3c 33 b4 bb 3c
       0.0790754 -0.03549017 0.028900484 0.022913074
0002c0 b3 c2 8e 3d db 45 98 3d 6b 70 23 3e 9e 5b a6 bc
       0.0697073 0.07435199 0.15960853 -0.020307358
0002d0 02 aa 2b bc 08 68 81 bd 1f db b7 bc eb 93 10 3e
       -0.010477545 -0.063186705 -0.022443352 0.14118926
0002e0 a0 30 22 bd c7 01 29 3e f3 4c eb bb be cf 12 3e
       -0.039597154 0.16504584 -0.007180804 0.1433706
0002f0 b3 90 45 3d 82 5f 27 3d 95 24 ba bc e7 8a b2 3b
       0.0482337 0.040862568 -0.022722522 0.0054486874
000300 48 9c c6 bc bf 9d 8f bd 02 42 77 bd 07 33 a9 3a
       -0.024244443 -0.070125096 -0.060365684 0.0012908884
000310 a5 4f 06 3e b2 3d a4 3d 98 76 92 3e 02 83 26 bd
       0.1311632 0.0801958 0.28606105 -0.040652283

weight f4 [100, 200]
000000 5f 35 6f 3d 71 e3 b4 bc 11 30 81 3d c3 85 c0 3c
       0.058400508 -0.022081109 0.06307996 0.023501283
000010 59 06 83 bd 28 1e 85 3d 84 af 06 bd 08 10 8f 3c
       -0.06397695 0.064998925 -0.03288223 0.017463699
000020 11 9b 96 bd bf a7 a7 bc 74 bb 44 bd 7f 13 a2 3c
       -0.07353795 -0.02046573 -0.04803033 0.019784687
000030 71 a4 49 3d 8c 28 4e bd d2 8f 50 3d 60 b1 79 bc
       0.04922909 -0.050331637 0.050918408 -0.015240043
000040 4d 71 3c bd ad a4 28 bd 85 95 2b bb 53 eb 1e 3d
       -0.04600649 -0.041172672 -0.002618165 0.03879864
000050 d3 d0 e1 bc f8 b6 82 bd 89 04 40 3d 80 58 0d bc
       -0.027565395 -0.06382555 0.046879325 -0.008627057
000060 7a e9 cb 3c 7c aa 55 3c a8 ed 2b bd 40 5c b4 3c
       0.024891604 0.013041135 -0.041974694 0.022016644
000070 70 c2 32 bd 61 35 40 3d 21 95 7d bd 1a 23 6a 3c
       -0.04364246 0.046925906 -0.0619098 0.014290595
000080 90 f4 10 bd 4e 5a e9 bb fc da 86 bd d8 42 66 3c
       -0.035389483 -0.007121361 -0.06584737 0.014054023
000090 30 34 3c bd 89 19 b8 bc c2 63 3d bd 7e 02 37 3b
       -0.045948207 -0.022473114 -0.046237715 0.002792507
0000a0 7a c0 85 3c 5a 0a c6 bc dc 82 28 3a 40 8c 25 bd
       0.016327132 -0.024174858 0.0006428191 -0.040416956
0000b0 78 60 18 bd 1e d6 bb bc f6 15 c9 bb a6 fc 95 bd
       -0.037201375 -0.022929247 -0.006136651 -0.073235795
0000c0 32 a0 dc 3c 51 b5 4d bd 7d 74 90 3c 12 f1 e7 3c
       0.026931856 -0.050221745 0.017633671 0.028313193
0000d0 00 db 35 bd 64 c3 71 3d e2 ce 2f 3d eb cf bc bc
       -0.044398308 0.05902423 0.04292191 -0.023048362
0000e0 9c a6 91 bd 74 34 85 bd db f1 fa bc 05 2b 84 bd
       -0.07111856 -0.06504145 -0.030632904 -0.06453518
0000f0 97 7f 9a 3c b6 93 94 3c c0 6e 98 bd c4 5b ef bc
       0.018859668 0.01813684 -0.07442999 -0.029218562
000100 3b 2a 02 3d 17 71 c0 bc fb 1a 6c bd 4a 31 4b 3d
       0.031778555 -0.023491425 -0.057642918 0.049607553
000110 27 90 34 bd 85 9a d2 3c 3c 7c 82 3d d2 b8 4d 3d
       -0.044082787 0.025708446 0.06371352 0.050225087
000120 c2 33 8e bc 6b 9d f7 3c 2f 40 bb b6 d6 ba 68 bd
       -0.017358664 0.03022643 -5.5805062e-06 -0.056818806
000130 d1 6a 95 3c b9 57 62 3d 2d 9b ee 3c 7f c8 dc 3c
       0.01823941 0.05525944 0.029126728 0.026951073
000140 d4 06 6f 3b 84 18 8a 3c a2 1e 73 bd de 72 53 3d
       0.0036472576 0.016857393 -0.059355386 0.051623218
000150 b8 06 09 3d ba 21 dc 3c db e4 49 3b 7d ba 57 3d
       0.033453673 0.02687155 0.0030806575 0.052668083
000160 0e 82 77 bd 68 fb 6e bd 8c 7f 49 3c be e3 7d bd
       -0.060426764 -0.05834523 0.012298476 -0.06198477
000170 91 30 a9 bc 53 42 0b bd a1 6f 86 bd b6 c2 8d 3c
       -0.020653041 -0.0339988 -0.0656426 0.01730476
000180 2b d2 17 3c 12 39 68 3d 70 48 1e bd 84 8f 7a 3c
       0.009266417 0.05669505 -0.0386433 0.015293006
000190 97 db 65 3d 2b d4 1d 3d ff b5 3f 3c d7 72 69 bd
       0.05611762 0.038532417 0.011701106 -0.056994285
0001a0 96 73 ba ba 55 f2 31 3b 66 09 2b bd ef e3 1d bd
       -0.0014225121 0.0027152498 -0.04175701 -0.038547453
0001b0 79 19 e6 bc a5 39 0a 3d 3b 36 6b bd ab 5c 75 3d
       -0.028088318 0.03374638 -0.057424765 0.05990283
0001c0 72 c9 b6 bd cc 34 a9 bc fd a9 95 bd 7c a5 a5 3b
       -0.089251414 -0.020655058 -0.07307813 0.0050551277
0001d0 95 f1 eb 3c cc 2d 40 bd 4b f1 0f 3d ae aa 02 3c
       0.028801719 -0.046918675 0.035142224 0.0079752635
0001e0 c5 3b 1c 3d 45 94 38 bd 47 bc 20 bd b1 41 45 bd
       0.03814294 -0.045063276 -0.039242055 -0.04815835
0001f0 ce 3d d1 3c 53 b8 93 bd fc ac 34 bc 66 fd 22 bd
       0.025542166 -0.072128914 -0.011027571 -0.03979244
000200 63 ce 7e bd ff a0 e9 bc 0a 43 90 bc 3c 77 bb 3c
       -0.062208544 -0.028519152 -0.017610092 0.022884004
000210 00 8d 85 3c 12 71 28 bc 0a e8 a2 bd 6a b1 23 3d
       0.016302586 -0.010280864 -0.07954414 0.039964117
000220 71 d5 9b bd e0 1c 25 3d 6a d9 63 3d 41 a3 88 bd
       -0.0760907 0.04031074 0.055627264 -0.06671763
000230 c1 1e 5a bd be da 19 3d 2f a0 a8 3c 19 cc 36 3d
       -0.053251985 0.037562124 0.020584194 0.044628236
000240 d6 3f 4e 3d 4a 44 54 bd 1f a9 62 bc f8 5b 43 3d
       0.050353847 -0.051822938 -0.013834267 0.04769513
000250 8b b4 5e 3d be 32 17 3d 97 a8 cf 3c 5b 76 a9 bd
       0.054371398 0.036913626 0.025348945 -0.08274528
000260 2d bb 14 bd b9 89 80 bd 9f e4 3c ba 43 e6 00 bd
       -0.036311317 -0.062762685 -0.0007205698 -0.031469595
000270 e6 46 3d 3d b8 b8 82 3d 36 25 4c 3d 73 bc 16 3d
       0.046210192 0.063828886 0.049840175 0.036800813
000280 92 7f 65 bc e8 51 91 bd 34 60 41 3d 66 2d 54 bd
       -0.014007466 -0.070957005 0.047210887 -0.051801108
000290 89 19 0e 3c 49 13 36 bc 96 05 44 3d ff e8 60 ba
       0.00867308 -0.011112996 0.04785689 -0.0008579641
0002a0 be 03 24 3b a4 d1 a4 bd be a4 b1 bc 55 8a 04 bd
       0.0025026645 -0.08047798 -0.021685 -0.032358486
0002b0 56 54 55 3a 9a 86 d7 bc 87 0f 2a 3c 22 e1 32 bd
       0.0008137872 -0.0263093 0.010379679 -0.043671735
0002c0 a6 b7 ae 3c 98 9e 00 bd 31 47 e6 ba 0e ee 70 3d
       0.021327805 -0.031401247 -0.0017568824 0.058820777
0002d0 8a fc 25 bd 3d 25 35 bd 2e 63 0b 3a 93 69 4c bd
       -0.040524043 -0.044224966 0.0005317208 -0.04990537
0002e0 c9 ef 38 bd 96 0d bf bc 73 41 2c 3d 8d cd 5f 3d
       -0.045150552 -0.023321908 0.042054605 0.054639388
0002f0 72 b4 5b bd af 49 d3 3c a7 4d 16 bd bd 61 0d bd
       -0.053638883 0.025791971 -0.03669515 -0.03451704
000300 ca f0 98 bd e1 4b 97 bd 15 8d b4 bc ea 9b 4f 3d
       -0.07467802 -0.0738752 -0.02203993 0.0506858
000310 b8 0a 81 bd 23 fe 29 bd 77 9e 46 bd c8 10 b6 3c
       -0.063008726 -0.04150213 -0.048490968 0.022224799
000320 56 9b 01 3d ca 22 ee 3d da 72 b6 bc 6d 4c 0d 3d
       0.03164228 0.11627729 -0.022271562 0.034496713
000330 bb 56 3f 3d e0 71 81 bd 47 c4 77 be 06 ee 56 3d
       0.046713572 -0.06320548 -0.24195968 0.05247309
000340 34 0d 81 bd 24 34 7e 3d 65 05 fd 3c 70 57 34 3b
       -0.063013464 0.062061444 0.030886361 0.0027517937
000350 93 0f 3e bc b3 6a 4a bd 7d 56 bb 3d f7 8d 65 3d
       -0.011600393 -0.049418163 0.09147356 0.05604359
000360 0f 31 51 bd ed a2 95 3d 48 6b d7 3d ce b5 3d bd
       -0.051072177 0.07306466 0.10518509 -0.04631596
000370 c2 25 8c bc f9 35 08 3d dd 75 67 bd 52 1e a4 3d
       -0.017107848 0.033254597 -0.056508888 0.08013596
000380 a9 26 de 3c 0a f9 9d 3a ec a0 1f bd c5 ee fc 3d
       0.027118044 0.0012052369 -0.038971826 0.12350229
000390 09 18 28 bc a9 9f 08 bd eb 8f f6 3d 35 ff ab 3d
       -0.010259637 -0.03335539 0.12039169 0.08398286
0003a0 04 a9 d9 3c 7f d4 4f bd 90 20 ac bd 42 9e 5f be
       0.02656985 -0.05073976 -0.08404648 -0.21837714
0003b0 e7 f0 ea bb 43 21 fd bc 0c d5 98 3c 76 4e 2a 3d
       -0.007169831 -0.03089965 0.018656276 0.041578732
0003c0 5c d9 87 3d 94 5d f6 bc d4 63 17 3d e3 f3 8f 3c
       0.06633255 -0.030073918 0.036960438 0.017572349
0003d0 77 79 64 bd 9f 70 67 3c 0f d0 73 3c de 95 63 bd
       -0.0557799 0.014125972 0.014881148 -0.055562846
0003e0 9a ea 33 be bd c9 fd 3d 9c c7 e4 bc 7e 13 71 bd
       -0.17569962 0.12391994 -0.027927212 -0.05885648
0003f0 bd 75 8a 3b e4 a3 6f 3e b1 1f a6 bd 0d 7e 46 bd
       0.0042254613 0.23402363 -0.081115134 -0.048460055

bias f4 [100]
000000 96 1d 2f bd 89 20 56 bc b2 54 60 3c c7 df 03 bd
       -0.042752825 -0.01306928 0.013692068 -0.032195833
000010 16 f1 f6 3d 9c f1 0b 3d 26 72 4b bd 18 f3 83 bd
       0.12057702 0.034165964 -0.049669407 -0.06442851
000020 b1 64 db bc 11 96 81 3d a7 07 1c 3d 71 c2 41 bd
       -0.026781412 0.06327451 0.038093235 -0.047304574
000030 12 2f 98 bc 0f a7 39 3d 20 b6 b7 3c 9d 65 47 bd
       -0.018577132 0.045325335 0.022425711 -0.04868089
000040 f1 e6 78 3d 03 75 b0 bc ed 34 12 3e 71 e7 b9 bd
       0.060767118 -0.02154017 0.14278002 -0.09077347
000050 e6 76 01 3e ee 2b 73 3c 4a ed a3 3d 8d 86 b4 3d
       0.12643012 0.014842017 0.08004244 0.08814726
000060 07 9f 25 bd 4e c6 8d bd ae bb 91 bc 91 7a 56 3d
       -0.040434863 -0.06922589 -0.017789688 0.052362982
000070 bb 2d 0e bc 5d 32 96 3d 82 60 ad 3d 65 4d a2 bd
       -0.008677895 0.07333825 0.08465673 -0.07924918
000080 82 4c 2c 3d 44 89 8f 3d 8a e0 89 3d b1 a6 6d bd
       0.04206515 0.07008603 0.067322806 -0.058020297
000090 6e ed 6e 3d 89 6b bf 3d f0 33 c0 3c 1b 21 2a 3c
       0.0583319 0.093466826 0.023462266 0.0103838695
0000a0 07 24 8b 3d 3e 9e 65 3d ec f8 45 bb b9 87 ae bd
       0.06793981 0.056059115 -0.0030208183 -0.08521981
0000b0 c9 0f 92 bc 70 f7 6d 3d 07 c0 9d bc 99 ca f0 3d
       -0.017829793 0.058097303 -0.019256605 0.117573924
0000c0 bd 38 72 bc 1e e9 98 3d ad 0c 9e bc ff 12 91 3d
       -0.014784035 0.074663386 -0.019293154 0.07083701
0000d0 4c a1 8b 3d 63 d4 73 3c 57 ec a0 3d e8 70 0c bd
       0.06817874 0.01488218 0.07857578 -0.034287363
0000e0 99 b9 4a 3d 42 85 a4 bc c8 40 61 3d 04 23 02 3e
       0.049493406 -0.020083074 0.05499342 0.1270867
0000f0 83 4e 5e 3c ce 33 f9 3c cb 51 0a bc c5 9e 18 3e
       0.013568523 0.03042021 -0.0084423525 0.14904316
000100 70 6d 6c 3d a6 f3 9b 3d 12 92 59 3d 17 4c e5 3d
       0.057721555 0.076148316 0.05311782 0.111961536
000110 4e f3 99 3d 9e 89 07 3d 28 a3 87 bd b3 11 9e bd
       0.0751711 0.033090226 -0.066229165 -0.077182196
000120 57 31 8a 3c 5b 5d af bd e8 0a 87 3c 1c 59 9a 3d
       0.01686923 -0.08562728 0.016484693 0.075365275
000130 cf 36 b3 3c 70 3f 07 bb a4 09 07 3e ba fb 37 bd
       0.02187672 -0.0020637177 0.13187271 -0.0449178
000140 0f c0 bb bc b1 c4 23 3d 73 9d 72 3d 70 73 93 3d
       -0.02291873 0.0399825 0.059232187 0.07199752
000150 df 6b 39 bc 09 6c 87 3b ad 17 d9 3d f1 11 3d bd
       -0.011317222 0.004132752 0.10600219 -0.04615969
000160 f4 d0 1a bd 56 52 25 3d 58 f4 ce bc 30 8d da 3d
       -0.03779693 0.040361725 -0.025262997 0.10671461
000170 c6 1a 2d 3c 1c bc b3 bc f5 00 a9 bd d0 8d 10 bd
       0.010565465 -0.021940283 -0.08252136 -0.035291493
000180 26 93 6a 3d 7f 25 9e bd 66 99 0a 3d 2c c0 c8 3c
       0.057269238 -0.077219956 0.0338377 0.024505697

weight f4 [50, 100]
000000 fc bf ab bd 7e 3a d0 bd a8 c1 93 bd c2 ac 8c 3c
       -0.083862275 -0.101674065 -0.072146714 0.017172221
000010 36 b6 cb bd d8 b5 31 3d e5 e9 48 bd 4e a5 75 3a
       -0.09946863 0.04338631 -0.049051184 0.00093706406
000020 28 65 56 bd c4 df 2e be eb d9 45 3d a5 cc 44 3d
       -0.052342564 -0.17077547 0.048303526 0.048046727
000030 74 8e 18 be 7c 81 05 3d 50 9f 5f 3e 80 1b 06 3e
       -0.14898092 0.03259419 0.21838117 0.13096428
000040 b9 3c 30 3d 21 20 58 3e 8b b1 73 3d 64 3f 7c bd
       0.04302666 0.21106006 0.05949549 -0.06158389
000050 cd 05 f4 bc 37 25 8b 3d 5b b1 53 bc 03 eb 57 3e
       -0.029787922 0.067942075 -0.012920703 0.21085744
000060 15 8b 75 3d d7 25 82 bc 13 b8 7b bd 8f 67 6e bb
       0.059947092 -0.015887184 -0.061454844 -0.0036377644
000070 b9 76 0d 3e 35 26 c2 3d 0f b2 62 bd 8f 40 7a 3c
       0.1381482 0.09479944 -0.05534559 0.015274181
000080 54 27 60 3c 27 9f 8e 3b c2 0e 05 bd ee de 67 be
       0.013681252 0.0043524685 -0.032484777 -0.22643635
000090 2a 4a a1 bc 15 b9 15 3d f1 a4 38 3d c9 f6 00 3d
       -0.019688684 0.03655346 0.045079175 0.031485353
0000a0 b0 05 5b 3d fe 91 be 3d c2 e2 19 3e e6 54 8b 3d
       0.05347222 0.093051895 0.15027907 0.068033025
0000b0 6e 37 03 be 7b 7c 4f 3e 4e 67 64 3d 7b 84 22 3e
       -0.12814113 0.2026233 0.05576258 0.1587085
0000c0 b2 69 cc 3e b5 81 6b 3e 10 a9 17 bd 5b 24 ef bd
       0.3992439 0.22998698 -0.037026465 -0.11676856
0000d0 e5 e0 80 bc c4 2b 56 bc 8a db d8 3d 1f 2c 38 bd
       -0.015732238 -0.013071958 0.10588749 -0.044963952
0000e0 fc a7 0b be 34 28 60 3d af cf 9a 3c d0 6f d4 3e
       -0.136383 0.05472584 0.01889786 0.41491556
0000f0 ec 79 13 bb 3a f7 29 bc 3a 6a 05 bc 54 f5 98 3c
       -0.002250309 -0.010373885 -0.008143002 0.018671669
000100 6b 36 93 bb c5 f7 c6 3d df 63 49 bd df eb 08 3e
       -0.004492571 0.09715227 -0.04916751 0.13371228
000110 03 36 ab bd db 54 a2 3d 38 25 a1 bd fb 95 b9 bd
       -0.08359911 0.07926341 -0.07868427 -0.0906181
000120 c8 ef 32 be ae 93 88 3d d3 5e d5 3c 12 67 ca bd
       -0.17474282 0.06668793 0.026046192 -0.0988294
000130 05 b1 52 3c 58 e3 81 3d b2 73 19 be 6f 8a 6b 3d
       0.012859588 0.063421905 -0.1498554 0.057505067
000140 c5 20 2f bb 52 cb f4 3c c4 fc 99 3c ba 36 08 3e
       -0.0026722413 0.029882107 0.018797286 0.13302127
000150 1d ca ca 3d ad 85 8f bd 45 db b2 bd ec 1c 3a 3c
       0.09901831 -0.070079185 -0.087332286 0.011359435
000160 6f eb 74 ba 20 4d 76 3e e9 0f 1c 3b 23 12 f9 3d
       -0.00093429437 0.24052858 0.0023813194 0.121616624
000170 4f bf b0 3e 69 6f a2 bd 62 f7 67 be db 58 8d bd
       0.34520957 -0.07931406 -0.22652963 -0.069017135
000180 ee 2a 61 bd 11 e3 ca bc 80 37 59 3d 08 2a 3a bd
       -0.05497258 -0.024766477 0.053031445 -0.04545024
000190 cd 15 71 3d 78 43 16 3e c0 b0 0c 3e 22 ed cb 3b
       0.05885868 0.14674175 0.137393 0.006223337
0001a0 2a 49 ed bb 0c 4b ad 3c 96 e6 1c 3e a5 1e 46 3b
       -0.007241388 0.02115395 0.15322337 0.0030230668
0001b0 f8 0d 88 bd ad 4f d2 3c c6 93 a9 3d 31 dd ed bd
       -0.06643289 0.025672758 0.08280139 -0.116144545
0001c0 28 f2 d6 3c e6 74 90 3d 5d 79 08 be d6 40 02 be
       0.026238516 0.070535466 -0.13327546 -0.12720045
0001d0 6c 8d e0 bc d7 bb 44 bd 39 8b 06 3e fc 38 f4 3c
       -0.027411185 -0.0480307 0.13139047 0.029812329
0001e0 63 0e 6f 3d 75 68 b2 bd 62 54 23 3c c3 8d f4 bd
       0.05836333 -0.0871133 0.009968849 -0.119411014
0001f0 d5 3f a2 bd a1 88 00 bd 5c 5b a5 3c c4 66 fb 3d
       -0.07922331 -0.0313803 0.020185165 0.1227546
000200 0e 69 3c 3e 69 7a 89 3d 9f ed 06 be 65 a7 b8 3d
       0.1839945 0.06712801 -0.13176583 0.09016303
000210 c6 06 ef 3d 82 4f f7 bd c3 63 7e bc 53 8a 98 3d
       0.11671214 -0.12075712 -0.015526715 0.07448258
000220 23 de 46 bd 55 f2 ab 3d bd 5b 40 3e fe bb 9f bd
       -0.04855169 0.083958305 0.18784995 -0.077995285
000230 3f 52 a3 3d f3 2e d0 3d 7c 75 70 3c 4a bc ba bc
       0.079746716 0.10165205 0.014676448 -0.022794861
000240 d0 72 aa be 3f a0 96 bc 54 d6 0a be 55 fa d4 bc
       -0.3329072 -0.018386958 -0.13558322 -0.025998274
000250 98 c3 47 be 74 20 e3 bd 88 01 9d 3d ab fc 8c 3d
       -0.19508207 -0.11090174 0.07666308 0.0688413
000260 73 54 33 3e 1a b0 a1 be df 7a 31 3e f9 97 d2 bc
       0.17512684 -0.31579667 0.17332028 -0.025707232
000270 bd 99 c6 3b 86 6d ed 3d ec 61 dd 3d 37 26 4c 3d
       0.0060608075 0.115931556 0.10809693 0.049841132
000280 f4 26 50 3c fa e5 20 3e 85 b9 fb 3c 6d 64 0d bd
       0.0127046 0.15712729 0.030728111 -0.0345196
000290 07 04 13 3e ca b3 f2 bd 29 a0 65 3c 7c 74 5c be
       0.14357005 -0.11850698 0.014015236 -0.2152881
0002a0 89 fd 09 3e 4e c0 e4 bd 31 9b d4 3d 5a 48 1c be
       0.13475622 -0.11169492 0.10381163 -0.15261975
0002b0 45 b1 34 be 57 0f 0b 3d 27 4e 20 bd 51 05 15 bd
       -0.17645748 0.033950176 -0.039137032 -0.036382023
0002c0 07 02 09 3e 3e 70 ad 3e f7 aa 54 bb 9a b9 ef 3c
       0.1337968 0.33874696 -0.0032450536 0.029263306
0002d0 a7 19 be bd b8 fe 02 3e 5a 9b 33 bc 51 6e 67 3d
       -0.092822365 0.1279248 -0.010962332 0.05650169
0002e0 43 92 a1 3c ce 29 dd bc 42 e2 fb 3c 5b 7b a6 bd
       0.019723063 -0.026997473 0.030747537 -0.08128997
0002f0 ab c7 48 be 0e 13 b7 3c d7 79 fb 3c 17 f2 8a 3d
       -0.19607417 0.022347953 0.030697746 0.06784456
000300 e2 df a9 bc 53 cf e1 bd 8c 75 4c 3d 45 83 92 bd
       -0.020736638 -0.11025872 0.04991679 -0.07153944
000310 84 6d b4 3d 7a f7 c4 b9 76 5d 20 bc 30 1d ed 3d
       0.08809951 -0.00037568418 -0.009787908 0.11577833
000320 30 dd 8b 3d f4 4e 69 bc 1c e6 99 be 50 88 a6 3d
       0.068292975 -0.014240015 -0.30058372 0.08131468
000330 43 1e fd 3d bf 2f b2 bc a4 5a 16 3d 83 c3 70 bd
       0.123592876 -0.021751283 0.036707535 -0.058780205
000340 d4 18 00 3d fc 2f 48 3e 17 14 37 be 0f 88 00 bd
       0.031273678 0.19549555 -0.17878757 -0.031379756
000350 d5 bf f0 3d 65 8e f2 bc 23 49 16 be 10 d0 d4 bc
       0.11755339 -0.029608915 -0.14676337 -0.025978118
000360 7d 53 ae 3c 14 88 c5 3d c7 bf 07 3d 7e c7 3b 3d
       0.021280045 0.096450955 0.033141878 0.045844547
000370 c7 54 0b 3b ee 0a b5 ba 63 13 0b 3c c4 16 66 3d
       0.0021260248 -0.0013812461 0.008488509 0.056174055
000380 c3 9f d7 bc 70 13 7a bd 7d 59 4d bd 30 6d ae bc
       -0.026321298 -0.061053693 -0.05013417 -0.021292299
000390 ad 92 65 bd 64 52 d1 3d fd c3 1e 3e e6 70 4b 3d
       -0.056048084 0.10220793 0.15504451 0.049668215
0003a0 7a 6f 6e bd ec a9 f4 3d 55 11 7f 3d c4 a1 03 3e
       -0.05821178 0.119464725 0.06227239 0.12854677
0003b0 82 5f 8a 3d c4 57 82 bd 2b 8b 3d 3c eb bb 3d 3e
       0.06756498 -0.06364396 0.011568825 0.18528716
0003c0 5d ef 97 bd fb 48 a2 3c ad 82 a8 bd 3b 38 7a bd
       -0.07418702 0.01981019 -0.082280494 -0.06108878
0003d0 34 36 fe 3d c2 cf fc bd 44 57 99 bd 7e 6b c2 3c
       0.12412682 -0.12344314 -0.07487348 0.023732897
0003e0 f8 23 64 be 12 45 1d be 5e 99 37 3d 76 78 10 3e
       -0.22279346 -0.1535838 0.044823997 0.14108452
0003f0 aa 8a 9b 3e ec 1d 22 3c 4b 4a 84 bc 71 5f c9 bd
       0.3037923 0.009894829 -0.016148707 -0.09832657

bias f4 [50]
000000 fe 66 d2 3c d7 b2 20 3c e5 86 07 3e aa 36 03 3e
       0.025683876 0.009808264 0.13235052 0.12813821
000010 c0 3d 2e 3b 88 f8 42 3d 7f 3a 44 3c 8d 5b a3 3d
       0.00265871 0.0476003 0.011976837 0.07976446
000020 2a bf 91 3d 27 3d 4c 3c 75 70 a7 3b 0a 3e b5 3d
       0.0711654 0.012465752 0.0051098415 0.08849724
000030 5f 21 0b 3b 40 31 e5 3d d0 c3 99 3c 78 4f 55 3d
       0.0021229608 0.11191034 0.018770128 0.05207774
000040 f8 f8 c8 3c 6f 7a 66 3c 0b f8 b2 bc da 3c 43 3d
       0.02453278 0.014067276 -0.021846792 0.047665454
000050 29 31 82 3d ed f6 74 3d 2f 21 fa 3d 0b 60 95 bc
       0.06357033 0.0598058 0.122133605 -0.018234273
000060 59 e8 ba 3d cf 57 9c 3d 07 65 32 bc 6a ef 2a 3e
       0.09126348 0.07633936 -0.010888345 0.16692892
000070 0a 02 33 3e 2d 42 85 bd c4 27 3e bd 19 a3 11 3d
       0.17481247 -0.06506763 -0.046424642 0.035555933
000080 02 87 ba bc a6 78 81 3d e3 32 1d 3d 8b 46 1b bd
       -0.022769455 0.0632184 0.038378607 -0.037909072
000090 82 ee 2b bd 95 3e aa 3c 3d 7e 97 3d 58 16 52 bc
       -0.041975506 0.020781795 0.07397125 -0.01282271
0000a0 84 fb 18 3d 7c e7 a4 3c 01 26 e1 3d 72 ae 22 3d
       0.03734924 0.020129912 0.10993577 0.039717145
0000b0 2d 8a 25 3d db 0e 78 bd 7f 6c 1b bd 5e 94 46 bd
       0.040414978 -0.060561042 -0.037945267 -0.048481338
0000c0 af 8f a0 3d 82 44 98 ba
       0.078399055 -0.0011617097

weight f4 [150, 50]
000000 0c ba 41 3e 0e 7c 88 3e 1c 58 d8 3c 45 9b 29 be
       0.18918628 0.26657146 0.026409201 -0.16563137
000010 bb 27 53 3d f9 ad bb bd 19 04 ff bd ee 7b d3 bd
       0.05155156 -0.09164042 -0.124519534 -0.10326372
000020 29 e0 8d 3d af 5b f4 bc 93 ed 62 3e 68 1b 9a be
       0.06927521 -0.029828874 0.2216094 -0.30099034
000030 39 32 db bb 12 e8 34 3e 0b 25 35 3e a4 bb 66 be
       -0.0066893366 0.17666653 0.17689912 -0.22532517
000040 7a df 33 3d d4 51 98 bc 09 17 d2 3c 6e f0 84 bd
       0.043914296 -0.018593706 0.02564575 -0.06491171
000050 fc 5d 9c 3d 25 65 d9 3c 1f fe ec 3c 71 96 22 be
       0.076351136 0.026537487 0.028929768 -0.15877701
000060 9e 27 3c 3e fa e0 8e bb ce 08 a1 bd a3 29 65 bd
       0.18374488 -0.0043603154 -0.078630075 -0.05594791
000070 04 82 19 be f7 b5 47 3d 4a bf ae 3c e2 09 e9 3d
       -0.14991003 0.04875752 0.021331448 0.11378838
000080 ff cd 6f bd 94 1a 22 bd 4b 94 c8 bc d0 3e e7 3d
       -0.058546063 -0.039576128 -0.024484774 0.112912774
000090 ea 3f 41 3e 58 80 76 bd 1e 3a 4d be 7f 3d 5d 3e
       0.18872038 -0.060180992 -0.20041701 0.2160549
0000a0 37 cc 96 3d 34 e2 95 3d fb ca 80 bd c2 b6 02 bd
       0.0736317 0.073185354 -0.062887155 -0.031912573
0000b0 a7 d2 1b bd 2b 46 55 bd c9 9d d5 3d d9 e4 de 3c
       -0.03804269 -0.05206887 0.10430486 0.027208732
0000c0 37 60 51 3e 96 6f 0a 3e 3c 60 3c 3e 04 7f 7d 3e
       0.2044686 0.13519129 0.18396086 0.24755484
0000d0 f8 80 a3 3c 70 57 19 be 59 0c 82 3c 9b b4 c2 3d
       0.019958958 -0.14974761 0.015875028 0.09507104
0000e0 81 a2 af bd 42 e6 ba bd b8 d9 c2 3d 23 a3 1c 3d
       -0.08575917 -0.091259494 0.09514183 0.038241517
0000f0 09 f5 66 3e 5d 99 5d be ac 58 f3 bc 9c c2 d8 3d
       0.22554411 -0.21640535 -0.029705368 0.10583994
000100 79 19 62 3c 20 1b 3d be 40 a7 09 3d d1 7e a8 bc
       0.0138000185 -0.18467379 0.033606768 -0.020568283
000110 16 2e c5 3d d8 2e cd 3d 3e f7 ea bc cb 64 ef 3c
       0.09627931 0.100187 -0.028682347 0.029222867
000120 13 00 cb 3c 47 16 fc bd a7 e2 6f 3e 81 dd c5 3d
       0.024780309 -0.123089366 0.23426305 0.09661389
000130 53 6c af bd 6c 40 93 3c f7 34 06 bc dc 59 cf 3d
       -0.08565583 0.017975055 -0.008191339 0.10124561
000140 01 7b 1c bd 9b a9 8d bb 0c d2 fa 3d 8a e1 10 3e
       -0.038203243 -0.004323197 0.122470945 0.14148536
000150 b9 25 9d bc 8f 2f 19 3d 1f 83 3d 3e 48 a4 e2 bd
       -0.019183027 0.03739887 0.1850705 -0.110664904
000160 8d d1 22 be 16 c9 60 3e 30 b6 e9 3d 17 84 bd 3d
       -0.1590025 0.21951708 0.11411703 0.0925371
000170 7e d3 11 3b e9 17 68 bb 57 93 90 bd b3 c7 17 3d
       0.0022251303 -0.0035414642 -0.07059353 0.037055682
000180 91 a9 ef bd e4 78 9a ba a2 e1 8e 3e 3f ec 07 be
       -0.11702264 -0.0011785296 0.2790652 -0.13273714
000190 37 0e 27 3e b7 41 57 3e 87 ea 53 bd be bd 36 be
       0.16314016 0.21021162 -0.051737335 -0.17845818
0001a0 a8 be 58 bc 33 7d 2d bd 14 61 9b bd ae e7 7b 3d
       -0.01322905 -0.042355727 -0.075868756 0.061500244
0001b0 e4 25 c8 3a 33 1c 81 3e 22 41 dc 3d 2c 2d 86 be
       0.0015270081 0.25216827 0.107546106 -0.26206338
0001c0 ab 13 97 bc 72 9d 17 3d a7 4f 44 bc 0f 01 1b be
       -0.018441996 0.037015386 -0.011981881 -0.15137123
0001d0 88 fe 37 3c 61 8e d9 3c 43 90 b2 bd 88 20 de 3d
       0.011230119 0.02655715 -0.08718922 0.108460486
0001e0 3f 13 77 bd da 53 f6 3c 45 f7 0c bc 11 88 03 bd
       -0.06032109 0.03006928 -0.0086038755 -0.032112185
0001f0 d6 d7 52 3e bd eb ac bb 3d 92 a4 bc 7a 83 87 3d
       0.20590147 -0.0052771256 -0.020089263 0.06616874
000200 51 ca 83 3d c2 8b cb 3d b0 92 d1 bd 8d 9d d1 bd
       0.06435073 0.09938766 -0.102330565 -0.102351286
000210 ac 37 2a bd b8 60 88 bd df 39 14 bd c1 4e 41 bc
       -0.041557 -0.06659073 -0.036188003 -0.011798562
000220 a4 d3 e4 3d f1 4c 82 bd c8 ff 0c be 1d 72 75 3e
       0.1117318 -0.06362332 -0.13769448 0.23969312
000230 d3 1f 88 3d 78 ed cc 3d 73 77 4e 3c f9 1b b7 3c
       0.06646695 0.10006231 0.012601721 0.022352206
000240 82 f5 d5 bd dd 70 a7 3d c8 60 b2 bd 56 36 00 bd
       -0.104472175 0.08175824 -0.08709866 -0.03130182
000250 6f a0 41 3e 33 6b d8 bd 70 39 3e 3e ae cf 0a 3e
       0.18908857 -0.10567322 0.18576598 0.13555786
000260 03 2c 88 bc fb 7c dc bd b2 2e e5 bc a5 2b c5 bc
       -0.016622549 -0.10766026 -0.027976368 -0.024068663
000270 47 17 9d bd 20 a2 97 3d 40 48 f9 bc a5 eb a0 3e
       -0.076704554 0.0740397 -0.03042996 0.31429783
000280 1d 0a eb bb 93 05 4d be 76 bc 1a 3d ba b6 01 bd
       -0.0071728365 -0.20021658 0.037777387 -0.031668402
000290 ca 88 9b bd 24 a4 bb bd ac a7 9a bd 8a cf 58 3d
       -0.0759445 -0.09162167 -0.07551512 0.0529323
0002a0 13 1c b1 bd 58 5d fb bd 89 e7 4a bd cf 29 df bb
       -0.08647933 -0.12273663 -0.049537215 -0.006810404
0002b0 50 e6 b4 bd 84 03 34 3d fc aa 33 3e fd 30 0a bd
       -0.08832991 0.043948665 0.17545694 -0.033738125
0002c0 6e 02 82 bd f5 85 34 3e bb 0e 43 3e 73 09 99 3d
       -0.0634812 0.17629226 0.19048588 0.074725054
0002d0 29 a5 13 be a0 a2 43 be 5f 2e 9d bd 76 25 cd bc
       -0.14418472 -0.19105005 -0.0767486 -0.025042277
0002e0 ef f4 06 bc ad 3a 7c 3c 2b 38 56 3c 78 63 10 be
       -0.008237108 0.015394849 0.013074915 -0.14100444
0002f0 6a 52 87 bd 9b 25 38 3e 45 bf 6e bd 48 54 f5 3d
       -0.06607516 0.17983095 -0.058287878 0.11978966
000300 c8 60 34 3d 06 99 60 3d a3 05 c3 bd 30 32 cc 3d
       0.04403761 0.054833435 -0.095225595 0.0997051
000310 7c f8 b3 3d 29 cd 1d 3d 6b 98 2d 3e 5d 4e 68 39
       0.08787629 0.038525734 0.16952674 0.00022154437
000320 7b 16 21 3e dc 02 af 3d e3 0e 86 3b 93 24 a0 bd
       0.15731232 0.08545467 0.00409113 -0.07819476
000330 05 48 a3 bd 89 12 92 bd f7 bb 1c be a2 b5 cf 3d
       -0.07972721 -0.071324416 -0.15306078 0.101420656
000340 b8 7b 01 be 25 c8 af 3e e5 d4 d4 bd 6f f6 36 be
       -0.12644851 0.34332386 -0.10392169 -0.17867444
000350 9f 49 9e 3d 2f c4 04 be 52 bf dc bc e6 30 88 bd
       0.07728886 -0.12965463 -0.026946697 -0.06649952
000360 4a 46 13 be 3d ed 11 3e 33 11 e0 bc 8a 4a 06 3e
       -0.14382282 0.14250655 -0.027351951 0.13114372
000370 aa c0 7f bd ff 0b 97 3b 98 e0 ee bd 9a 27 09 3e
       -0.0624396 0.0046095843 -0.116639316 0.13394013
000380 86 95 c7 3d ed 56 fd bd f3 cf fd bd 25 90 75 3e
       0.09745316 -0.123700954 -0.12393179 0.23980768
000390 cc 97 69 3e 1f f2 03 3d a9 75 f8 bd 75 05 77 be
       0.22811812 0.032213327 -0.12131817 -0.24123175
0003a0 dd 07 de bd 05 32 96 3d c6 ef 83 3c 34 c7 15 3e
       -0.108413436 0.07333759 0.016105544 0.14626771
0003b0 09 6d 71 bd 24 8d b3 bd 89 11 1a 3d 44 50 55 3e
       -0.058941875 -0.08767155 0.03761438 0.208314
0003c0 1f 97 f1 bd c2 dd 99 3d d9 54 00 3c c4 80 f7 3d
       -0.11796402 0.07513 0.007832729 0.12085107
0003d0 1b 37 03 bd 88 c5 a9 3d cb 94 98 bd 4c 44 62 3d
       -0.032034975 0.08289629 -0.07450255 0.055240914
0003e0 74 5e 11 3d fb c9 12 bd 16 28 04 3e 90 c3 e3 bb
       0.03549047 -0.035837155 0.12905917 -0.006950803
0003f0 94 5e 71 bd 05 0c 26 bd 22 1f e9 bd 43 65 d3 bd
       -0.058928087 -0.040538806 -0.11382891 -0.103220485

bias f4 [150]
000000 0d 39 33 3d 4a 91 b3 bc c0 33 a0 3b 79 0b d4 bc
       0.04375558 -0.021919865 0.0048889816 -0.025884377
000010 16 ec fd bb dd 8f 26 bb a6 e7 21 bc 2b 66 ea bc
       -0.007749091 -0.002541534 -0.009881889 -0.02861317
000020 5c 26 03 bd 14 7a a6 3a 00 fc a0 bc 12 70 f9 3b
       -0.032019004 0.0012701177 -0.019651413 0.007612237
000030 88 79 85 3c f5 38 cd 3c aa 9a 98 3d f8 55 45 3d
       0.016293302 0.025051573 0.07451375 0.04817769
000040 96 fc 83 3c a9 7b c8 3c e6 9b a1 3c 3c 4c 54 bb
       0.016111653 0.024473028 0.019727658 -0.0032394072
000050 19 73 b8 bc fa 59 55 bd ab fc a7 bd b4 ff b9 bd
       -0.02251582 -0.05208776 -0.082024895 -0.090819746
000060 9f 90 d0 bd 36 20 c0 bd ff 85 9c bd e4 04 60 bd
       -0.10183834 -0.09381144 -0.07642745 -0.054692164
000070 80 83 0b bd c3 e2 bd ba 60 1e a7 bb d8 d6 18 bd
       -0.034060955 -0.0014487136 -0.0051000565 -0.037314266
000080 5d a6 f7 bc 0f 58 07 bd 8c 64 12 bc a4 5f d7 bc
       -0.030230695 -0.033042964 -0.008935105 -0.026290722
000090 59 d0 d6 bc f5 e8 c3 bc 38 5f c4 bc ca 5d 2c bc
       -0.026222395 -0.023914794 -0.023971185 -0.010520408
0000a0 a7 32 e6 3c d6 30 96 ba 59 fa a8 3c b7 ba 90 3c
       0.028100325 -0.0011458646 0.020627188 0.017667158
0000b0 ec af 96 3c 67 b9 82 bb 9f 67 41 bd f7 0e 55 bd
       0.018394433 -0.003989387 -0.04721796 -0.052016225
0000c0 22 7b 0f bd 48 6d 83 bc 24 a1 d4 bc 7f 14 3f ba
       -0.035029538 -0.01604332 -0.025955744 -0.0007289126
0000d0 03 21 49 3c f1 b8 f8 3c 0f a8 1c 3d 79 71 52 3d
       0.012275937 0.030361624 0.03824621 0.051377747
0000e0 4e fe 1f 3d 83 ee 7c 3c b3 3e 7e 3c 8b a5 0b bc
       0.039060883 0.015437725 0.015517878 -0.008523355
0000f0 4a 98 5a 3b 74 c6 41 bb 13 b8 be ba 91 d9 a7 3c
       0.0033354932 -0.002956775 -0.0014550708 0.020489486
000100 3c eb 8d 3d 37 b7 b1 3d 65 e0 97 3d 0e 80 85 3d
       0.06929633 0.086775236 0.07415847 0.06518565
000110 73 68 6b 3d c5 84 31 3d 14 bb 2e 3d 14 f0 93 3c
       0.057472657 0.04333951 0.04265888 0.018058814
000120 4c 2a da bc 50 08 c1 bc 14 29 a5 bc 10 ce 05 bd
       -0.026631497 -0.023563534 -0.02016119 -0.03266722
000130 2e ed 55 bd 81 c5 75 bc 97 39 f6 b9 a2 71 fb 3c
       -0.052228145 -0.015000702 -0.00046963684 0.030693833
000140 f7 b1 06 3d 15 fb 2c 3d 5f d5 18 3c 01 53 a6 3c
       0.032884564 0.042231638 0.009328215 0.020303251
000150 0b 24 bf 3c c8 2b 61 bc 5d 52 7a bc 90 31 28 bc
       0.023332616 -0.013743348 -0.015278426 -0.010265723
000160 bb 30 cc 3b f9 70 47 3d f8 10 44 3c ff 5a c7 bc
       0.006231395 0.048691723 0.011966936 -0.024335383
000170 3f c7 1d bc 72 8d 13 bd 33 b9 89 bc 90 63 d7 bc
       -0.0096300235 -0.036023565 -0.016811943 -0.026292592
000180 35 cd b5 bd 32 6c b4 bd 4c 88 85 bd 4f 8e a4 bc
       -0.08877031 -0.08809699 -0.06520137 -0.02008739
000190 99 07 dd bb 0b 2d 21 3c f5 61 f8 3c ce 3a 5c 3d
       -0.0067452905 0.009837399 0.030320147 0.053767018
0001a0 80 60 66 3d 12 34 25 3d b9 3f 57 bc ff 66 87 bc
       0.056244373 0.04033286 -0.013137751 -0.016528605
0001b0 b7 ba eb ba 91 df 90 ba e8 73 03 3c d8 c2 12 bc
       -0.0017984723 -0.0011052956 0.00802324 -0.008957587
0001c0 39 66 f0 bc 96 aa bd bc 8a 1e cf bc 6c df 9f bc
       -0.029345619 -0.02315263 -0.025283117 -0.019515716
0001d0 4d 8c 97 bc ca 80 34 bb cc ee a1 bb fc 69 ca 3a
       -0.018499518 -0.0027542585 -0.004941797 0.0015442963
0001e0 c8 7e a5 bb 9d 65 83 bc dc 5f a4 bc 3e 65 3a bc
       -0.005050514 -0.016039664 -0.02006524 -0.011376677
0001f0 ad 53 28 bc 81 ab 1e 3c ac a2 05 bd 12 52 b5 bc
       -0.010273856 0.009684444 -0.03262584 -0.02213386
000200 89 e2 98 bb d0 c1 b3 bc 90 0b 0d bd ac 1f 1c bd
       -0.004665677 -0.021943003 -0.034434855 -0.038116142
000210 30 d7 61 bd ae f4 e2 bc ce 61 50 bb 39 b1 f6 bc
       -0.05513686 -0.027704563 -0.0031796577 -0.030113803
000220 a3 e3 22 bd 38 61 d5 bc db 4a 09 3c 83 92 a1 3c
       -0.039767873 -0.026047334 0.008379663 0.019723183
000230 5a 8b be 3c 47 94 c7 3c c4 25 41 3d 14 44 66 3d
       0.023259807 0.024362696 0.047155157 0.056217268
000240 ed d4 1b 3d a7 39 1f 3d 72 ea 06 3d 6f f1 1f 3d
       0.03804486 0.03887334 0.03293843 0.03904861
000250 ff be 5a 3d a4 84 a9 3d
       0.053404804 0.08277252
