checkpoints/lstm/ANN_o_90.pt (torch, 444940 bytes, 8 tensors)

weight f4 [200, 400]
00000000: 5524 0c3e 22bc 0b3e 11d3 c03c b1c7 8abd
00000010: 764b 1f3b 283c fdbd 320d 733d d625 84bc
00000020: 9b3a 2f3e 6c60 8f3d 30c3 2a3d 47e9 38bd
00000030: a0ac a0bc 4a41 bebd 56f9 243c f48d 31bc
00000040: b354 d83d c85b 033e 2018 513c 4385 33bd
00000050: 18c0 3abe 68af a23c 9902 e53d 305c 95bc
00000060: 6b5a c4b9 c2e5 e43d 97a2 c1bb 387d 0f3c
00000070: 5b65 00bd 5a8a 64bd 7b33 f53d 4ef9 c53c
00000080: 24bb 4abd 6ee1 953c 50b6 993d 1744 65bd
00000090: 75ba 0cbb 90d9 79bd 118f 973d 15e8 353d
000000a0: 69ec 2abd 1e17 f8bd 0821 913d dddc 54bd
000000b0: 49f0 a63d ed5b 41bb 4515 043e a8eb 1f3c
000000c0: a2a5 9ebd a688 89be 3c7d 813d 231a 60bd
000000d0: d213 8e3d e439 083b c15f fb3c d730 3dbd
000000e0: 84c2 dcbd e76d afbe 9b87 d13d 90cc 93bd
000000f0: e8ef 543d 2f3a 9abd 86cb 623d 8f07 323d
00000100: d271 babd 05f6 abbe d10a ab3c ccb3 27be
00000110: 7b57 a53d 45d4 8b3a 0150 d2bc c248 f1bc
00000120: 1d0c a5bd d1fa 86be d938 a93d b4f7 3cbe
00000130: 28e8 103e acbb bfbb c776 8bbd d0d6 d43c
00000140: c12f 9abd 9a3d 21be 309e 9dbc 775d 3abe
00000150: 4ed4 ce3d 6419 87bd 8038 8ebd 4f48 2f3d
00000160: 5329 a93d 5724 08be 70a6 553d 2719 81be
00000170: 3abb cb3c 7514 69bc ab84 b2bd 79ff 653c
00000180: 8225 e53d 12e5 eebd 2d03 0cbb d20f 08be
00000190: 22d8 91bc bf2a 723c 5f3a 0bbd b8f1 273d
000001a0: fda4 f63b f9c5 e4bd 8126 823d ec78 b4bd
000001b0: fd98 a0bc 9cf9 45bb cc3d c3bc 2360 0abc
000001c0: e4b3 87bc bb95 b0bb a347 4d3d b986 d7bd
000001d0: a72a cbbd bc54 a73c 8102 0cbd e228 35bb
000001e0: 91de c5bc fb3c da3d a142 df3b bf66 f7bd
000001f0: 901a a0bd 5176 2dbb 5828 bdbd 04d8 e3bb
00000200: 23d3 d7bc 9389 3f3e 6011 833d 8901 84bd
00000210: a096 2dbd baa1 9dbd 90a0 6bbd ce9f 363d
00000220: 443d 8bbd 19e3 2e3e 4db3 ee3c be4b e0bd
00000230: 779e 14be 712e 29bd 134b 2e3d 57ea 373d
00000240: 9b36 ebbc 2e36 033e 5a7d 313a 5fa4 9dbd
00000250: b92c 7abd 3c42 1ebd e7b1 b93a 5e62 453c
00000260: ea9b 6ebd eafe 06bd c82c 803d 5264 b1bc
00000270: a51d 533c 09b3 8cbd 043d cf3d d0f7 6dbc
00000280: 9d8d 31bb 7241 f03c e322 153d 00bf 39bd
00000290: a7ad 353d 7338 42bd 774b d83d 3a2f a83c
000002a0: 2ebe f9bd 81e8 c13c 8a59 6b3d 1697 84bd
000002b0: 20c1 443d e8bf 9abc a2dd 053d e526 96bc
000002c0: 95e2 07be dadf 6ebd 7db5 f7bb 9e31 f43c
000002d0: 5c47 843d cfb6 57bb feec 7a3d ef85 c0bc
000002e0: ac6c 24bd 55b9 ad39 b333 f33a f8fe 7abd
000002f0: 344a 953d b77c 033c b4a2 c83d cf4b b13c
00000300: e8d5 37bd 5aea 97bd 9ca1 783c 797c 45bd
00000310: 7920 2e3e f1a2 27bc 4808 c43c 030c 0d3d
00000320: aef8 97bd 1f43 62bc 947e 9dbd c623 f7bd
00000330: 03da e43d 3e0b 883d 884d 0d3d 0b77 60bd
00000340: 419d c7bd 0e5c b13d dc80 83bd adbd 9bbc
00000350: 964c 5bbd a539 703d c410 193d 075d 1b3c
00000360: 36c6 adbd 7a4a 023e 15f7 afbc 673f 373d
00000370: 33ca 2fbd 839a 5a3d 426c 5abd 339e d8bb
00000380: 2d1a b2bd cee1 e93d 7b65 42bd 7e3d 893d
00000390: 45db acbc 7012 e53d 56ec b1bd 1519 c6bc
000003a0: 304c a5bd d3b1 a33d 80bb b1bd fcc2 8c3d
000003b0: a01d 40be fcb1 e13c fc13 57bd d75e 533b
000003c0: ecb0 5dbc bcc5 a33d 3602 37bc 9740 203d
000003d0: 3a25 40bd 6dd1 583c 879a 7ebd 057a bcbc
000003e0: ba46 3bbd c34b 833a 7129 d5bc 5227 e4bc
000003f0: 2add 57bd 6beb 3c3b 5028 98bd 2f50 28bd
0.13685735 0.13645986 0.023538144 -0.06776369 0.0024306453 -0.123649895 0.059338756 -0.016131323
0.171122 0.07000813 0.04169005 -0.045144346 -0.019613564 -0.09289797 0.010069212 -0.010837067
0.1056303 0.1282798 0.0127620995 -0.04382826 -0.1823734 0.01985903 0.11182136 -0.018232435
-0.000374514 0.11176635 -0.005909275 0.008757882 -0.03134666 -0.055796005 0.1197271 0.02416673
-0.049494877 0.01829597 0.075054765 -0.05597314 -0.0021473442 -0.0609985 0.074003346 0.044410784
-0.041729365 -0.12113784 0.07086378 -0.051968444 0.081512995 -0.0029504255 0.12898739 0.009760775
-0.07746436 -0.26862067 0.06322715 -0.054712426 0.06937374 0.0020786459 0.030685307 -0.046189155
-0.107792884 -0.34263536 0.10230943 -0.072167516 0.051986605 -0.07530629 0.055369876 0.04346424
-0.09103741 -0.33586136 0.020879181 -0.16377181 0.08073326 0.001066812 -0.025672914 -0.029453639
-0.08058951 -0.26363233 0.08262796 -0.18453866 0.1415106 -0.0058512297 -0.06809764 0.025981337
-0.075286396 -0.15746155 -0.019240469 -0.18199717 0.10099088 -0.0659664 -0.0694437 0.04279357
0.08259835 -0.13295113 0.05216068 -0.25214502 0.02486955 -0.014226069 -0.08716711 0.01403796
0.11188795 -0.116647854 -0.0021364198 -0.13287285 -0.017803255 0.014780699 -0.033991214 0.041002005
0.0075269924 -0.11170573 0.06355 -0.088121265 -0.0196042 -0.0030208593 -0.023833178 -0.008445772
-0.01656527 -0.005388943 0.050117146 -0.10523743 -0.09920245 0.020426147 -0.034182075 -0.0027642776
-0.02415398 0.10656162 0.0068133627 -0.12080144 -0.078175664 -0.0026468227 -0.092362106 -0.0069532413
-0.026345795 0.18704824 0.063997984 -0.06445605 -0.042379975 -0.076968625 -0.05752617 0.044585995
-0.06798795 0.17078818 0.029138232 -0.10951947 -0.14513575 -0.041304056 0.042552065 0.04490122
-0.028712561 0.12813637 0.0006770693 -0.07697367 -0.061077807 -0.038637385 0.0014167399 0.012047378
-0.05825416 -0.03295795 0.06258541 -0.021654282 0.012885486 -0.06870086 0.1011906 -0.014524415
-0.0027092465 0.029328082 0.036410224 -0.045348167 0.04435506 -0.047417115 0.10561269 0.020530332
-0.12194477 0.023670437 0.057458438 -0.0647413 0.04803574 -0.018890336 0.03268207 -0.018329093
-0.13270028 -0.05831895 -0.007559477 0.029808816 0.06458923 -0.003291536 0.06126117 -0.023501365
-0.0401427 0.00033135214 0.0018554836 -0.061278313 0.07289544 0.00802534 0.09796658 0.021642594
-0.04488173 -0.07417746 0.015175249 -0.04821441 0.17004575 -0.010231719 0.02392973 0.034435283
-0.07420479 -0.013809948 -0.076901585 -0.1206737 0.11174395 0.06642769 0.034497768 -0.05480103
-0.09746791 0.08660136 -0.06421062 -0.019011343 -0.053539835 0.058648724 0.037369505 0.009482629
-0.08485071 0.12723723 -0.021480123 0.0447382 -0.04291744 0.05337001 -0.0533259 -0.0066106557
-0.08696399 0.11420022 -0.04746006 0.06701182 -0.02110065 0.11185157 -0.08687656 -0.024181882
-0.08071172 0.07992902 -0.08678341 0.06873128 -0.18761301 0.02755069 -0.052509293 0.0032252574
-0.013530951 0.07996699 -0.011169961 0.039124098 -0.046910502 0.013233525 -0.062159088 -0.023007402
-0.045721747 0.0010017086 -0.026020737 -0.02785078 -0.052701153 0.0028826843 -0.07429564 -0.041092094

bias f4 [200]
00000000: f073 9b3d f4f9 1abe 89f0 9c3d 3b39 98bc
00000010: 2a50 f7bc 89b9 d9bc 1b1c c2bd 978d 523e
00000020: c47a 9cbc d9b0 bcbd 3dff c23c 9beb c33d
00000030: 44b6 3a3c 4d7c e8bc 4237 0e3d 2ecd b5bd
00000040: fac2 60bd 0282 923d 24ab bebc 3f88 c23d
00000050: d68e f13c 29bd 54bd 1606 f8bc 9e73 33bc
00000060: 5a81 0ebd 8b8b 373c 0478 7fbd 8e13 633d
00000070: 31ee 99bd 5699 e63c bfaf dabd 839e 083a
00000080: 82d0 d53d 53d3 863a a811 2abd 91aa 31bc
00000090: a66d e2bc 324e d0bd 6e2a 99bc b9b3 81bd
000000a0: b7b7 5b3d a409 85bc 09e0 9b3d 5a8e 1cbc
000000b0: dc0d 4bbd da75 b43c c42b 82bb ed63 2cbd
000000c0: 23b3 cc3c bfae 033e dfd6 1a3c bc18 dbbd
000000d0: 1aa8 9dbc 0378 d4bc d20a 073e 1295 0abd
000000e0: 9864 1c3c 2d38 6e3d fc7a 29bb f38e eeba
000000f0: 2223 bc3a a2d8 8ebc 8f0a 3ebd 3c1a d3bd
00000100: 2dfb 34ba 12ef 14be dee2 043d b033 fc3c
00000110: 7dd9 443d becb 433c c468 5c3d c4ac 0c3e
00000120: 3d1d 713d 4c9a b3bb 1ea7 cfbc 5739 e2bc
00000130: d053 433e 7629 afbc 8771 d6bd ff96 dc3d
00000140: 1753 0f3e 0ba0 0b3c e19b d43c 0727 5fbc
00000150: ca58 bf3a 72fd 1fbd 2b9b 7fbc bb2f 78bd
00000160: a3a4 3c3d b065 7ebb c954 9abc d461 263d
00000170: cdd5 95bc f69b 71bd aed9 613c 99ab 443d
00000180: 9202 013e 5c0d 883d 76e9 50bd bad8 793c
00000190: d3b2 4dbd 3725 53bd b670 ed3c 3356 a7bd
000001a0: bdc1 503e 0ad3 9a3c 03b1 e5bc 5b95 763d
000001b0: 941e 8cbd 799f dcbc 20c1 2c3d a629 f03d
000001c0: 795f 053d 5055 46bc 3189 0a3e 201b c83b
000001d0: 7350 b23b b7b4 9a3c 59f7 49bd 8cb0 463d
000001e0: f20c 903c eb48 1a3d b3f7 86bc 6ecf 88bd
000001f0: 7eba 353d 94f6 22be 7b00 1d3c 973d 12be
00000200: 3865 fa3d d8a9 adbc 9ee7 59bd 3b28 32bd
00000210: 6e48 3f3e 09be e93d c648 35bd d5ef e3bd
00000220: a30d ad3c e85d bb3c 6a42 d53d 55aa 823c
00000230: 714a 063e e1ea e83d 75d6 403d a461 043b
00000240: b84a 1cbc 0b35 72bd a679 d83b f33a 60bc
00000250: 8f8c 043d 185e a1bd 338c 463c 0d89 0b3d
00000260: b2a4 a73c 5801 44bd 68a7 c7bb fe47 8dbc
00000270: 51fc bcbd 2a9a ec3d 8828 1c3d c562 c23c
00000280: 92ef d0b8 ede5 343a 10ae bc3c bf2d 3b3c
00000290: 7ad6 a73c 2919 6b3c b1d3 09bd b162 773d
000002a0: b4de 3bbd b15d 5bbd 39f9 33bd 97f3 89bd
000002b0: 6044 10bd d7c4 043c ace1 1c3e e923 ebbd
000002c0: 996f 4dba 77cd ecbc 1f19 133e 7871 5e3b
000002d0: 6dd2 54bd c3e1 46bc 34fe 9d3c 4d1d dbbc
000002e0: dfb1 c43d a7bd b5ba 798e c83c b2a6 153c
000002f0: fe30 143e 82f7 b5bc 3bff fbbb 07a4 8b3d
00000300: e9fb 6bbc 6701 993c ef78 023c 7fb5 a03d
00000310: 07a6 5c3c 0b40 803c 85bd 033e 2562 5a3d
0.07590473 -0.15134412 0.07663066 -0.018581977 -0.030189592 -0.026577728 -0.09478017 0.20561825
-0.019101508 -0.092134185 0.023803348 0.095664226 0.011395995 -0.028379584 0.034720667 -0.088770255
-0.054873444 0.07153703 -0.023274966 0.09498643 0.029487055 -0.05193821 -0.03027634 -0.010952858
-0.034791328 0.011202703 -0.062370315 0.05543857 -0.075161345 0.028149288 -0.10678052 0.00052116084
0.1044016 0.0010286368 -0.041520745 -0.010843889 -0.027640175 -0.101711646 -0.01869699 -0.063331075
0.053642 -0.016239949 0.07611091 -0.009555424 -0.049573764 0.022028852 -0.0039725024 -0.042087484
0.024987763 0.12859629 0.009450643 -0.10698077 -0.019245196 -0.025936132 0.13187721 -0.03383357
0.009545468 0.058159042 -0.0025860658 -0.0018200561 0.0014353732 -0.017437283 -0.04639679 -0.10307738
-0.0006903883 -0.14544323 0.03244292 0.030786365 0.048058975 0.011950431 0.05381085 0.1373778
0.058865774 -0.00548104 -0.025348242 -0.027615232 0.1907494 -0.021382075 -0.10470872 0.10770988
0.1399654 0.008522044 0.025953235 -0.013620145 0.0014598605 -0.039060064 -0.01560096 -0.060592394
0.046055447 -0.0038817935 -0.018839257 0.04062064 -0.018290425 -0.058986627 0.013784809 0.04801521
0.12598637 0.06643173 -0.051003896 0.015249426 -0.05021937 -0.051549163 0.028984409 -0.08170738
0.20386405 0.01889946 -0.028038507 0.06020103 -0.0684177 -0.026931511 0.042176366 0.11726694
0.032561753 -0.012105301 0.13528897 0.006106749 0.005441719 0.018885 -0.049308155 0.048508212
0.017584298 0.037667196 -0.016475534 -0.06680189 0.044367306 -0.15914375 0.009582634 -0.14281307
0.12226337 -0.021199152 -0.053199403 -0.043495398 0.18679973 0.114131995 -0.044258855 -0.11129729
0.021124667 0.022871926 0.10413058 0.015950361 0.13114335 0.113729246 0.047079522 0.00201998
-0.009539299 -0.059132617 0.0066062985 -0.01368593 0.03236061 -0.07879275 0.012118387 0.03406625
0.020464275 -0.047852844 -0.0060929544 -0.017246243 -0.09227813 0.11552842 0.03812459 0.023728738
-9.962836e-05 0.00069007167 0.023032218 0.011424481 0.020488013 0.01434926 -0.03364915 0.060396854
-0.045866683 -0.053556148 -0.04393885 -0.06735914 -0.035221457 0.008103571 0.15320462 -0.11481459
-0.0007836759 -0.028906567 0.14365052 0.0033942144 -0.05195849 -0.012138787 0.019286253 -0.02674737
0.09604239 -0.0013865725 0.024481999 0.009133982 0.14471814 -0.022212747 -0.007690338 0.06818395
-0.014403322 0.018677427 0.007963403 0.07847118 0.013467318 0.015655538 0.12865265 0.053316254

weight f4 [100, 200]
00000000: 5dd8 3c3d cb7a 27bd 77a1 86bd f84c 85bd
00000010: b1e4 aebe 341b a5bd cb6d 583d e5df 083e
00000020: b59f 57bd 469f ab3d 531c 033e c705 383d
00000030: 64e9 82bd 6b24 273e 716b ac3b 8cfc d13d
00000040: d7eb 7b3d 1de8 1bb9 ae45 45bc 8d25 6fbe
00000050: f9bb 37bd e87a 713e 4075 23be 6e4d 9c3d
00000060: cca6 a3bd a975 5f3d 298c c2bd 8862 5fbc
00000070: 0fcc 6e3d dac3 2fbd 077c dabd d7bb 36bd
00000080: 1180 68be 79ab 3fbd ca97 373e 9c9d 3bbc
00000090: a8da 2ebe e6ff b73d 8967 55bd 07b8 08be
000000a0: aa18 35bd eeb9 4e3d d6e1 d8bc efcb fabb
000000b0: 3b24 413d e703 14be fed0 903d e8f4 2a3d
000000c0: f860 bb3b 5bba f1bd f445 92bc ee56 813d
000000d0: 75bf 3fbc 41ea 5fbb 44b0 2c3e d146 14be
000000e0: 565e 973b 0086 ec3c 40cf a73a 9626 c9bb
000000f0: 6d2d 21bb b1f0 8abc d4f5 8ebd ef11 e33d
00000100: 24cb fe3c 12c5 b13c 7157 023c a4e0 b33c
00000110: 5966 dcbc 01de 263e 127d 2f3d 67b5 4b3e
00000120: 2787 ffbc 4e67 d4bb 4757 b83d a29b a9be
00000130: 335a 00be b82a 253d af4f 753d c1f3 403d
00000140: 2c17 01be b87c 79bc 2bc7 01be 2f4c 3b3e
00000150: 7c56 70bd 187a cbbb 327c fabc 9ccd 61bd
00000160: c574 94bd de36 393d f726 533b 93d5 01be
00000170: eb26 963d 6233 18bd e345 263e f512 af3b
00000180: 0cd2 ecbd 9320 bd3c 4f5c b43c 77c6 86bd
00000190: 4eb5 b6bc ab69 193e 3b16 20be 901b 10be
000001a0: 1ce9 623c 017d 703e ecf4 ebbc 7dd8 4dbe
000001b0: 1e9c 033d 4b4c 363d 86f1 12bd 0937 903c
000001c0: c377 813d 4bd8 d83d 66d8 a0bd 5976 1bbe
000001d0: ea9a 543c 8d28 163b 4284 f63b 9573 b43b
000001e0: 9cf9 32bd c1e4 db3d 48aa 793d f9eb 33bd
000001f0: 3a6c ee3d 3fcc 17be 9a1e c33d 1c79 26be
00000200: 792c cebd 8f27 fdbc 6978 343d f14a 8a3c
00000210: f232 1f3e 5da0 febd 948d eebd 55e9 873d
00000220: a7a1 3d3d 163b cabc 4d92 bd3c 56df 55be
00000230: 3e53 8e3e 7407 08bd e306 843a 38cf 69bd
00000240: f39b 3f3d f6f5 8dbd 1b35 203d a46e 4e3e
00000250: 34da fabd 566c 69ba 40a2 7f3d dfb3 d6be
00000260: ff19 c7bc ee98 303d 7ac8 773d 0479 5a3d
00000270: 304b 053e 7f61 263d 85fa e63b bad3 ff3d
00000280: 72da ab3c 5e20 0d3e 441f d53c ec52 0abd
00000290: 07fc 353d dbbc 48bd fdec 953d 5ebf a5bd
000002a0: 4701 11bd 7803 2fbd d36e 12bd 1da6 80be
000002b0: de43 983c e843 4fbd 1e7f 56be c14c d7bc
000002c0: a004 25bd d053 1abd b468 3fbe 21c9 fa3d
000002d0: 9f63 6f3d 7c10 64bd 69a2 59be 69d0 3f3d
000002e0: 61c0 debb 2962 36bc 8a72 9a3d 491a 133d
000002f0: bc2a cf3e dc66 95bd 2ba0 0d3d a9b3 843c
00000300: f210 21be 81cc 0fbd 998e 2b3c 8c0d 64bd
00000310: 13d5 033e 760d a03d f1a1 5cbd 4729 793d
00000320: f844 1fbe eb01 34be 56fd 92bd aa1d 3b3c
00000330: a7b7 05be f73c fb3c e772 06bc e73c 173e
00000340: d3dd 33bd 2893 cabc f2dc 40bd d01d 06bd
00000350: ba3e 94bc a76a 71be 362d 603d 1344 243d
00000360: e34f c43b f774 77be eace a2be 227d 0ebd
00000370: 7425 8a3c c4eb 903e 035b 99bd 16dc 35bd
00000380: d841 af3c 7b05 e03c adf7 efbd 726e 63bc
00000390: 5d00 8bbd 1bae d0bc f864 2bbe fb5b 35bd
000003a0: 4df5 abbd 0035 7bbc 7f1f 883d dd17 643d
000003b0: 3b8c 8d3e a19c 9d3d 3eeb 0c3d 8a6c 75bb
000003c0: a5fc 83bd be9f 89bd 83cd e13d 6c3f 77bb
000003d0: 7979 78bd d4a2 45bd f818 823d 5df5 c4bc
000003e0: 18b0 52be 8716 89be d7a7 e63c 7598 8abd
000003f0: a1a7 d03d 3787 7fbc fbdf 16be 7ee0 133e
0.046104778 -0.04088859 -0.06573766 -0.06508821 -0.34158853 -0.08061829 0.05283908 0.13366659
-0.052642543 0.08379988 0.12803774 0.044927385 -0.06392172 0.16322486 0.0052618315 0.102532476
0.06150421 -0.00014868421 -0.012040539 -0.23354168 -0.044857 0.23582041 -0.15962696 0.07631956
-0.07990798 0.05455557 -0.0949939 -0.0136343315 0.058300074 -0.042911388 -0.106681876 -0.04461273
-0.22705103 -0.04679439 0.17928997 -0.011451151 -0.17075598 0.08984356 -0.052100692 -0.13351451
-0.044212975 0.050470285 -0.026474874 -0.0076537053 0.047153693 -0.14454614 0.07071112 0.041737467
0.0057183467 -0.118031226 -0.017855622 0.06315409 -0.011703362 -0.0034166726 0.16864115 -0.1448014
0.0046194 0.02887249 0.0012802854 -0.006138633 -0.0024593726 -0.016960474 -0.06980482 0.11087405
0.031102724 0.021700416 0.007955418 0.021957703 -0.026904272 0.16295625 0.042843886 0.19893418
-0.031192375 -0.0064820414 0.09001022 -0.3312655 -0.12534408 0.040323943 0.059890445 0.04710746
-0.12606496 -0.015227489 -0.12673633 0.1829078 -0.058676228 -0.006209623 -0.030576799 -0.055127725
-0.072488345 0.04521834 0.003221927 -0.12679128 0.07331642 -0.037158377 0.16237597 0.005342836
-0.11563501 0.023086822 0.022016672 -0.06580823 -0.02230325 0.14981715 -0.1563348 -0.14073014
0.013849523 0.23485185 -0.028803311 -0.20102115 0.032131307 0.044506352 -0.035874866 0.017604368
0.06321671 0.105881296 -0.07853775 -0.15181865 0.0129763875 0.0022912354 0.0075230906 0.0055069425
-0.043695077 0.10736991 0.06095341 -0.043926213 0.11641736 -0.14824007 0.09527321 -0.16257137
-0.10067076 -0.030902652 0.044060145 0.016881438 0.15546778 -0.124329306 -0.11648098 0.066363014
0.04629674 -0.024686377 0.02314105 -0.20885977 0.27797884 -0.033210233 0.0010072853 -0.057082385
0.046779584 -0.06931679 0.039113145 0.20159394 -0.1224865 -0.0008904388 0.062410593 -0.41934106
-0.024304388 0.043114595 0.060493924 0.053338066 0.13016963 0.040620323 0.007048907 0.124915555
0.020978186 0.13781878 0.026015885 -0.033770487 0.044429805 -0.04900823 0.073205926 -0.08093141
-0.03540161 -0.042727917 -0.03575022 -0.25126734 0.01858705 -0.05060187 -0.20946929 -0.026281716
-0.040287614 -0.037677586 -0.18692285 0.122453935 0.058444615 -0.055679783 -0.21253361 0.046829615
-0.0067978357 -0.011131802 0.07541378 0.03591374 0.4046229 -0.072950095 0.034576576 0.01619895
-0.1572912 -0.03510714 0.01047101 -0.05567698 0.1287425 0.078150675 -0.053865377 0.06083038
-0.15553653 -0.17578857 -0.07177226 0.011420647 -0.13058339 0.030668719 -0.008206106 0.14769326
-0.04391272 -0.024728373 -0.04708571 -0.032743275 -0.018096317 -0.23575841 0.054730617 0.040103983
0.0059909686 -0.24165712 -0.31798488 -0.034787305 0.016863562 0.28304875 -0.07488062 -0.044399343
0.021393701 0.027346363 -0.11717162 -0.013881313 -0.06787179 -0.025473645 -0.16737735 -0.044277173
-0.08396397 -0.01533246 0.066466324 0.05568682 0.2764605 0.0769589 0.034404032 -0.0037448728
-0.064446725 -0.067199215 0.110255264 -0.0037727011 -0.06066272 -0.048250988 0.06352419 -0.02404278
-0.20574987 -0.26775 0.028156204 -0.0676736 0.10188223 -0.015596203 -0.1473388 0.14441106

bias f4 [100]
00000000: ae66 c6bd 7a5c f1bd f287 37bb 96f9 433d
00000010: 1257 9ebc 84e5 553d 09a9 493c fdf9 8dbd
00000020: a2a0 393d 3cf8 413a 48fd 813d f84e 8d3d
00000030: cfda 4abc b037 84bd c31d ae3d f37f 5b3d
00000040: c350 ab3d 2cc7 e4bc dff3 643d 7f50 fd3d
00000050: 9cde 48bc 8a0e 273b 9b58 11bd 5cb2 0d3d
00000060: 48a2 873d b003 7cba 6a49 a93c 6622 e0bd
00000070: 1095 873d edbe 7bbd 8544 8f3d ad5b b53d
00000080: be2a 4f3e 9b4b a73d c37e fb3c 0094 58bd
00000090: 2e6d d2bd ab7b 79bd 12e2 8b3c 07ee 11bc
000000a0: 49b9 16bc 70f6 10bd a3a3 ca3c 992a 2dbd
000000b0: 2242 dfbb d1dc c4bd 29b4 94bd 5d5a afbc
000000c0: f6f7 d13d c047 873c 60f9 183e 76d7 d03d
000000d0: 1855 4c3d 3b4f 993c 97cc 65bd b8c4 b9bc
000000e0: 4dd4 683c 9ee7 ef3d 7466 9ebb 0933 72bd
000000f0: 45c7 bebd 53e7 06bc ebb7 9dba 5bda 8c3d
00000100: 48e4 9a3c 1eec d53d 10e1 013d a4ea cb3c
00000110: 82c0 083e 191c 993d e75e 5bbd 04ef 833d
00000120: 1856 bfbb dbbf 623d 3527 a4bd b736 1a3d
00000130: 7c42 24bd 5f97 aebc f485 703d 031b e73c
00000140: 1bca 753d 184a b63c 5a31 15bc 5961 e03b
00000150: 5926 803c c75e 0bbd f2ee ac3d 8577 00bb
00000160: 813f 4cbb 33e8 99bd e328 03bc 124a 773d
00000170: c601 b7bd 971c 303d 84a0 f93c 9281 89bd
00000180: 5d4c 213d 9221 abbd cd9d 7dbd 3cf7 4c3c
-0.09687553 -0.11785217 -0.0028004614 0.047845446 -0.019328628 0.052220836 0.0123083675 -0.06932447
0.045319207 0.00073993555 0.06347138 0.06899828 -0.01238127 -0.06455934 0.0850177 0.05358882
0.083650135 -0.027927004 0.055896636 0.12368869 -0.012260105 0.0025490844 -0.03548489 0.034593925
0.066227496 -0.00096135866 0.02066489 -0.10944061 0.06620228 -0.061461378 0.06995491 0.088553764
0.20231149 0.081687175 0.030700093 -0.05287552 -0.102747306 -0.060908955 0.017075572 -0.008906848
-0.009199449 -0.03539127 0.024736231 -0.042276952 -0.0068133036 -0.0961243 -0.07260925 -0.021405393
0.10252373 0.016513705 0.14938879 0.10197346 0.04988584 0.018714538 -0.056103315 -0.02267681
0.014210773 0.11714099 -0.0048339907 -0.059130702 -0.093153514 -0.008233863 -0.0012032961 0.068775855
0.018907681 0.104454264 0.031708777 0.024892159 0.13354686 0.07476062 -0.053557303 0.06442073
-0.0058391206 0.05535875 -0.08015291 0.037649836 -0.040102467 -0.021312414 0.058721498 0.028211122
0.060007196 0.022252128 -0.009106005 0.0068475422 0.015643286 -0.034025934 0.08444013 -0.001960249
-0.003116578 -0.075149916 -0.008005354 0.060373373 -0.08935885 0.042996015 0.030472048 -0.06714167
0.039379466 -0.083560124 -0.06191807 0.012510117

weight f4 [50, 100]
00000000: 2c18 34bc b050 1d3e a462 453d ffcd 2e3e
00000010: ee85 a1bd b92a 203d d4e8 85be 3267 0a3c
00000020: 67fa babe 45d5 8e3d c4e0 a9bd 1c82 b33c
00000030: c044 4bbd e650 853d e0f5 86bc b5f8 893d
00000040: ceea 373e 49ff a0bc 89a2 f43d d34f 43be
00000050: 8647 a03e 5dff 81be 2459 863e 5058 92bd
00000060: 043b fa3a f5f0 3ebe cc5b ccbc 2a27 203d
00000070: 61c6 a63d 115c a0be 36ad eb3c 846d aebd
00000080: 14b8 89bc ed2f 04bd 6eba 1d3d f58b 7d3e
00000090: 4378 1fbd 00aa 0c3e 5e55 893d e501 f3be
000000a0: 004e 96ba 56c2 e8bd e5af a7bd f891 34bb
000000b0: 4c06 42bd b0c2 26be 87d5 9b3a 5881 b23d
000000c0: f411 043e 3c27 073e 239f 393e cdde c5bd
000000d0: a7de 2dbe c63c d33c 90bf 863d baf2 b83d
000000e0: 7a49 4dbe 69b4 cc3d 16a9 c8b9 919b adbd
000000f0: 884e b1bd a01d 593d 7496 a43d 8406 4d3e
00000100: 669e 143e 5ab0 0b3e e84a 973e 0ae9 d0bd
00000110: eebe 27be 66d7 86be 99b4 26be 05a0 b13d
00000120: 53ed 3c3d e52e 923e 1ddb aabd 0b68 0dbe
00000130: b07d b23d d53b da3c c75d 17bd c7a7 e5bd
00000140: cf50 413e 1ce5 2b3d 2f63 a13d b225 d4b9
00000150: 95de 80be d75d 933c bed2 b1bd f81f 85bc
00000160: 1a65 8b3d 42d8 b5bc 0e6c 0d3d cf29 cb3c
00000170: 7511 a73d 5ca6 193d da5e 9bbc 2e2b a1bd
00000180: 35ff f9bd f5fa 39bd 1aa1 55bc fb7c f23c
00000190: 8831 9c3d a727 9ebd f2b6 b6bd ddd3 b5bc
000001a0: 8c4b 68bd 723a 883c 9f2c c2bd 679b 90bc
000001b0: d622 2ebd b0da 0f3b 2abc 343d 76cc 803c
000001c0: c986 b1bd 00cb 7abb db64 f7bd 1438 1bbd
000001d0: acd8 463d ef61 9abd 16e8 70bc f02a bfbc
000001e0: e3d6 5fbd b37e 8e3d 995e 87bb 8559 033d
000001f0: a202 2e3d f6da a9bd a833 54bd 270d c2bd
00000200: 7f7a dbbd e799 cc3c 1584 883b 2286 533c
00000210: 56b3 783b 49a8 093d 9f8b 8cbd e66e 4c3d
00000220: e75a a53c 4edc f5bc 6dae fdbc e7f4 30bd
00000230: 40b3 b0bd 3496 a0bd 0b83 e9bd 4d51 903d
00000240: b484 15bd 5d73 843d f33b 70bd 31b4 afbd
00000250: 2d28 bbbd 6c1a 87bd f42a e8bc ef86 8c3d
00000260: ecf4 71bd 96b2 563d f763 27bd a342 9cbd
00000270: 2e9c 963d efff 18bd bab8 fdbd 6ed1 1d3d
00000280: 4004 acbc b5ad 74bd 58e2 be3c e537 9d3d
00000290: 5d9c f93b 8695 143c ee9f eabc f9e0 36bd
000002a0: 8810 3cbd d946 bcbd 99c9 eebd f292 17bd
000002b0: 8cf8 b3bd 4857 babd a529 8a3d 4d2a fbbc
000002c0: 38ca 8e3d 4d78 8fbc eae7 c8bc 201f 8abd
000002d0: b148 d03c 8fb4 e93c d74f 33bd 897a 83bd
000002e0: f314 f33c 9a85 f73b abc9 783d 00ca 22bb
000002f0: 7fc7 99bd 6d0e b93c da49 233d 87f1 963c
00000300: fa5b a2bd a862 c53d 6062 c63d 13b7 83bd
00000310: 3ecd a0bb 4d10 0f3d 5a74 293c 37f2 25bd
00000320: 88c6 b83b ef5d bebd 7a1d aebc 8726 6c3d
00000330: aa79 10be fa15 3bbd 522b e8bd 162f 9cbd
00000340: cf20 24bd 57b5 83bd e046 c33a a63e 3f3d
00000350: dede 0dbe 63c5 74bd 3cba 11bd 2a2c ba3d
00000360: f842 483d 78a7 993d 3b06 813d 254b 77bc
00000370: 685c 91bd e05c 41bd 962b 06bd beaa 593d
00000380: 7c39 1ebe 226d f4b9 e7b8 403d 9afc b23c
00000390: 55b2 d3bd 3a5f 5cbd b989 e8bb 45bf 52bc
000003a0: e414 b3bd c997 683d 09b8 dc3d b482 393d
000003b0: 5d0f b03d 3a87 8dbd 27c4 6dbc 8b62 743c
000003c0: cddb 093b 23ec 11bc f52a 133d 500c c23d
000003d0: 217b 9ebd d947 633c 7f26 a53c f0da 113d
000003e0: 18bd d2bd dd07 d2bd 2895 25bd d042 bbbd
000003f0: 93ac 94bd 75b2 153b b066 cbbd fd5d e7bd
-0.010992091 0.15362811 0.048189774 0.17070769 -0.07886873 0.039103243 -0.26154196 0.008447455
-0.36519167 0.06974272 -0.08294824 0.021912627 -0.049626112 0.06509571 -0.016474664 0.0673689
0.17960665 -0.01965298 0.119450636 -0.1907342 0.31304568 -0.2539014 0.26239884 -0.071457505
0.0019091074 -0.18646605 -0.024946116 0.03909985 0.081433065 -0.3132024 0.028769117 -0.08516982
-0.016811408 -0.032272268 0.03850787 0.2476042 -0.03893305 0.13736725 0.067057356 -0.47462383
-0.0011467338 -0.11365192 -0.08187846 -0.0027552824 -0.047369286 -0.16285205 0.0011889198 0.087160766
0.12897474 0.1319856 0.18127112 -0.096616365 -0.16979466 0.025785815 0.065795064 0.090306714
-0.2004756 0.09995348 -0.00038272951 -0.084769376 -0.08657557 0.05300677 0.08036509 0.20022017
0.14513549 0.13641492 0.29549336 -0.10200699 -0.16381428 -0.2633621 -0.1627983 0.086730994
0.046124768 0.28551403 -0.08342574 -0.1380922 0.08715379 0.026639858 -0.036954667 -0.112136416
0.18878482 0.041966543 0.07880246 -0.00040463876 -0.25169817 0.017989082 -0.08682774 -0.016250595
0.06806393 -0.022197846 0.034526877 0.02480021 0.081576265 0.03751217 -0.018966127 -0.07869564
-0.1220688 -0.045405347 -0.013038898 0.029600611 0.07626635 -0.07722407 -0.08921613 -0.02219575
-0.056712672 0.016629431 -0.09481167 -0.017652227 -0.04251369 0.0021950416 0.04412476 0.015722495
-0.08668286 -0.003826797 -0.120797835 -0.037895277 0.04854648 -0.075382106 -0.014703771 -0.023335904
-0.05464829 0.0695776 -0.00413115 0.032067794 0.04248298 -0.082937166 -0.051807076 -0.09475165
-0.10716724 0.02497573 0.004166136 0.012910398 0.003794869 0.033607755 -0.06862568 0.04991045
0.020184947 -0.030012276 -0.030966962 -0.043202307 -0.08627939 -0.07841149 -0.114019476 0.07046757
-0.03650351 0.06467316 -0.058650922 -0.08579291 -0.09138522 -0.065968364 -0.028340794 0.06861674
-0.059071466 0.052416407 -0.04086682 -0.076298974 0.07354008 -0.037353452 -0.123887494 0.038529806
-0.02099812 -0.059735972 0.023301288 0.07676677 0.007617517 0.009068852 -0.028640714 -0.044648144
-0.045914203 -0.091932006 -0.116595455 -0.037005372 -0.08787641 -0.09098679 0.06746224 -0.030659819
0.06972164 -0.017513419 -0.024524648 -0.06744218 0.025425287 0.02852848 -0.043777313 -0.06419856
0.029673075 0.0075537683 0.0607392 -0.002483964 -0.07508754 0.022589887 0.039865352 0.018425716
-0.079276994 0.09637958 0.09686732 -0.06431403 -0.0049072793 0.034927655 0.010342682 -0.040514197
0.005638901 -0.0929526 -0.02125429 0.05765393 -0.14108911 -0.045675255 -0.11336388 -0.076261684
-0.04007035 -0.06431072 0.0014898442 0.046690606 -0.13854548 -0.059758555 -0.035577998 0.09090455
0.04889199 0.07502645 0.063000165 -0.015093599 -0.07097703 -0.047207713 -0.03275641 0.053141348
-0.15451616 -0.00046620617 0.047051337 0.021848965 -0.103367485 -0.053801753 -0.007096496 -0.012862985
-0.08744219 0.05678538 0.107772894 0.045290664 0.0859668 -0.06910558 -0.014512098 0.014916073
0.0021035552 -0.008906397 0.03592964 0.09475005 -0.07738329 0.01387211 0.020159958 0.035609186
-0.10289973 -0.10255406 -0.04042545 -0.09143603 -0.072594784 0.0022841964 -0.099316955 -0.11297224

bias f4 [50]
00000000: 913d 7f3d 622a 67bd 7644 e2bd 8ce2 943c
00000010: 923b 273d 4592 94bb 2f8a 30bd 00d1 293d
00000020: 6727 96bd a4e9 dbbd b1b1 da3d 3325 323d
00000030: 36ab 1f3e fa6e b93d 3c9c 40bd bc4d 94bd
00000040: 863d 43bd 8111 79bd 5685 4dbd 5179 043d
00000050: d995 93bd 8044 bc3d a939 3a3d c031 d63d
00000060: 9854 4bbb 47d6 adbc 434b ecbd 76f7 893d
00000070: 01c2 7abc 49b0 e1bd 008b 2a3d a12f a63d
00000080: 6bfd 5c3d e98e 52bd 2fff 03bd 7231 01bc
00000090: f5b1 8dbd 019a 89bc 0e05 ee3d 0e17 b33d
000000a0: d9f1 49bb 932b 7d3d 2472 38bd 180a 97bd
000000b0: 98d7 98bb ac5b 033d d2a9 b7bd 18db 1a3d
000000c0: d39d a2bc ce12 d23d
0.062314574 -0.056436904 -0.11048214 0.018174432 0.040828295 -0.0045340382 -0.043100532 0.041459084
-0.07331734 -0.10737923 0.10678423 0.043492507 0.15592656 0.0905437 -0.047023997 -0.07241389
-0.047666095 -0.06080771 -0.050175987 0.03234226 -0.072063155 0.09192753 0.045465145 0.10458708
-0.0031025764 -0.02122034 -0.115377925 0.067366526 -0.015305043 -0.11019952 0.041636467 0.08114553
0.053952616 -0.05140582 -0.032225784 -0.007885324 -0.06918708 -0.016797068 0.11622058 0.08744632
-0.0030814318 0.061809134 -0.045030728 -0.07374972 -0.0046643727 0.032069847 -0.089679375 0.0378066
-0.019850647 0.10257493

weight f4 [90, 50]
00000000: 8d89 713d 29de 38bd cd5a 6bbc 23b0 643e
00000010: cdd7 41be 6efc 01be 13a2 86bc f061 d3bd
00000020: 8f9e 66bd e91c dd3d a6ce 05be 202e 13be
00000030: f1bd 803d bfdf a23c 6838 88bd 8c33 993e
00000040: 9859 09be d1ac ba3c e21f bbbd 47a3 11be
00000050: a43a 323d 7de2 11be 16f8 8f3d f5ad ca3d
00000060: 3697 313c 21dc ecbd 25f8 b0bd 082a 2f3e
00000070: 9eeb 553e 40b9 acbd bcd3 3a3e 6e88 cfbd
00000080: fb4e 7bbd a9e9 3d3e ec91 173e 9079 8b3d
00000090: 0ed2 d3bd f52f 6ebd da6c 08bd 09e0 f6bc
000000a0: 0c7f f3bd bdf3 cabd 7b1c 7bbe 6722 523d
000000b0: 8fc2 febd 9c25 b8bd be99 d8bd 77d2 95bd
000000c0: 8b89 29bc 0494 343e a25d 5abc edae 63bc
000000d0: 3b78 86bd 1145 703e 6cbd 00bd e9f8 8f3d
000000e0: 17ea 693d 11b8 cbbd a960 06bc dc95 5e3d
000000f0: 2e34 a1bd 0cfa 1cbe 8acc b7ba 7ab5 4a3d
00000100: 54d1 17be 7eb9 883e d286 59bd 826c 4a3d
00000110: 4c26 19bd 6cbd d0bd 7dfe a0bc 53a1 e0bd
00000120: 8a79 973d 01e0 cb3d 85e3 86bd 6677 2ebe
00000130: 01b4 64bd be27 6d3e de49 3b3e 9c24 f9bd
00000140: 403a 983d 0b28 55bd 64d6 acbc 67f7 513e
00000150: de70 4e3c 73c2 c13d 8f95 76bd fae7 a2bd
00000160: cdea adbd 4ebb b53c b19b 3a3d cd92 8bbd
00000170: c8cb 54be 1172 113e 5e7f 3c3d 37bb dcbc
00000180: 3608 21be 427c 03be 5f9c ff3d 1cc6 163e
00000190: 5a84 94bd 49c5 d9bd d7dd e0bb 29fe c43d
000001a0: 0c8a bd3c 5954 a23c 8357 11be cf00 d9bd
000001b0: 2dd4 843d 0671 8e3c c386 aabc 54a7 02be
000001c0: 3e51 85bd de5c 053e 68c2 2ebe 1bdf 8c3e
000001d0: a651 a03d ef6a 883c 694e e53c 39bf 0ebd
000001e0: aa47 bbbc 1338 c8bd 4d59 203d b2f2 183d
000001f0: 58ea 1dbe 05dc 24be 63c0 c13d 2308 893e
00000200: fdcb 303e 6793 ebbd 44e5 96bb 7e73 4a3c
00000210: 8ce7 c93c 1b33 063e 9175 a9bd 0d22 ac3d
00000220: 1d5e c93d 2d0c 0cbb b382 dcbd b278 ce3d
00000230: f933 d13d 0069 a6bd 8825 32be f7aa 7b3e
00000240: 8f7a 4cbd 34de d9bc c564 d1bd 5e31 41be
00000250: 9a9e 743e e766 f63d d108 dfbd f7dc 8abc
00000260: ca09 5e3c 0b2c adbb 10a4 9f3d e639 bb3b
00000270: 171f a43d 5686 81bd 12ce 7bbc 34d1 ab3d
00000280: 00da 1d3c 1091 6bbd 0b90 88bd 580f 743d
00000290: 0cb0 ebbd 29e5 863e 9615 483e 2e0d 9bbd
000002a0: 5fe1 c03d b6b9 773c 7984 4cbd bdb3 48bd
000002b0: 9ff2 d53a 0581 dd3d ff45 67be 186f 21be
000002c0: 9d17 16bd bd59 6b3e d6b4 cd3d 5a0f 5fbd
000002d0: 1c8c 533d 34c5 863d 3332 423d 2a45 e2bb
000002e0: d800 08be f019 7d3d 25a9 063e 8f43 013e
000002f0: 4762 d9bd 3072 053e ee9d ea3d 5cef 87bd
00000300: 9499 25be 3333 973e 5508 a03d c9a1 a9bd
00000310: c5b7 c1bc e425 85be 39d2 963e 4328 9d3d
00000320: 018b c6bd b986 e6bd c4cd ce3c cefe fabd
00000330: f1c2 af3d e71b bbbd 8292 f4bd 30dd c33a
00000340: f885 273d de88 0b3e 4cca 22bc ee9a ed3c
00000350: 2e4d 3ebd e0e6 b9bd 13c2 50bd 6c0f 163e
00000360: 5561 853e 22df c9bd 52fb be3d 0650 473d
00000370: 1df2 adbd f716 9bbc 2aeb 7cbc c5dd a33d
00000380: 7e78 31be f835 c1bd b2b6 ba3d 53ce 013e
00000390: bf8e a83d f3df 903c b8cd a0bd a62e ae3d
000003a0: 7e11 d93d 6025 1c3c 3fbf 10be 56e3 163d
000003b0: 37cb 343e 14b0 9f3e 3c8f 0d3d 3d3e d83d
000003c0: a86d d33d 1347 7c3c c381 16be 9320 a23e
000003d0: fe0f 07bd 538b b5bd 7a74 e13d 465a 9fbe
000003e0: ef0e 8c3e 2ab3 163e 4b37 d7bd 0c1a acbd
000003f0: 6340 083e d014 3cbc c365 393e 5387 0f3e
0.05896907 -0.045133743 -0.01436491 0.22332816 -0.18929978 -0.1269395 -0.016434705 -0.103214145
-0.056303557 0.1079653 -0.13067111 -0.14373064 0.062862284 0.019882081 -0.06651384 0.2992214
-0.13413084 0.022787483 -0.091369405 -0.14222442 0.043512955 -0.14246555 0.070297405 0.09896461
0.010839274 -0.11565424 -0.0864108 0.17105877 0.20890662 -0.08433771 0.18244833 -0.10133444
-0.06135462 0.18546166 0.14801759 0.068102956 -0.10342799 -0.058151204 -0.033306934 -0.030136125
-0.11889467 -0.09909771 -0.24522583 0.05130234 -0.12439453 -0.089915484 -0.10576199 -0.073155336
-0.010347734 0.17634588 -0.013327988 -0.013896686 -0.06565901 0.23463847 -0.031430647 0.07029898
0.05710801 -0.09947217 -0.0082017565 0.054342136 -0.078712806 -0.1532976 -0.0014022749 0.049489476
-0.14825946 0.2670402 -0.05310709 0.049419887 -0.03739004 -0.10192379 -0.0196526 -0.1096827
0.073962286 0.09954835 -0.06586365 -0.17037734 -0.055835728 0.23159692 0.18289897 -0.12165186
0.07432985 -0.05204014 -0.021098323 0.20504533 0.012600152 0.09460916 -0.060201224 -0.07954402
-0.0849205 0.02218404 0.045558635 -0.068151094 -0.20780861 0.14203669 0.046019904 -0.02694474
-0.15725788 -0.1284037 0.12480997 0.1472401 -0.072518066 -0.10633332 -0.006862383 0.0961879
0.023137115 0.01981561 -0.1419354 -0.10595857 0.06485782 0.017387878 -0.020816213 -0.12759143
-0.06509636 0.13023707 -0.17066348 0.27513966 0.07828073 0.016652552 0.02799149 -0.034850333
-0.02286132 -0.0977632 0.039147664 0.037340827 -0.15421426 -0.16099556 0.09460523 0.2676402
0.17265315 -0.11502724 -0.0046049673 0.012356637 0.024646543 0.13105433 -0.08274377 0.08404932
0.09832404 -0.0021369562 -0.107671164 0.100816146 0.10214991 -0.08125496 -0.1739713 0.24576937
-0.04992157 -0.026595213 -0.102242984 -0.18866488 0.23888627 0.12031346 -0.108903535 -0.016951067
0.013552139 -0.0052847913 0.07794964 0.005713689 0.080137424 -0.06324451 -0.015368955 0.08389512
0.009634495 -0.05751139 -0.06668099 0.059584945 -0.11508188 0.2634671 0.19539484 -0.07570873
0.09417986 0.0151199605 -0.049931023 -0.048999537 0.0016322917 0.10815624 -0.22585295 -0.15765035
-0.036643613 0.22983451 0.10044257 -0.054458 0.05164729 0.06580582 0.047411155 -0.0069052177
-0.13281572 0.061792314 0.13150461 0.12623428 -0.10614448 0.1303184 0.11455904 -0.06637451
-0.16171867 0.2953125 0.07814089 -0.08282811 -0.023647198 -0.2600547 0.29457262 0.07673695
-0.09694482 -0.11256165 0.025244601 -0.122556314 0.08582104 -0.09136181 -0.11942007 0.0014943238
0.040899247 0.1362643 -0.009935927 0.02900454 -0.046460323 -0.09077239 -0.050966334 0.1465432
0.2605082 -0.09857012 0.09325279 0.0486603 -0.08493445 -0.018931849 -0.015436927 0.080012836
-0.1733112 -0.09434122 0.091168776 0.12676363 0.08230352 0.017684912 -0.07851738 0.08504991
0.105990395 0.009530395 -0.14135455 0.0368379 0.17655645 0.31189024 0.034560427 0.10558746
0.1032365 0.015397805 -0.14697938 0.31665477 -0.032974236 -0.088644646 0.11008544 -0.3112356
0.27355143 0.14716783 -0.10508593 -0.084034055 0.13305812 -0.011479571 0.18105225 0.14016466

bias f4 [90]
00000000: b3a2 38b9 8246 b33a c154 d03c a792 a73c
00000010: 1948 4a3c e8fd 93bc 4a42 463b ffc3 173d
00000020: a480 fd3c d7be 5d3d 0306 8f3d d9f0 9e3d
00000030: c354 6f3d b0f1 443d 82e8 2b3d 4fa8 693d
00000040: f621 453d 8ac9 563d 9b42 793d f375 5b3d
00000050: 3fb6 963d 7754 533d 7fa7 633d 6ea8 403d
00000060: 6c83 963d 2caa 4c3d 09e3 523d e95c 493d
00000070: fd9a b13c 0637 6f3c ce4c 8a3c e700 a8bb
00000080: 18a8 1e3c e350 533c 548c 0d3b abe9 bc3a
00000090: f0c9 48bc 1068 7ebc 3b76 a9bb e0f8 6abc
000000a0: 5d3a 4ebc b633 edbc 5a00 07bd 536f 5abd
000000b0: b7ca 41bd 47f4 8cbc 9cbc 5d3c e79a c63c
000000c0: 93d5 1d3c 05f4 55bc 4a68 eebc 90f3 1dbd
000000d0: e5ee 24bb 8d2b 2f3c 514d 173c f7d8 d03c
000000e0: 18ed 80bb 786e f0bb e2ca 0bbc fd5e 7e3b
000000f0: 6017 2a3b 414e 853c dd10 183c 5f02 5d3c
00000100: 8d48 94bc 6c84 a8bc cd26 3f3c 7048 5c3c
00000110: c1ff f03c 36d9 2f3c e8f1 993b 673d 1bbc
00000120: 6010 0dbb 6f71 9c3c 287b 913c 9183 0b3d
00000130: ac0e ac3c 92b4 783c 2a13 50bc 7270 f63b
00000140: 1650 473b a02d 1c3c c548 ef3c 091c c43c
00000150: b935 c93c 1977 f23c 3331 5d3c bf9b 00bc
00000160: 79d0 88bc 9d99 f63b
-0.00017608218 0.0013677629 0.025431039 0.020455671 0.012346291 -0.018065408 0.0030251914 0.03705215
0.03094513 0.054137077 0.069835685 0.07760782 0.058430444 0.048082054 0.041969784 0.057045277
0.04812809 0.052438296 0.060854536 0.053579282 0.073589794 0.051594224 0.05557966 0.047035627
0.073492855 0.049966976 0.05148605 0.04916087 0.02168035 0.014600521 0.016882326 -0.0051270607
0.009683631 0.012897703 0.0021598535 0.00144129 -0.012255177 -0.01552774 -0.005171565 -0.014341563
-0.012587157 -0.028955322 -0.03295932 -0.053328823 -0.047312465 -0.017206324 0.0135337375 0.024243785
0.00963344 -0.013058667 -0.029102463 -0.038562357 -0.0025166806 0.010691536 0.009234742 0.025494082
-0.003934514 -0.0073373877 -0.008532258 0.0038813942 0.0025953874 0.016272666 0.009281364 0.013489335
-0.018101001 -0.020570956 0.011666966 0.013445005 0.029418828 0.0107329395 0.004698027 -0.009475089
-0.0021524653 0.019097058 0.01775892 0.03406102 0.02100309 0.01517977 -0.012699882 0.0075207287
0.0030412725 0.009532362 0.029209504 0.02393915 0.02456175 0.029597806 0.0135005 -0.007849633
-0.01670097 0.0075256363
