checkpoints/lstm/ANN_o_45.pt (torch, 435724 bytes, 8 tensors)

weight f4 [200, 400]
-0.031321056 -0.060657043 -0.07062248 -0.0038454216 -0.04231537 0.048969004 0.052026518 0.028825907
-0.063742444 -0.05777445 -0.005345934 -0.016403489 -0.038442273 0.020854687 -0.0038914883 0.0060910084
-0.035761785 -0.07803172 -0.07286861 -0.012562668 -0.03222587 0.026555482 0.023052813 0.04324139
-0.0055510905 -0.037508007 -0.0015405085 -0.052435864 -0.06674737 -0.03447751 0.0381987 0.024791233
0.02033259 -0.056627046 -0.044204615 -0.019414747 0.03779932 -0.04237412 -0.028489918 -0.044521935
0.009824324 -0.09263509 -0.0017188363 0.029892143 0.004965554 -0.04666158 0.039417367 -0.026720865
-0.0509034 -0.033308756 -0.0333679 -0.037697565 0.04505026 -0.015719041 -0.031478066 0.0096398415
-0.026126334 -0.06486437 -0.01815186 -0.022729589 0.04548976 -0.043760836 0.017563919 0.0268716
-0.043362994 -0.026565183 -0.0072991005 -0.06660528 0.016950835 0.04479548 -0.004216013 -0.036612567
-0.0016484982 -0.014049965 0.000431874 0.014219556 0.057303134 0.025234787 -0.014423627 -0.012002551
-0.05539503 -0.057603203 0.0072399154 -0.008976621 0.017824968 -0.0048467116 0.038856614 0.04168381
0.03185722 -0.046061423 -0.08742594 -0.055433434 0.024053037 0.016171692 -0.015300898 0.04627433
0.023952924 -0.013763182 -0.00065155263 0.024262529 -0.055438623 -0.020254117 -0.028853197 -0.025687816
0.0091790855 -0.04188058 -0.05717113 0.04118506 0.0071439883 0.021555265 -0.035562504 -0.034509316
-0.030059066 -0.037670515 -0.05693397 0.038497698 0.01357653 0.025945982 -3.2300068e-05 -0.047319148
-0.030864347 -0.13166067 -0.02764818 0.008868513 0.0016073042 0.034140818 0.02200664 -0.015188591
0.013888853 -0.10676565 -0.027299765 0.017177837 -0.0046549 -0.017024899 0.024719818 -0.042330097
0.064729124 -0.05136729 -0.072884806 0.05109289 -0.0020034988 0.03284122 0.028691785 0.01136096
-0.02504635 -0.07893398 -0.05692819 0.057618733 -0.057265695 -0.019620268 0.054607194 0.00781808
0.012495779 -0.09553631 0.025793202 0.026869398 -0.025239782 0.04038377 0.0070365756 0.0030191266
-0.0007638009 -0.11434965 0.021749131 0.016593581 -0.033817485 -0.031126423 0.060173403 -0.014568101
0.04949655 -0.049224228 0.023442043 0.06275602 -0.018020919 0.017527282 0.018316107 -0.0048690503
0.08251729 -0.11184092 -0.010044361 0.069271006 0.01002966 -0.030175423 -0.027773842 -0.017126072
0.03806111 -0.046959613 -0.004262599 0.053893726 0.010800426 0.056803044 0.0014630412 0.032497965
-0.022574164 -0.10311368 0.01838663 -0.0042215376 0.06057947 -0.009374545 -0.03314509 0.013021747
0.0502219 -0.10335 -0.03789055 0.019185113 -0.017864812 0.045787286 -0.029075414 0.0002661432
-0.01622424 -0.048625335 0.018454181 -0.0023023938 -0.03027004 0.0240788 0.0030173156 -0.04891213
-0.048055947 -0.07218865 0.0079529425 0.010118543 -0.0825629 0.034893114 -0.028899046 0.032364476
-0.022324277 -0.0704244 -0.0407571 -0.012701465 -0.03450708 -0.040685754 0.020316917 -0.0019039924
-0.024027009 -0.0822384 -0.020163504 -0.06574009 -0.0029437006 0.06421657 -0.014465304 0.016869646
0.025190651 -0.024542646 -0.021212809 -0.008437087 -0.03473943 0.03590422 0.011146746 0.024266697
0.031522773 -0.069595106 -0.038573444 -0.024914905 -0.05683053 -0.0147607485 -0.00034539055 -0.0069267727
00000000: 824a 00bd 8573 78bd 85a2 90bd 7803 7cbb
00000010: e252 2dbd b993 483d c219 553d 4f24 ec3c
00000020: 668b 82bd e7a4 6cbd f22c afbb 9c60 86bc
00000030: a575 1dbd 73d7 aa3c 5708 7fbb 1597 c73b
00000040: f37a 12bd 18cf 9fbd 233c 95bd a6d3 4dbc
00000050: 46ff 03bd e28a d93c 41d9 bc3c e21d 313d
00000060: ece5 b5bb ffa1 19bd e3ea c9ba fdc6 56bd
00000070: d8b2 88bd 4a38 0dbd 3d76 1c3d fc16 cb3c
00000080: 8890 a63c c3f1 67bd e60f 35bd ad0b 9fbc
00000090: 76d3 1a3d 7c90 2dbd b063 e9bc a25c 36bd
000000a0: 34f6 203c 77b7 bdbd 934a e1ba 5ee0 f43c
000000b0: 16b6 a23b 3720 3fbd 1b74 213d b7e5 dabc
000000c0: 1580 50bd c36e 08bd c7ac 08bd c368 1abd
000000d0: 9f86 383d 38c5 80bc 25ef 00bd 6df0 1d3c
000000e0: e506 d6bc 9cd7 84bd 36b3 94bc 6733 babc
000000f0: 7853 3a3d 903e 33bd 35e2 8f3c d421 dc3c
00000100: 659d 31bd 3a9f d9bc 4b2d efbb 5968 88bd
00000110: 7adc 8a3c 777b 373d 7b26 8abb 0ff7 15bd
00000120: 6c12 d8ba d331 66bc 266d e239 24f9 683c
00000130: b1b6 6a3d 2fb9 ce3c 1451 6cbc 59a6 44bc
00000140: e6e5 62bd 56f1 6bbd d03c ed3b ad12 13bc
00000150: ab05 923c 2ad1 9ebb 1d28 1f3d a5bc 2a3d
00000160: b77c 023d e7aa 3cbd 5f0c b3bd 2b0e 63bd
00000170: e00a c53c 7f7a 843c 9eb0 7abc 278a 3d3d
00000180: ec38 c43c f87e 61bc f5cc 2aba 36c2 c63c
00000190: 9c13 63bd f6eb a5bc 8a5d ecbc 416f d2bc
000001a0: e063 163c f98a 2bbd 462c 6abd aab1 283d
000001b0: 1e18 ea3b ab94 b03c fda9 11bd a459 0dbd
000001c0: 6e3e f6bc 664c 1abd 9833 69bd c3af 1d3d
000001d0: 1870 5e3c ab8c d43c ef79 07b8 b9d1 41bd
000001e0: 3ad7 fcbc 0ed2 06be 707e e2bc 3d4d 113c
000001f0: 2eac d23a 3ed7 0b3d 4547 b43c 91d9 78bc
00000200: 128e 633c f3a7 dabd c2a3 dfbc 89b8 8c3c
00000210: 2288 98bb cd77 8bbc 3781 ca3c 5362 2dbd
00000220: b490 843d 8266 52bd a144 95bd c746 513d
00000230: 224d 03bb 8484 063d 090b eb3c 5223 3a3c
00000240: 012e cdbc 23a8 a1bd 892d 69bd 9f01 6c3d
00000250: 6f8f 6abd afba a0bc cbab 5f3d 6717 003c
00000260: 19bb 4c3c 8aa8 c3bd 444c d33c 361d dc3c
00000270: a9c3 cebc 7469 253d 1393 e63b 8adc 453b
00000280: d039 48ba 2630 eabd 3c2b b23c 43ef 873c
00000290: 3484 0abd d7fc febc 6378 763d 0baf 6ebc
000002a0: e5bc 4a3d 589f 49bd 8709 c03c 3a86 803d
000002b0: 9ba0 93bc 6095 8f3c a90b 963c 8e8c 9fbb
000002c0: d3fe a83d da0c e5bd 1b91 24bc f5dd 8d3d
000002d0: 7153 243c 7332 f7bc f885 e3bc fa4b 8cbc
000002e0: f7e5 1b3d b958 40bd 46ad 8bbb abbf 5c3d
000002f0: 45f4 303c 4faa 683d 84c3 bf3a 961c 053d
00000300: 74ed b8bc 442d d3bd 8f9f 963c d354 8abb
00000310: 2e22 783d b197 19bc 25c3 07bd 2a59 553c
00000320: 7bb5 4d3d 2aa9 d3bd 1f33 1bbd 192a 9d3c
00000330: 3a59 92bc 738b 3b3d 902f eebc 2389 8b39
00000340: b3e8 84bc 5c2b 47bd 392d 973c c2e3 16bb
00000350: e0f8 f7bc e740 c53c 28be 453b 1658 48bd
00000360: 50d6 44bd a5d7 93bd 0f4d 023c 3fc8 253c
00000370: bd16 a9bd 15ec 0e3d b1bd ecbc 9d90 043d
00000380: 67e1 b6bc ab3a 90bd ebf0 26bd ce19 50bc
00000390: 4c57 0dbd 1ba6 26bd aa6f a63c 628f f9ba
000003a0: 4ad4 c4bc 9b6c a8bd ef2d a5bc bea2 86bd
000003b0: 1aeb 40bb fa83 833d e2ff 6cbc 3632 8a3c
000003c0: a05c ce3c a90d c9bc 7cc6 adbc b53b 0abc
000003d0: ef4a 0ebd 4e10 133d d7a0 363c f4ca c63c
000003e0: 061e 013d e187 8ebd 30ff 1dbd 581a ccbc
000003f0: 21c7 68bd 11d7 71bc 8915 b5b9 fbf9 e2bb

bias f4 [200]
-0.033526324 -0.057153665 -0.0020966015 -0.029571893 0.08745169 0.059524477 0.038086355 -0.050598107
-0.0836208 -0.083253264 -0.04006388 -0.062485654 -0.0066177184 0.09694768 -0.029092055 0.0324292
-0.031612597 0.13587642 0.03652459 -0.025846599 -0.06899129 0.011965676 -0.032721568 0.056135733
-0.020779762 0.04608612 -0.0045757587 -0.053366177 -0.061886393 0.0028893542 -0.051349744 -0.037529323
-0.03404394 0.10898857 -0.02510355 0.15952858 -0.20274332 -0.018139476 -0.032665785 0.08110808
0.10352442 -0.01833043 0.022024518 0.11581673 0.15432577 -0.0013492826 -0.014033118 0.1075886
-0.1000791 0.11254329 0.098522745 -0.13608089 0.011112529 0.069111876 0.014656193 0.0467188
0.019017242 0.034888864 -0.0329109 -0.03845011 0.1357537 0.025157884 0.04216981 -0.082619175
0.033859175 0.015036901 -0.068497986 -0.10741264 0.01927115 0.040873364 -0.051618516 -0.04001261
-0.02592784 -0.060454015 -0.016882874 0.024599817 -0.11748112 -0.043092523 0.03962851 -0.03987342
0.10010583 -0.008678201 -0.04300287 0.024353586 0.039968133 0.026554413 -0.026243811 -0.0030222705
0.025761932 0.052071117 0.08354062 0.06626529 0.00991758 -0.022815589 -0.052974507 0.020414922
-0.005337782 0.12323619 -0.007036494 0.0055530937 -0.13667251 -0.011810368 -0.0364866 0.07953477
0.028015368 -0.058666512 -0.11869394 -0.01927377 0.15942186 0.03406783 -0.032088738 0.029113203
-0.056190867 -0.029461319 0.13286519 -0.076675415 -0.019646443 -0.10808172 -0.054920316 -0.010058169
0.029913481 -0.039224498 0.017355409 0.07304529 0.019547708 -0.050766625 0.09672281 0.04281158
-0.18010506 0.030071579 -0.07124756 -0.0415222 -0.028142706 -0.17409119 -0.06300188 0.06669094
-0.016450938 -0.004857473 -0.006631814 -0.027501233 0.0198736 0.101879 0.0619583 -0.047031764
0.07744118 -0.023305519 -0.09061998 0.03343828 -0.040169373 -0.079455234 -0.0027215832 0.027679626
-0.1798766 -0.021509578 0.10026523 0.051355112 0.027146012 -0.07207297 0.07498817 0.02783315
0.041695584 -0.0031964765 -0.02667692 0.078455284 0.08384641 0.000211333 -0.057384945 -0.035553843
0.0038646837 0.027448274 0.04274703 -0.06455286 0.036777765 0.031399168 -0.01831734 0.011732301
0.030767914 -0.065419845 -0.053315245 0.030201638 -0.15250686 -0.07336657 0.17704801 0.000913486
-0.06086628 -0.054087132 0.014598199 -0.0019193862 -0.0046568345 -0.05517257 -0.069680266 -0.0444802
0.0077903583 -0.049567163 0.016323669 -0.018510306 -0.015797501 -0.012911562 0.01802981 0.07286442
00000000: e652 09bd f619 6abd 2367 09bb c140 f2bc
00000010: df19 b33d f0cf 733d 7000 1c3d f63f 4fbd
00000020: 6241 abbd b080 aabd 061a 24bd f5f0 7fbd
00000030: 72d9 d8bb 818c c63d 7652 eebc 7bd4 043d
00000040: 367c 01bd 3023 0b3e cf9a 153d 3fbc d3bc
00000050: 4e4b 8dbd af0b 443c 0d07 06bd 95ee 653d
00000060: 523a aabc cdc4 3c3d 3ff0 95bb 7e96 5abd
00000070: 967c 7dbd 525b 3d3b 1c54 52bd 59b8 19bd
00000080: a971 0bbd 6635 df3d f6a5 cdbc 765b 233e
00000090: f29b 4fbe 3d99 94bc 8fcc 05bd fe1b a63d
000000a0: 9c04 d43d b329 96bc c36c b43c 5231 ed3d
000000b0: 9307 1e3e 69da b0ba 2aeb 65bc 6957 dc3d
000000c0: 45f6 ccbd 197d e63d 4bc6 c93d ca58 0bbe
000000d0: 5311 363c 878a 8d3d 8720 703c 365c 3f3d
000000e0: 0cca 9b3c a0e7 0e3d 94cd 06bd dd7d 1dbd
000000f0: 0503 0b3e e817 ce3c 40ba 2c3d 3e34 a9bd
00000100: ebaf 0a3d 565d 763c ac48 8cbd 28fb dbbd
00000110: 88de 9d3c d46a 273d f06d 53bd 43e4 23bd
00000120: 9f66 d4bc a19e 77bd f44d 8abc 8e85 c93c
00000130: f199 f0bd c981 30bd 8151 223d 5052 23bd
00000140: 4904 cd3d 032f 0ebc c723 30bd 2c81 c73c
00000150: a0b5 233d a488 d93c 43fd d6bc 4911 46bb
00000160: b00a d33c 8648 553d 5817 ab3d 19b6 873d
00000170: 587d 223c c2e7 babc ccfb 58bd 323d a73c
00000180: 90e8 aebb 4163 fc3d 6492 e6bb baf6 b53b
00000190: e1f3 0bbe 4680 41bc f972 15bd 20e3 a23d
000001a0: 7c80 e53c 4c4c 70bd cf15 f3bd 06e4 9dbc
000001b0: 7c3f 233e b58a 0b3d 7b6f 03bd d07e ee3c
000001c0: 6528 66bd dd58 f1bc d00d 083e 0008 9dbd
000001d0: 94f1 a0bc f359 ddbd 20f4 60bd 05cb 24bc
000001e0: 1e0d f53c dea9 20bd ee2c 8e3c c598 953d
000001f0: 8422 a03c aaf0 4fbd 9c16 c63d 325b 2f3d
00000200: 766d 38be ac58 f63c 3eea 91bd 2f13 2abd
00000210: 888b e6bc f644 32be 2107 81bd 4295 883d
00000220: 1ec4 86bc 702b 9fbb b04f d9bb 444a e1bc
00000230: f6cd a23c f0a5 d03d fdc7 7d3d 61a4 40bd
00000240: 7b99 9e3d 37eb bebc f896 b9bd 94f6 083d
00000250: a488 24bd 6db9 a2bd 975c 32bb 62c0 e23c
00000260: 9231 38be db34 b0bc db57 cd3d bd59 523d
00000270: 5061 de3c fe9a 93bd 6693 993d 5902 e43c
00000280: fdc8 2a3d fa7b 51bb 8e89 dabc 2aad a03d
00000290: abb7 ab3d 4599 5d39 7a0c 6bbd e8a0 11bd
000002a0: a246 7d3b 34db e03c 8217 2f3d 4a34 84bd
000002b0: 48a4 163d 6a9c 003d 3f0e 96bc d638 403c
000002c0: fe0c fc3c d7fa 85bd 1661 5abd 6d69 f73c
000002d0: c22a 1cbe 3641 96bd 134c 353e 0277 6f3a
000002e0: ec4e 79bd 788a 5dbd 492d 6f3c ea93 fbba
000002f0: 5c98 98bb a2fc 61bd 87b4 8ebd df30 36bd
00000300: 4346 ff3b f006 4bbd 37b9 853c eda2 97bc
00000310: c369 81bc 048b 53bc 41b3 933c f139 953d

weight f4 [100, 200]
0.039992556 0.007199784 -0.075703435 -0.016005771 0.044259712 -0.034796156 0.061144393 -0.038896985
-0.031134417 0.035993323 -0.073329456 -0.07622965 -0.06417411 -0.04689531 -0.025314191 -0.063920684
-0.00232225 0.011316213 -0.035673816 -0.018578054 -0.036868136 0.05955047 -0.0049031456 -0.054757457
-0.039436817 -0.07346209 0.06951789 0.06141348 -0.067133665 -0.00634601 0.039580587 0.052622348
0.046019774 0.0045951772 -0.018510088 0.05057678 0.05215665 0.05746088 0.043841187 0.005738188
0.0783968 -0.026684528 -0.010094365 0.023588747 -0.0055979025 0.03297432 -0.009190654 0.04550638
-0.0112451585 0.011263655 0.04913457 0.06953602 -0.010352557 -0.008437866 0.05314555 -0.0763382
-0.07911691 0.01990874 -0.016687967 -0.04486147 -0.05257743 0.022660717 -0.0032152906 -0.032935034
0.036794033 0.0065892725 -0.06905705 0.019961538 0.023289157 -0.003875229 0.007819745 -0.072522655
-0.026917236 -0.059133556 0.00037214984 -0.07086503 -0.030415524 0.05359031 -0.008951719 0.053877287
0.027799182 -0.012936148 0.04197509 0.055669002 0.00882871 -0.04708064 -0.014297401 -0.0076529155
-0.06972504 -0.054205548 -0.08198221 -0.07193506 -0.02582738 -0.07309818 -0.01625793 -0.020710386
0.052751623 -0.05964364 -0.0513263 -0.0314183 -0.020432012 -0.036809247 -0.0601102 -0.076904014
0.0033873087 -0.051846303 -0.067109 0.032426465 -0.034905408 -0.047870714 0.013668088 0.06853943
-0.027214421 0.008591281 -0.07105863 -0.054808054 0.0011759999 -0.017574793 -0.007299067 0.066721454
-0.06181898 -0.00967032 0.018030997 -0.065797806 -0.041743368 -0.060309168 0.036227282 -0.062522486
0.033573598 0.011184562 -0.025990529 0.03698327 -0.065175965 -0.006727304 -0.07917515 -0.003967989
0.038547155 -0.06946656 0.056203768 -0.018224915 0.027941227 -0.008429645 0.009765082 -0.061580848
-0.01116708 -0.048959516 -0.07790045 -0.026886813 0.039279774 -0.055430762 0.048697025 -0.03876918
0.023079813 -0.07404863 0.031532723 -0.07225404 0.058907196 -0.051707894 -0.025070855 0.009464791
0.056207106 0.0015371209 0.026129112 0.05866509 0.003647038 -0.061914053 0.01945814 0.03580923
-0.019417694 -0.02751574 0.0057867314 -0.016393667 -0.040816214 -0.10971128 -0.018745132 0.060721826
-0.06252249 -0.08939876 0.023872828 -0.06491682 0.02285824 0.02315655 0.051679835 0.046312228
-0.037511494 -0.030196069 -0.058746155 -0.011812148 -0.016028954 -0.06756847 -0.05250939 0.04011259
-0.0287447 0.027215064 0.030238748 0.0018788055 -0.08264487 -0.04572153 -0.015642652 -0.0015428261
0.045338947 -0.11484254 0.067133315 -0.06159811 0.046389695 0.06010744 -0.015538567 0.02979708
-0.047214027 0.07217926 -0.09838515 -0.12940258 0.06606786 0.10777632 0.06960526 0.0578104
-0.16819146 -0.124776736 0.14379415 0.06905053 0.010886027 0.066500634 -0.070020154 -0.11130586
0.041309994 -0.08048937 0.019404031 -0.03661377 -0.08314439 -0.38569713 -0.05233173 -0.046388306
-0.04917079 0.12595522 -0.0031747487 -0.0022242148 0.14486772 0.06707239 0.032392036 0.026945837
0.013531707 -0.0033585508 -0.055328187 0.06487147 0.17200457 0.080342986 -0.18163158 0.12513925
-0.01275182 -0.32306737 -0.009464079 0.04742318 -0.08144975 -0.19677919 0.015862439 0.017204754
00000000: 3ccf 233d 2aec eb3b 670a 9bbd 891e 83bc
00000010: ac49 353d 6a86 0ebd 8b72 7a3d 7252 1fbd
00000020: 9b0d ffbc bc6d 133d c12d 96bd 4a1e 9cbd
00000030: b76d 83bd 4c15 40bd b55f cfbc d9e8 82bd
00000040: e430 18bb a367 393c b51e 12bd 0131 98bc
00000050: 0b03 17bd 32eb 733d 91aa a0bb 5b49 60bd
00000060: 8088 21bd 4b73 96bd 655f 8e3d b48c 7b3d
00000070: 607d 89bd 31f2 cfbb 411f 223d 888a 573d
00000080: 3b7f 3c3d 2493 963b 78a2 97bc 9929 4f3d
00000090: 36a2 553d 1a5c 6b3d d192 333d 6907 bc3b
000000a0: 808e a03d 8399 dabc d662 25bc 303d c13c
000000b0: 9c6e b7bb 1510 073d 6694 16bc e664 3a3d
000000c0: 9d3d 38bc 318b 383c 5541 493d e768 8e3d
000000d0: c59d 29bc fa3e 0abc 26af 593d 3457 9cbd
000000e0: 0c08 a2bd a717 a33c 34b5 88bc a9c0 37bd
000000f0: 6e5b 57bd f8a2 b93c a0b7 52bb e3e6 06bd
00000100: 57b5 163d d3ea d73b c86d 8dbd 6186 a33c
00000110: e7c8 be3c 8ef7 7dbb 631e 003c c286 94bd
00000120: 8981 dcbc 0736 72bd 1b1d c339 af21 91bd
00000130: fa29 f9bc 8381 5b3d 3baa 12bc 6eae 5c3d
00000140: 1cbb e33c 23f2 53bc 12ee 2b3d 2e05 643d
00000150: 4ba6 103c a1d7 40bd a53f 6abc 4fc5 fabb
00000160: 00cc 8ebd a306 5ebd 4ae6 a7bd b052 93bd
00000170: f193 d3bc 80b4 95bd 5a2f 85bc d4a8 a9bc
00000180: 1612 583d e44c 74bd 873b 52bd 7ab0 00bd
00000190: 0961 a7bc 4bc5 16bd 1d36 76bd da7f 9dbd
000001a0: 9cfd 5d3b ca5c 54bd 7270 89bd 9dd1 043d
000001b0: f9f8 0ebd 1514 44bd 1ef0 5f3c 675e 8c3d
000001c0: c7f0 debc 72c2 0c3c 3087 91bd 697e 60bd
000001d0: 0224 9a3a 03f9 8fbc 032d efbb 42a5 883d
000001e0: e635 7dbd 4370 1ebc beb5 933c 00c1 86bd
000001f0: 18fb 2abd bf06 77bd 0f63 143d ca0b 80bd
00000200: 7884 093d 743f 373c 17ea d4bc c57b 173d
00000210: fa7a 85bd b770 dcbb 9526 a2bd e705 82bb
00000220: 9fe3 1d3d 7c44 8ebd ec35 663d 6b4c 95bc
00000230: 00e5 e43c 7e1c 0abc b9fd 1f3c 333c 7cbd
00000240: 21f6 36bc c689 48bd 458a 9fbd bc41 dcbc
00000250: d4e3 203d 5e0b 63bd 8876 473d 6fcc 1ebd
00000260: e011 bd3c cfa6 97bd 7528 013d edf9 93bd
00000270: ac48 713d a8cb 53bd 6561 cdbc 3612 1b3c
00000280: 6c39 663d 3879 c93a b80c d63c ce4a 703d
00000290: 2503 6f3b 9799 7dbd ad66 9f3c b3ac 123d
000002a0: db11 9fbc b068 e1bc 9f9e bd3b 034c 86bc
000002b0: e72e 27bd 4fb0 e0bd 648f 99bc 73b7 783d
000002c0: cb0b 80bd b216 b7bd f390 c33c 1cf3 84bd
000002d0: 3441 bb3c ceb2 bd3c 3cae 533d e4b1 3d3d
000002e0: a7a5 19bd bf5d f7bc cf9f 70bd bd87 41bc
000002f0: 274f 83bc 5761 8abd 1614 57bd 194d 243d
00000300: 017a ebbc 20f2 de3c 40b7 f73c 4042 f63a
00000310: b741 a9bd 8046 3bbd 0525 80bc a738 caba
00000320: 55b5 393d 9132 ebbd 317d 893d 4d4e 7cbd
00000330: 1f03 3e3d 3833 763d 7995 7ebc 0219 f43c
00000340: 7f63 41bd b8d2 933d 277e c9bd 1c82 04be
00000350: 964e 873d d5b9 dc3d 348d 8e3d 99ca 6c3d
00000360: 623a 2cbe f28a ffbd c63e 133e 5d6a 8d3d
00000370: 4e5b 323c 7c31 883d ba66 8fbd 54f4 e3bd
00000380: ab34 293d 9cd7 a4bd 34f5 9e3c 52f8 15bd
00000390: 9b47 aabd 187a c5be cc59 56bd aa01 3ebd
000003a0: 4f67 49bd 68fa 003e 720f 50bb 22c4 11bb
000003b0: 3458 143e 405d 893d 83ad 043d 84bd dc3c
000003c0: 18b4 5d3c 221b 5cbb cf9f 62bd 55db 843d
000003d0: f721 303e dd8a a43d a1fd 39be 8124 003e
000003e0: 02ed 50bc 1669 a5be 390f 1bbc cf3e 423d
000003f0: 20cf a6bd 7c80 49be f2f1 813c fcf0 8c3c

bias f4 [100]
-0.08600245 -0.07751632 -0.052299872 -0.008520119 0.052945193 -0.009907606 -0.094164215 -0.00026084567
0.021450572 -0.026569791 -0.07261862 -0.022335218 -0.036968935 -0.03830821 0.1630779 0.038567867
-0.09072383 0.05438704 0.009575617 0.0231406 -0.06390603 0.00841415 0.10061876 -0.06964243
0.0687473 -0.04489261 -0.020577766 -0.0038248035 -0.030685598 0.02742435 0.04265458 0.033343967
0.01923467 0.10902319 -0.016080068 0.025751917 -0.07020533 0.024729714 -0.03714397 0.0043185656
0.0028129471 -0.005012314 0.006845852 -0.039047647 -0.083964005 0.09238545 -0.0057766456 0.025620382
0.06797245 0.18061082 0.058364052 -0.010854488 0.033391327 -0.060634054 -0.084954515 0.07934232
0.07985795 0.1570872 -0.07952709 0.037435584 -0.07700469 -0.0056607253 0.029291632 -0.022812732
-0.11432699 -0.07845866 -0.047436036 -0.04688417 0.114360064 0.016036024 0.0739432 0.06820796
-0.00957458 0.036872234 0.038144477 0.026032608 -0.06148054 0.15751037 -0.019447595 0.06504286
-0.024306148 0.013441562 0.047638394 -0.027235636 0.02482716 0.018358702 -0.105552964 -0.03787561
-0.013149107 0.09254024 -0.012723634 -0.007870711 -0.018948715 0.029534828 0.0020249062 0.033057287
-0.08758518 0.032797296 -0.03131279 -0.05629339
00000000: 0d22 b0bd e0c0 9ebd 6438 56bd f897 0bbc
00000010: 0fdd 583d 8353 22bc 2bd9 c0bd 1dc2 88b9
00000020: 1cb9 af3c e4a8 d9bc 12b9 94bd 59f8 b6bc
00000030: bd6c 17bd 12e9 1cbd e5fd 263e 57f9 1d3d
00000040: 6acd b9bd f2c4 5e3d 0ce3 1c3c 5b91 bd3c
00000050: 2ae1 82bd 81db 093c 3511 ce3d b1a0 8ebd
00000060: 62cb 8c3d 50e1 37bd b492 a8bc 8ea9 7abb
00000070: 5d60 fbbc 08a9 e03c 92b6 2e3d af93 083d
00000080: 0792 9d3c 8d47 df3d 59ba 83bc aff5 d23c
00000090: d0c7 8fbd f895 ca3c 4724 18bd c182 8d3b
000000a0: 6c59 383b 563e a4bb 2b53 e03b 6df0 1fbd
000000b0: 52f5 abbd 9534 bd3d 044a bdbb d6e1 d13c
000000c0: 2435 8b3d 0bf2 383e 250f 6f3d 06d7 31bc
000000d0: 58c5 083d 6a5b 78bd a2fc adbd 3a7e a23d
000000e0: 918c a33d 78db 203e 19df a2bd 0e56 193d
000000f0: a3b4 9dbd 9b7d b9bb 01f5 ef3c c4e1 babc
00000100: 4524 eabd efae a0bd 4a4c 42bd 9e09 40bd
00000110: 9c35 ea3d fb5d 833c 886f 973d 9db0 8b3d
00000120: b3de 1cbc 5707 173d 623d 1c3d 5642 d53c
00000130: 05d3 7bbd 664a 213e 9050 9fbc 3135 853d
00000140: b01d c7bc ff39 5c3c 7a20 433d 451d dfbc
00000150: 5462 cb3c fd64 963c 272c d8bd 7523 1bbd
00000160: 5a6f 57bc bd85 bd3d ca76 50bc 28f4 00bc
00000170: 563a 9bbc 06f3 f13c 4ab4 043b 1467 073d
00000180: dc5f b3bd 7556 063d d741 00bd e693 66bd

weight f4 [50, 100]
0.04816572 -0.18444487 -0.0042477353 0.0489554 0.018347448 -0.06966781 -0.0033610936 -0.10397852
-0.01698157 -0.031491287 0.029055849 -0.13007215 -0.09048707 0.034330968 0.096577 -0.057266086
-0.0801973 -0.037424464 0.046947025 -0.074823774 0.0019282558 -0.06457486 0.050652526 -0.043155946
0.0068944865 0.05296437 0.065400444 0.061849017 -0.09109924 -0.04794653 0.028517112 0.09010413
-0.074166566 0.163286 0.095269494 0.008147471 -0.04508928 0.15013877 -0.06502082 0.06951837
-0.06436221 0.085534744 0.06521778 0.041943513 -0.021839505 -0.050268985 0.06599657 -0.059038673
-0.035906512 -0.13038765 0.05349074 -0.07443866 0.038507476 -0.015016263 -0.0072115497 -0.16950287
0.05594845 0.09129026 0.049388636 -0.049282018 -0.027961444 -0.12614542 0.097494364 -0.01185639
0.11757558 -0.14321548 0.08546738 -0.016189178 0.06363618 -0.025483018 -0.101482876 0.026312143
-0.094293505 0.0040364573 0.04032629 0.0069793286 0.010459195 -0.041840307 0.0325272 0.025606545
-0.17146932 0.0471025 -0.07876159 -0.057935346 0.09710109 0.036289707 -0.031939417 0.061972566
0.0019749172 0.05644843 -0.0044051046 -0.05796409 -0.031127004 -0.1810801 0.0863061 -0.26981995
-0.08845039 0.08016429 0.092649125 0.02964012 -0.0023333426 0.039310228 -0.07109641 -0.22630931
-0.03561654 0.0941382 0.13576491 -0.32381448 -0.21087572 -0.25841993 -0.050041478 -0.149997
-0.02896675 -0.042664234 0.0048043784 0.12942901 0.09785935 0.10441133 0.22411563 -0.12370741
-0.05105705 0.10760882 -0.06436882 0.081394136 0.16068289 0.21352254 0.2853925 0.15801464
0.14663412 -0.10586262 0.14267188 -0.030415026 0.21115445 -0.21272762 -0.16916592 0.10866434
-0.30955973 0.17890345 -0.1435238 0.12198832 -0.2645107 -0.036899403 0.029701551 -0.011531177
-0.025542662 -0.048011642 0.03664981 0.21474704 0.041641932 -0.2500825 -0.104610436 -0.069411576
0.05733771 -0.036319975 0.038081657 0.24759574 0.027185082 -0.25626376 -0.042094894 0.093574315
-0.056338478 0.14494222 -0.07870257 0.05777446 -0.11964462 -0.13696218 0.036819782 -0.0108617805
0.065301 -0.023066737 0.03626773 0.11923676 0.06280613 -0.19073234 -0.23381735 -0.05370749
0.013507048 0.26734748 -0.13150859 0.12638396 0.05724077 -0.096396916 0.020321332 0.0022579376
0.055154886 0.083810724 -0.067029476 0.042734455 0.02199795 0.111512676 -0.0804898 0.06895448
0.07252402 -0.060086854 -0.41870436 -0.00717408 -0.019730574 -0.041745953 0.12940075 -0.030678406
-0.023814503 -0.4434447 0.00051877275 0.11135711 0.070746 0.037429113 -0.19738686 0.16437958
0.009360717 -0.19249645 0.03521612 -0.1144191 0.09488735 -0.029036202 0.26461354 0.15053806
-0.0751894 -0.052988656 0.18000202 -0.3056682 0.0034792097 0.06920636 0.25778884 0.051940665
0.13284992 0.09074995 0.03206097 -0.17845611 0.010196133 0.09451445 -0.018507924 0.06530394
-0.057201415 0.04774292 0.22462437 0.13573438 -0.040010825 -0.08186877 -0.32686752 0.100258365
-0.17327194 0.13261224 0.039919287 -0.14821044 -0.06501612 -0.10586433 0.05547653 -0.054876234
-0.13119632 -0.19778693 -0.24889678 0.07225194 0.0030425955 -0.069700375 0.08169117 -0.5072885
00000000: 6b49 453d 1edf 3cbe 9630 8bbb 7585 483d
00000010: 634d 963c ffad 8ebd cb45 5cbb b1f2 d4bd
00000020: ef1c 8bbc 02fd 00bd 8806 ee3c a231 05be
00000030: 4951 b9bd a19e 0c3d 2aca c53d d88f 6abd
00000040: 7b3e a4bd 654a 19bd 864b 403d 353d 99bd
00000050: 87bd fc3a d33f 84bd 0679 4f3d 4ac4 30bd
00000060: 25eb e13b 2bf1 583d abf0 853d 6555 7d3d
00000070: 3d92 babd 9563 44bd b89c e93c 8488 b83d
00000080: a4e4 97bd 7234 273e a71c c33d f87c 053c
00000090: 89af 38bd fabd 193e a329 85bd a65f 8e3d
000000a0: 56d0 83bd d72c af3d e690 853d f6cc 2b3d
000000b0: c3e8 b2bc dae6 4dbd 3629 873d 89d2 71bd
000000c0: b512 13bd 5784 05be 1b19 5b3d 4c73 98bd
000000d0: 04ba 1d3d c606 76bc dd4e ecbb 2992 2dbe
000000e0: 342a 653d 63f6 ba3d bd4b 4a3d f1db 49bd
000000f0: 660f e5bc 442c 01be 20ab c73d 4e41 42bc
00000100: 77cb f03d 14a7 12be 8609 af3d 2b9f 84bc
00000110: af53 823d c3c1 d0bc 41d6 cfbd 908c d73c
00000120: f41c c1bd 4244 843b 2e2d 253d dab2 e43b
00000130: 0b5d 2b3c be60 2bbd 3e3b 053d d1c4 d13c
00000140: a795 2fbe 8dee 403d c24d a1bd 9d4d 6dbd
00000150: f0dc c63d 84a4 143d e8d2 02bd f2d6 7d3d
00000160: 9d6d 013b 7836 673d b258 90bb c16b 6dbd
00000170: 0ffe febc 106d 39be 41c1 b03d d725 8abe
00000180: 7a25 b5bd 2d2d a43d d3be bd3d d6cf f23c
00000190: feea 18bb c303 213d ff9a 91bd a1bd 67be
000001a0: a6e2 11bd 87cb c03d f505 0b3e 03cb a5be
000001b0: ceef 57be 9e4f 84be 4bf8 4cbd d098 19be
000001c0: ad4b edbc b1c0 2ebd 0c6e 9d3b 0a89 043e
000001d0: 7c6a c83d 9bd5 d53d 917e 653e 505a fdbd
000001e0: 3221 51bd 0362 dc3d cdd3 83bd f8b1 a63d
000001f0: 0e8a 243e a7a5 5a3e f71e 923e 97ce 213e
00000200: 4127 163e 80ce d8bd 9418 123e ef28 f9bc
00000210: df38 583e 45d5 59be d539 2dbe 698b de3d
00000220: 9d7e 9ebe 7732 373e e7f7 12be 03d5 f93d
00000230: f26d 87be d423 17bd ab50 f33c 43ed 3cbc
00000240: d83e d1bc dba7 44bd 1c1e 163d a6e6 5b3e
00000250: bb90 2a3d d00a 80be ff3d d6bd a827 8ebd
00000260: f2da 6a3d 41c4 14bd 83fb 1b3d bd89 7d3e
00000270: 40b3 de3c 0135 83be b26b 2cbd e4a3 bf3d
00000280: 2dc3 66bd bc6b 143e d02e a1bd eaa4 6c3d
00000290: 3d08 f5bd d03f 0cbe 57d0 163d 9cf5 31bc
000002a0: 88bc 853d 74f6 bcbc 798d 143d 6732 f43d
000002b0: 80a0 803d 574f 43be d16d 6fbe 63fc 5bbd
000002c0: aa4c 5d3c c5e1 883e 30aa 06be cc6a 013e
000002d0: 4c75 6a3d bf6b c5bd ec78 a63c e8f9 133b
000002e0: 17ea 613d f5a4 ab3d c046 89bd 530a 2f3d
000002f0: 0b35 b43c c260 e43d d6d7 a4bd 0238 8d3d
00000300: 7987 943d a21d 76bd 6b60 d6be 8b14 ebbb
00000310: 03a2 a1bc cefd 2abd a181 043e 4851 fbbc
00000320: a216 c3bc 2f0b e3be 40fe 073a 320f e43d
00000330: 47e3 903d 454f 193d c81f 4abe 1f53 283e
00000340: b15d 193c ca1d 45be c73e 103d 9054 eabd
00000350: 4d54 c23d 54dd edbc 6d7b 873e a626 1a3e
00000360: e6fc 99bd a20a 59bd 7352 383e 8b80 9cbe
00000370: 7403 643b 10bc 8d3d e6fc 833e bcbf 543d
00000380: cf09 083e 1cdb b93d 5d52 033d 33bd 36be
00000390: ae0d 273c cb90 c13d ee9d 97bc 12be 853d
000003a0: 084c 6abd 158e 433d ee03 663e f4fd 0a3e
000003b0: 64e2 23bd d0aa a7bd 2e5b a7be 4254 cd3d
000003c0: 336e 31be 81cb 073e 6882 233d 7ac4 17be
000003d0: 2c27 85bd 66cf d8bd 5c3b 633d e7c5 60bd
000003e0: 5458 06be a888 4abe ccde 7ebe d3f8 933d
000003f0: 4866 473b 12bf 8ebd b34d a73d a9dd 01bf

bias f4 [50]
0.15621722 -0.066867895 0.09303209 0.033783335 0.065340206 -0.054335564 0.06297182 -0.07468166
0.043808267 0.0671206 0.048538875 -0.08536412 -0.016525194 -0.027453199 -0.054807033 -0.0032327308
-0.032254495 -0.00095025706 0.033014864 0.06789675 0.056285903 -0.0353969 -0.054471336 -0.10381996
-0.12452069 -0.09947449 -0.068962246 0.06603594 -0.038467743 0.10261208 0.024032095 -0.11336706
-0.05717387 -1.5076982e-05 0.10479984 -0.0032602777 0.09314335 0.17383087 0.09368683 0.050864615
0.0061952583 0.09644191 0.037283532 -0.038134273 0.11154693 0.01785636 0.021892997 -0.032640442
0.06252929 0.027126549
00000000: 68f7 1f3e 09f2 88bd 9c87 be3d 6560 0a3d
00000010: 16d1 853d f88e 5ebd 5ff7 803d b3f2 98bd
00000020: 4c70 333d 8676 893d b3d0 463d 62d3 aebd
00000030: d85f 87bc 88e5 e0bc 577d 60bd 39dc 53bb
00000040: 4a1d 04bd ac1a 79ba 983a 073d 740d 8b3d
00000050: 0c8c 663d 57fc 10bd 561d 5fbd 8f9f d4bd
00000060: b404 ffbd 48b9 cbbd 143c 8dbd da3d 873d
00000070: 5a90 1dbd 4826 d23d f5de c43c fd2c e8bd
00000080: 262f 6abd 25f3 7cb7 4ca1 d63d 62aa 55bb
00000090: f1c1 be3d b800 323e e1de bf3d 6a57 503d
000000a0: 9801 cb3b 5683 c53d 9eb6 183d af32 1cbd
000000b0: b872 e43d 8047 923c f158 b33c fcb1 05bd
000000c0: 5b0f 803d 7f38 de3c

weight f4 [45, 50]
0.10511269 -0.0452645 -0.12978396 0.07395494 -0.012803919 0.07079831 -0.1569486 0.08785544
-0.059995275 -0.22041413 -0.13149562 -0.096658565 0.03192824 0.14254618 -0.11761912 0.24402581
0.1478286 -0.18451154 -0.076606065 0.36578196 -0.18694425 0.042652603 -0.04690004 0.028297571
-0.054460727 0.0980804 0.011899804 -0.13768768 -0.12244546 0.037874717 -0.07525543 -0.08419789
0.079173416 0.11106257 -0.06604894 0.044698738 -0.10024852 0.013042249 0.2742358 -0.1292382
0.030671824 -0.066935994 -0.05396902 0.29122365 -0.05072356 0.018675873 0.074853234 0.060373824
0.11068194 0.0059537957 0.00084597326 -0.0073961946 -0.095686615 0.02488215 -0.12151981 0.12603937
0.016835978 -0.0032612232 -0.10040764 -0.17510745 -0.18560791 0.0069365487 0.054622438 0.08716638
-0.06784295 0.27640253 0.095318995 -0.12610248 -0.0984452 0.2914105 -0.060489982 0.049358618
-0.008388118 0.088059016 0.13244922 0.079144746 0.0066514863 -0.017609522 -0.08494647 0.063831404
-0.084187634 -0.08421142 0.09071543 -0.042036425 0.006099343 -0.0529747 -0.100739665 0.0979764
0.24428734 0.072867036 -0.0011535332 0.019753661 -0.10800426 0.34005708 -0.03705046 0.09661199
0.0019901681 -0.06422411 0.13972561 0.036520936 0.07865219 0.02260865 -0.1325538 0.042202372
-0.090573795 0.06210749 0.13664982 0.06236606 -0.09703633 -0.016847808 -0.16635777 0.047587138
0.09059276 -0.02415424 0.01950286 0.22873022 -0.0034267942 0.039950293 -0.05586515 0.1496502
0.008734534 0.039392665 -0.11006771 0.03069067 0.08232934 0.048692312 -0.0023394278 0.0034604755
0.07011344 0.03673665 -0.046637096 -0.005757561 -0.0035992337 0.13127656 0.13623409 -0.1092319
-0.013421088 0.0520897 0.17087007 0.24187069 -0.015518751 0.05814237 -0.158792 0.3424448
0.029739928 0.09235647 -0.0353636 -0.14633578 -0.08773398 0.061023895 0.06559231 0.024711085
-0.12800276 0.0030825683 -0.024163751 -0.026758691 0.18158717 0.072617434 -0.082283564 -0.048806224
-0.074065335 -0.013832867 0.09602742 -0.06714748 -0.113211714 0.12993528 -0.089473255 0.27753106
0.029182335 0.016673453 0.01052423 0.04522966 0.07024164 -0.04636128 -0.14037615 0.04262626
-0.032543562 0.017521353 -0.15087852 0.06786929 0.0089138225 0.07608016 -0.15471627 -0.09579618
0.25643423 -0.0905396 0.07718296 -0.027621849 0.110291734 0.29603016 0.011194242 0.079419
-0.17772712 0.23725528 0.12991983 0.114364855 -0.031441923 -0.14314117 -0.07166135 0.043388683
0.0116061615 -0.03910495 -0.07571649 0.046742156 0.041694384 0.065362535 0.12685786 -0.05923871
-0.020648232 -0.081893586 0.036331054 -0.045618646 0.03537575 -0.061455086 0.053554025 0.0054728375
-0.060242746 0.44598892 0.10659962 -0.062434137 -0.047716778 0.07061157 -0.027058573 0.036807537
-0.123506054 0.05686326 -0.0498914 0.08009588 -0.17115207 -0.0070514916 0.058905207 0.04333497
-0.26317608 -0.120741636 0.3050273 -0.04982323 0.13483498 -0.07184476 -0.005314496 0.27561975
0.05229463 0.07830399 -0.1075522 0.16487244 0.15564458 0.078831494 0.0037608475 -0.075577036
-0.049120456 0.03482728 0.07236861 -0.13728918 -0.0117798345 -0.03630149 0.0888574 0.00559625
00000000: 5245 d73d 4567 39bd 16e6 04be b075 973d
00000010: 87c7 51bc b4fe 903d 22b7 20be 8eed b33d
00000020: 9bbd 75bd 3eb4 61be caa6 06be edf4 c5bd
00000030: 30c7 023d a0f7 113e 4be2 f0bd e7e1 793e
00000040: 6160 173e 98f0 3cbe a4e3 9cbd c647 bb3e
00000050: 506e 3fbe 7fb4 2e3d 421a 40bd 4fd0 e73c
00000060: 3612 5fbd 60de c83d 65f7 423c 00fe 0cbe
00000070: afc4 fabd 8522 1b3d 851f 9abd f16f acbd
00000080: ac25 a23d c674 e33d ab44 87bd 0616 373d
00000090: 194f cdbd 28af 553c a368 8c3e 0557 04be
000000a0: 7a43 fb3c bd15 89bd 9e0e 5dbd 441b 953e
000000b0: 82c3 4fbd 25fe 983c a74c 993d 8b4a 773d
000000c0: 37ad e23d 0f18 c33b 4ec4 5d3a c75b f2bb
000000d0: 58f7 c3bd a7d5 cb3c 61df f8bd 7710 013e
000000e0: 9beb 893c 3fba 55bb 85a2 cdbd 5e4f 33be
000000f0: 0010 3ebe fd4b e33b c7bb 5f3d 4984 b23d
00000100: 3ff1 8abd a284 8d3e 9b36 c33d 0221 01be
00000110: a39d c9bd c233 953e 58c4 77bd 432c 4a3d
00000120: 516e 09bc 4958 b43d c5a0 073e a416 a23d
00000130: b6f4 d93b d841 90bc 6af8 adbd 0aba 823d
00000140: 916a acbd 0977 acbd 03c9 b93d 632e 2cbd
00000150: ffdc c73b 00fc 58bd 9950 cebd daa7 c83d
00000160: 7626 7a3e 503b 953d 2732 97ba 6ed2 a13c
00000170: 5631 ddbd f61b ae3e 39c2 17bd 82dc c53d
00000180: 7b6d 023b ee87 83bd 3b14 0f3e fa96 153d
00000190: 6614 a13d c735 b93c 2fbc 07be 65dc 2c3d
000001a0: c17e b9bd 6c64 7e3d eeed 0b3e 8e73 7f3d
000001b0: fcba c6bd 6a04 8abc b159 2abe bbea 423d
000001c0: b288 b93d 1ddf c5bc 76c4 9f3c 4138 6a3e
000001d0: 1194 60bb eba2 233d dbd2 64bd e73d 193e
000001e0: 4a1b 0f3c 345a 213d 2e6b e1bd 006b fb3c
000001f0: 499c a83d 9771 473d 1651 19bb 25c9 623b
00000200: a397 8f3d 2b79 163d 8a06 3fbd eca9 bcbb
00000210: 1fe1 6bbb 5d6d 063e f380 0b3e f9b4 dfbd
00000220: 20e4 5bbc 025c 553d 90f8 2e3e f3ac 773e
00000230: 5c42 7ebc b226 6e3d 5f9a 22be ed54 af3e
00000240: 26a1 f33c 6425 bd3d 6cd9 10bd 0cd9 15be
00000250: dfad b3bd 31f4 793d 4355 863d e76e ca3c
00000260: 2813 03be ea04 4a3b 0ff3 c5bc 0b35 dbbc
00000270: fdf1 393e 73b8 943d 4984 a8bd 09e9 47bd
00000280: 91af 97bd 40a3 62bc 06aa c43d 9e84 89bd
00000290: 8bdb e7bd c10d 053e c13d b7bd 8d18 8e3e
000002a0: cb0f ef3c c496 883c d26d 2c3c bc42 393d
000002b0: d9da 8f3d 53e5 3dbd c4be 0fbe e098 2e3d
000002c0: 664c 05bd f188 8f3c e67f 1abe 0eff 8a3d
000002d0: 480b 123c eacf 9b3d f16d 1ebe ca30 c4bd
000002e0: 594b 833e d36c b9bd 1a12 9e3d 3747 e2bc
000002f0: a2e0 e13d 4491 973e 0e68 373c 6ea6 a23d
00000300: 19fe 35be 0cf3 723e b409 053e 1f38 ea3d
00000310: 3fc9 00bd 9993 12be 30c3 92bd 55b8 313d
00000320: c527 3e3c 832c 20bd 3f11 9bbd b474 3f3d
00000330: bbc7 2a3d cbdc 853d 07e7 013e 4aa4 72bd
00000340: 7b26 a9bc d3b7 a7bd dfcf 143d 9eda 3abd
00000350: 2ae6 103d 54b8 7bbd 775b 5b3d 7d55 b33b
00000360: 19c1 76bd a958 e43e e750 da3d f0ba 7fbd
00000370: ab72 43bd cc9c 903d f1a9 ddbc 80c3 163d
00000380: bef0 fcbd 73e9 683d ed5a 4cbd 4f09 a43d
00000390: 7d42 2fbe 3310 e7bb 9646 713d 0280 313d
000003a0: 04bf 86be 6447 f7bd 8a2c 9c3e 7113 4cbd
000003b0: 2e12 0a3e 5823 93bd 3925 aebb 081e 8d3e
000003c0: e532 563d d85d a03d 5444 dcbd 52d4 283e
000003d0: 4b61 1f3e 6872 a13d 8d78 763b 22c8 9abd
000003e0: 8832 49bd 0da7 0e3d fe35 943d 8995 0cbe
000003f0: 3500 41bc dfb0 14bd defa b53d bf60 b73b

bias f4 [45]
0.03950862 0.020045787 0.006068371 0.018425535 0.033697363 0.022194918 0.040340032 0.047196917
0.052217316 0.07008 0.021792851 0.034115594 0.041246537 0.025094787 0.022409715 0.03779803
0.02043801 0.0004975593 0.007696294 0.014228628 0.0068869186 -0.030962117 -0.012602266 0.0012159338
-0.013459661 -0.013127342 0.049799733 0.045316346 0.013343158 -0.008887403 0.010330035 -0.0021222641
-0.016156882 0.015586748 0.03343945 0.032829188 0.0045165345 0.00040046932 0.031020606 0.030373752
0.0042369594 0.012766576 0.0267591 0.016092924 0.04483973
00000000: cad3 213d 1037 a43c 2fd9 c63b 26f1 963c
00000010: 3f06 0a3d 1ed2 b53c 973b 253d 8e51 413d
00000020: d3e1 553d 1a86 8f3d ec86 b23c cbbc 0b3d
00000030: 21f2 283d 9593 cd3c 9494 b73c 1bd2 1a3d
00000040: 9d6d a73c a46e 023a 3231 fc3b 311f 693c
00000050: a9ab e13b 44a4 fdbc bc79 4ebc f85f 9f3a
00000060: e985 5cbc 1014 57bc cefa 4b3d a29d 393d
00000070: 439d 5a3c 789c 11bc 4f3f 293c af15 0bbb
00000080: 705b 84bc 8f5f 7f3c cef7 083d e677 063d
00000090: 70ff 933b 15f6 d139 ed1e fe3c 60d2 f83c
000000a0: 31d6 8a3b e72a 513c e635 db3c 4fd5 833c
000000b0: dda9 373d
