checkpoints/lstm/lstm_o_45.pt (torch, 8162 bytes, 5 tensors)

weight_ih_l0 f4 [56, 4]
0	0xbe7a0c9c	-0.24418873
1	0xbe54f537	-0.20796667
2	0x3e9eadb8	0.30991912
3	0x3e1508a8	0.14554083
4	0xbef1bd00	-0.47214508
5	0x3f051e4e	0.51999366
6	0x3d800e79	0.062527604
7	0xbf8353ad	-1.0259911
8	0xbd407cfe	-0.0469942
9	0xbe64d6b4	-0.22347528
10	0xbd80ab2a	-0.06282647
11	0x3fa9ea59	1.3274642
12	0x3e3adf6d	0.18249293
13	0xbe68b1f5	-0.22724135
14	0xbd0e1133	-0.03468437
15	0x40080e34	2.125867
16	0xbe27f513	-0.16402082
17	0xbf2bb512	-0.67073166
18	0x3e24b4e4	0.1608463
19	0xbcf28f3e	-0.029609319
20	0xbe455802	-0.19271854
21	0x3f57ecd5	0.8434575
22	0xbeb4cff4	-0.35314906
23	0xbf668d1c	-0.90059066
24	0x3e6faac7	0.2340499
25	0xbe8a1516	-0.26969212
26	0x3ecad055	0.3961207
27	0x3f0bbff4	0.5458977
28	0xbee16a8d	-0.44026604
29	0xbf019d28	-0.50630426
30	0xbd55f05d	-0.05223118
31	0x3ffbbef4	1.9667649
32	0x3e833625	0.25627246
33	0x3fa82497	1.3136166
34	0x3e7a66bf	0.24453257
35	0x3d945585	0.07242874
36	0x3e30bef5	0.17260344
37	0xbd6d1c3a	-0.057888247
38	0xbd854831	-0.0650791
39	0x3f49a171	0.78761965
40	0xbe102577	-0.14076792
41	0xbf382923	-0.7193777
42	0x3d2d4db2	0.042310424
43	0x3ed5a9d7	0.4173114
44	0xbf854cec	-1.04141
45	0x3fc80dda	1.5629227
46	0xbdb5ce42	-0.08877231
47	0x3f5d064a	0.8633772
48	0xbe45a8dd	-0.19302697
49	0x3eba1e3d	0.36351195
50	0xbe5bb11c	-0.2145428
51	0xbdab4d9c	-0.08364412
52	0x3eaf7568	0.3426926
53	0xbe13c1e6	-0.14429435
54	0x3d968ac7	0.073506884
55	0x3deffcc8	0.11718136
56	0x3deb5063	0.11489942
57	0xbeb4ec95	-0.35336748
58	0x3e588a15	0.21146424
59	0x3e7c4d62	0.24638894
60	0x3e99c59c	0.30033576
61	0x3f0e3482	0.5554887
62	0x3e2271de	0.1586375
63	0x3f0adb2d	0.54240686
64	0xbe370cda	-0.17875996
65	0xbe70eaa9	-0.23527016
66	0xbefd1f6b	-0.49438033
67	0x3d0e5670	0.034750402
68	0xbea8321c	-0.3285073
69	0x3ee1caac	0.4409994
70	0x3eed9256	0.46400708
71	0x3dcbcf49	0.09951646
72	0xbe8ec107	-0.27881643
73	0xbf30017c	-0.68752265
74	0xbe33bcd4	-0.17552501
75	0xbd73c09f	-0.05950987
76	0xbd418223	-0.04724325
77	0x3c843428	0.016138151
78	0xbe613013	-0.21990995
79	0x3e7538e6	0.23947486
80	0xbe67f41d	-0.22651716
81	0xbe9a91a5	-0.30189243
82	0x3e9cff37	0.30663463
83	0x3c1294e6	0.008946633
84	0xbec0b541	-0.37638286
85	0xbebc3374	-0.36758006
86	0xbeaa4c40	-0.332613
87	0x3edfba4b	0.43696818
88	0x3efaee6a	0.4901002
89	0x3f8f4369	1.1192447
90	0x3ef7d1cf	0.4840226
91	0x3e5e04f3	0.21681575
92	0xbf4b86c8	-0.79502535
93	0xbe29af38	-0.16570747
94	0xbf6eb301	-0.9324189
95	0x3eb53b76	0.35396928
96	0xbecfec2d	-0.40609875
97	0xbf7c910a	-0.9865881
98	0xbd34c6b9	-0.04413483
99	0x3eef37d0	0.4672227
100	0xbfa7a2bb	-1.3096536
101	0x3df91a7e	0.12163256
102	0x3c62dcb0	0.013846561
103	0x3f563e31	0.83688647
104	0x3e0f3197	0.13983761
105	0x3af8f68b	0.0018994374
106	0xbe1eee15	-0.15520509
107	0xbf0b2e29	-0.5436731
108	0x3eba8534	0.3642975
109	0x3e4471be	0.19184014
110	0xbb77b6d1	-0.0037798176
111	0x3f15a259	0.5845085
112	0xbeca4ed2	-0.3951326
113	0x3d9bb77e	0.07603358
114	0xbe640c00	-0.22270203
115	0x3f12705a	0.57202685
116	0xbecfad72	-0.40562016
117	0xbf59cf69	-0.8508211
118	0xbefaa582	-0.48954397
119	0xbc66e067	-0.014091588
120	0xbe52c4dd	-0.2058291
121	0x3e109970	0.14121032
122	0xbdc8f4f3	-0.09812345
123	0x3e8b80cd	0.27246705
124	0x3e339047	0.17535506
125	0x3df4e517	0.11957758
126	0xbe2f4e39	-0.17119683
127	0xbe2a07d4	-0.16604549
128	0xbe2bd0f2	-0.16778925
129	0x3f03a257	0.51419586
130	0xbca7489c	-0.020420365
131	0x3e669fd0	0.22521901
132	0xbba98638	-0.005173471
133	0xbe77910b	-0.24176423
134	0x3c69fcca	0.014281461
135	0xbfc7988a	-1.5593426
136	0x3d728951	0.059212986
137	0x3d1c6b39	0.038188193
138	0x3e95a18a	0.29224807
139	0xbc9d06ba	-0.019168247
140	0x3dad3948	0.08458191
141	0x3eb80ea3	0.35948667
142	0x3df1a8cc	0.117997736
143	0xbd1409e6	-0.036142252
144	0x3e170685	0.14748581
145	0x3dd69fda	0.10479708
146	0x3c52d3b2	0.012867855
147	0x3d5e6a49	0.05430058
148	0xbe8c26aa	-0.27373248
149	0x3e8e38cd	0.2777771
150	0x3e4f2b32	0.20231321
151	0xbf702f0e	-0.938218
152	0xbe14d5bd	-0.1453466
153	0xbe234b49	-0.15946688
154	0xbdf96a44	-0.12178472
155	0x3ed5b868	0.41742253
156	0xbed284ff	-0.41117093
157	0xbd98d096	-0.074616596
158	0x3ed593c6	0.41714305
159	0x3f88eaf4	1.0696702
160	0xbd2ec91e	-0.04267227
161	0xbe85fa80	-0.2616768
162	0xbdb950b9	-0.090486
163	0x3f140459	0.57819134
164	0x3ea442e0	0.32082272
165	0xbeb49dd4	-0.35276663
166	0xbecfbb31	-0.40572503
167	0x3ec87323	0.39150342
168	0x3f00140e	0.500306
169	0xbe8bca61	-0.2730284
170	0x3e144d6b	0.14482658
171	0xbd5d9c15	-0.05410393
172	0xbe88f579	-0.2674978
173	0xbdabcbdd	-0.08388493
174	0xbe6a891e	-0.22903869
175	0x3f0d8546	0.55281484
176	0x3ea9c10c	0.33155096
177	0xbea7b2b6	-0.32753533
178	0xbdbb2603	-0.091381095
179	0x3fabd164	1.3423276
180	0xbd8a5e3b	-0.06756254
181	0x3eb7482e	0.35797256
182	0x3e24251a	0.16029778
183	0x401091e5	2.2589047
184	0xbe232e75	-0.1593569
185	0xbf39df90	-0.72606754
186	0x3e606d77	0.21916758
187	0x3e9319e0	0.2873068
188	0xbc7efe67	-0.015563584
189	0xbee61aab	-0.4494222
190	0x3d0990b7	0.033585276
191	0xbf7dbed0	-0.9911928
192	0x3eef06dc	0.4668492
193	0xbe2656d5	-0.16244061
194	0x3e827b21	0.25484565
195	0x3f435c8a	0.7631308
196	0xbe78a07b	-0.24279968
197	0x3d864326	0.06555776
198	0x3cb8570e	0.022502448
199	0x3f9b1a05	1.2117316
200	0x3e55910b	0.20856111
201	0x3f3d951c	0.7405565
202	0x3f39ba6f	0.725501
203	0x3f48a554	0.7837727
204	0x3e470561	0.19435646
205	0xbe2e7301	-0.17036058
206	0xbc000d4a	-0.007815668
207	0x3f3164af	0.69294256
208	0xbf256d6d	-0.64620095
209	0xbfa63e15	-1.2987696
210	0xbcda8cc1	-0.026678445
211	0x3edc57d8	0.4303577
212	0xbf79d9a2	-0.97597706
213	0x3fc3a1d1	1.5283757
214	0xbee67e7c	-0.45018375
215	0xbf0805fe	-0.53134143
216	0xbcbd1b10	-0.023084193
217	0xbe089765	-0.13339002
218	0xbec05299	-0.37563017
219	0x3e8e70fe	0.2782058
220	0xbe171764	-0.14755017
221	0xbdd0ea28	-0.10200912
222	0xbe3d479c	-0.18484348
223	0x3f1f321e	0.6218585

weight_hh_l0 f4 [56, 14]
0	0x3e46c898	0.19412458
1	0x3e27175f	0.16317509
2	0x3e15cfdd	0.14630075
3	0xbdead64c	-0.11466655
4	0xbd8eb524	-0.069681436
5	0x3d1318ca	0.035912313
6	0xbdb21923	-0.08696201
7	0x3d2f8db6	0.042859755
8	0x3eca9edb	0.39574322
9	0x3e27ba16	0.1637958
10	0xbe2564ce	-0.16151735
11	0x3eb40681	0.35161212
12	0x3d8b85ed	0.06812654
13	0x3e707c76	0.23484978
14	0x3e069728	0.13143599
15	0xbec2bf32	-0.38036495
16	0x3e41ba0b	0.18918626
17	0xbe4f064c	-0.20217246
18	0xbe39fd95	-0.1816314
19	0x3df32853	0.118729256
20	0xbe5445d8	-0.20729768
21	0xbe02a307	-0.12757502
22	0x3f2e696c	0.6812961
23	0x3e3daa81	0.18522073
24	0x3e1b774f	0.15182231
25	0xbe977334	-0.2958008
26	0xbe246364	-0.1605354
27	0x3eaa5e53	0.3327509
28	0x3cc7ac78	0.024374232
29	0xbda855a4	-0.0821946
30	0x3eb52a92	0.3538404
31	0x3e8aa8bb	0.27081856
32	0xbe906d93	-0.28208598
33	0x3f6cb87d	0.92469007
34	0xbd413e26	-0.04717841
35	0x3e74d410	0.2390902
36	0xbed61ee1	-0.41820434
37	0xbe961fe8	-0.29321218
38	0x3f006770	0.50157833
39	0xbeb046d4	-0.34429038
40	0xbe409129	-0.18805374
41	0x3eb092b9	0.3448694
42	0xbe5a2a22	-0.21305135
43	0x3d8d80d6	0.06909339
44	0x3d053721	0.03252328
45	0xbe28bf20	-0.16479158
46	0x3d82118d	0.06351004
47	0x3e361310	0.1778071
48	0x3dad4184	0.08459762
49	0xbe2cb6c8	-0.168666
50	0xbe29223a	-0.16516963
51	0xbf0b6002	-0.5444337
52	0x3d83b63a	0.06431241
53	0xbe64a86a	-0.2232987
54	0x3e561375	0.2090586
55	0xbd581a15	-0.05275925
56	0x3e95eb42	0.2928105
57	0xbe8418b5	-0.258001
58	0x3e14a1e7	0.14514886
59	0x3e50ad64	0.20378643
60	0x3c1a2275	0.009407629
61	0x3ed76e5e	0.4207639
62	0x3e014147	0.12622558
63	0xbd7044c8	-0.058659345
64	0x3dc26f1f	0.09493851
65	0xbd72e3e3	-0.05929936
66	0xbe250724	-0.16116005
67	0x3cb13bfb	0.021635046
68	0xbe778a1a	-0.24173775
69	0xbb9c369d	-0.0047672526
70	0x3ec79a42	0.38984877
71	0xbf86ccd2	-1.0531256
72	0x3f276b45	0.65398055
73	0x3e971ffb	0.29516587
74	0xbd8af22b	-0.06784471
75	0xbf04d71a	-0.5189072
76	0x3d72f507	0.059315708
77	0xbde286c9	-0.110608645
78	0xbe6644ad	-0.22487135
79	0xbf033344	-0.512501
80	0x3f228b37	0.63493675
81	0x3f1afcd5	0.6054204
82	0x3e2fcc92	0.17167881
83	0x3f0ded80	0.5544052
84	0x3e06d8d8	0.13168657
85	0xbf0646d2	-0.52451813
86	0xbe56b2bd	-0.2096662
87	0x3d9b22c0	0.075749874
88	0x3da5c399	0.08093948
89	0x3dac6b5b	0.08418914
90	0x3eae572c	0.34050882
91	0x3ddebd91	0.10876001
92	0xbd259fa3	-0.040435445
93	0xbbb03a9e	-0.0053780815
94	0x3e8abf3a	0.2709902
95	0x3dc05ae9	0.0939234
96	0xbe9974c4	-0.29971898
97	0x3ec9e286	0.39430636
98	0x3ed55bc9	0.4167159
99	0xbe657665	-0.22408445
100	0x3ea24276	0.3169133
101	0x3cc19e34	0.023635007
102	0xbe0afd66	-0.13573226
103	0x3e188988	0.14896214
104	0x3f152649	0.58261544
105	0xbe49098d	-0.1963255
106	0x3d9be8f8	0.07612795
107	0xbf1781de	-0.59182537
108	0x3e6a7f33	0.22900085
109	0xbf10c8d0	-0.56556416
110	0x3eaf8d0e	0.34287304
111	0x3d395cdc	0.045254573
112	0xbc6a9b91	-0.0143193165
113	0x3d80532a	0.06265862
114	0x3ea6c876	0.32574815
115	0xbe475783	-0.19466977
116	0x3e2504e5	0.16115148
117	0x3ef4e03d	0.4782733
118	0x3e428ffe	0.19000241
119	0xbd5627d4	-0.052284077
120	0xbe508f0b	-0.20367067
121	0xbdb787d9	-0.08961458
122	0x3e9e0132	0.30860287
123	0x3e0e5263	0.13898616
124	0x3e83f32f	0.25771472
125	0x3e0c2701	0.13686754
126	0x3e235fab	0.15954463
127	0xbeb23337	-0.348047
128	0x3e114953	0.14188127
129	0x3ebc7dca	0.3681472
130	0xbe8d11fe	-0.2755279
131	0xbcc1dfa9	-0.02366622
132	0x3d93696c	0.07197842
133	0xbdef4795	-0.11683575
134	0x3e8621bb	0.2619761
135	0xbeb9a1d8	-0.3625629
136	0x3e37c60f	0.17946647
137	0xbe24830f	-0.1606562
138	0xbe8b8c82	-0.27255636
139	0xbda55b99	-0.080741115
140	0x3e370d62	0.17876199
141	0xbed0e240	-0.40797615
142	0xbe1c9268	-0.15290225
143	0x3e1cf6bb	0.15328495
144	0x3d38bbd6	0.04510101
145	0xbcc44731	-0.023959728
146	0x3d383b25	0.04497828
147	0x3d603e5e	0.054746978
148	0x3e95e9b2	0.29279858
149	0xbbc17a6f	-0.005904488
150	0x3db6fe8a	0.08935268
151	0x3c84141f	0.016122876
152	0x3ece99e8	0.40351796
153	0x3d1bcabd	0.038035143
154	0xbe3d7d74	-0.18504888
155	0x3dc26bd3	0.09493222
156	0x3dc11dc1	0.09429503
157	0xbdd39731	-0.10331572
158	0x3e950c6b	0.29111037
159	0x3f1eacc4	0.6198237
160	0x3eb98f4b	0.36242136
161	0xbef364f0	-0.47537947
162	0xbe690414	-0.22755462
163	0x3f07e2e3	0.53080577
164	0xbeb590ad	-0.3546194
165	0xbe88af2c	-0.26696146
166	0xbea87031	-0.32898095
167	0xbd74c5f8	-0.05975911
168	0x3e3ded30	0.18547511
169	0xbeabca2c	-0.33552682
170	0x3ea20352	0.31643158
171	0x3eb7a036	0.3586442
172	0xbead48d7	-0.33844635
173	0x3c85e8ba	0.016346324
174	0xbe4641d6	-0.19361052
175	0xbe828d0c	-0.25498235
176	0xbe403dc0	-0.18773556
177	0xbeef726e	-0.4676699
178	0x3dfb40af	0.12268197
179	0x3ea6caba	0.32576543
180	0xbdd537b6	-0.10411017
181	0x3d883619	0.06650943
182	0x3eaa5843	0.33270463
183	0xbf0de066	-0.5542053
184	0x3e0cf82b	0.13766544
185	0xbe69fae7	-0.22849618
186	0x3e28aa27	0.16471158
187	0x3ea3ca24	0.3199016
188	0x3ea87a39	0.32905748
189	0x3da3636e	0.07977949
190	0x3eccaa93	0.39973888
191	0x3eab8092	0.3349653
192	0x3e268411	0.16261317
193	0xbdf8de67	-0.12151795
194	0x3daf4024	0.08557156
195	0x3e8f2812	0.2796026
196	0xbe41a76e	-0.18911526
197	0x3d5195bc	0.05116819
198	0xbe1bbdd3	-0.15209131
199	0x3aec164e	0.0018012018
200	0xbdf2a339	-0.118475385
201	0x3dd9c100	0.10632515
202	0x3ea27756	0.3173167
203	0xbcf68bd5	-0.030095974
204	0x3e551e98	0.20812452
205	0xbdb4cff9	-0.0882873
206	0x3e26b77c	0.16280931
207	0xbdbff92e	-0.09373699
208	0x3ded42ae	0.11584984
209	0x3e539e63	0.20665888
210	0x3e57a614	0.21059448
211	0xbf124905	-0.5714267
212	0x3f297aae	0.6620282
213	0x3e59a46a	0.21254125
214	0xbedee266	-0.43532103
215	0xbe9fafc5	-0.3118879
216	0x3e0b2cc9	0.13591303
217	0xbe4f9663	-0.20272212
218	0x3f2261f6	0.63430727
219	0x3c383eeb	0.01124547
220	0x3f0e6f16	0.55638254
221	0x3e33b101	0.1754799
222	0x3d87d32d	0.066320755
223	0x3ecccc69	0.39999703
224	0x3e8fe0bf	0.28101155
225	0x3d94865e	0.07252191
226	0x3d078a0d	0.03309064
227	0x3eb83de6	0.35984725
228	0xbdafebe9	-0.08589918
229	0x3ebc034f	0.36721274
230	0x3dd367ac	0.10322508
231	0x3e4510ab	0.1924464
232	0x3dec4880	0.11537266
233	0xbed6775a	-0.41887933
234	0xbe551227	-0.20807706
235	0xbea72ad9	-0.32649878
236	0xbed97477	-0.42471668
237	0x3e228f98	0.15875089
238	0xbcd86663	-0.02641601
239	0xbecc3b79	-0.39889124
240	0x3d6e66cf	0.058203515
241	0x3ece3ae2	0.402793
242	0xbe44b9bb	-0.19211476
243	0x3d6f3cef	0.05840772
244	0x3d46737c	0.04844998
245	0x3cc59901	0.02412081
246	0xbdb2b0cb	-0.08725127
247	0xba93bb61	-0.0011271053
248	0xbc6e3299	-0.014538431
249	0xbdca46d7	-0.09876793
250	0xbeb39aa3	-0.35078916
251	0x3e3971c6	0.18109807
252	0x3e7f7ca7	0.24949895
253	0xbe8ab0fc	-0.27088153
254	0x3df82e8a	0.121182516
255	0x3e18b71b	0.14913599

bias_ih_l0 f4 [56]
0	0x3cb72536	0.02235661
1	0xbd28b846	-0.04119136
2	0x3dfcea2a	0.12349351
3	0x3e807b94	0.25094283
4	0x3eb67e53	0.35643253
5	0xbcc1950a	-0.023630638
6	0x3ea0b488	0.31387734
7	0x3e9fa9a7	0.31184122
8	0x3dec0c5d	0.115257956
9	0x3e1d92ae	0.15387985
10	0x3b3bf384	0.0028679082
11	0x3e302813	0.17202787
12	0xbe16a91d	-0.14712949
13	0x3c9bd09c	0.019020371
14	0x3d64cdd1	0.055860344
15	0x3efa7275	0.4891545
16	0xbd910e2d	-0.07082782
17	0x3c9abc80	0.018888712
18	0x3dcad76b	0.09904369
19	0x3e32de53	0.17467622
20	0x3e1a867d	0.15090366
21	0x3e3eaf14	0.18621475
22	0x3e04d51a	0.12971917
23	0x3c2dd1d4	0.010609109
24	0x3c968f60	0.018378913
25	0x3ea63d7c	0.32468784
26	0x3e1f846d	0.1557786
27	0x3eeacca5	0.45859256
28	0x3e52e5ba	0.20595446
29	0xbcc7e5f3	-0.02440164
30	0x3e93a8ef	0.28839824
31	0x3db31eaf	0.08746087
32	0x3d9311b3	0.0718111
33	0x3dbde785	0.092726745
34	0x3dafb820	0.08580041
35	0x3e7ae523	0.24501471
36	0x3d38e7ba	0.045142867
37	0xbd509a07	-0.050928142
38	0x3db32c1e	0.08748649
39	0xbe066c4c	-0.1312725
40	0xbddb982e	-0.10722385
41	0x3ddd25c2	0.10798217
42	0x3d40a138	0.04702875
43	0x3e0cfc72	0.13768175
44	0x3e34b7c9	0.17648233
45	0x3d574c12	0.05256278
46	0x3d2e785d	0.042595256
47	0x3e2f8011	0.17138697
48	0x3e03a0ba	0.12854281
49	0x3e6f2432	0.23353651
50	0xbe1bd44d	-0.15217705
51	0x3e9a3e84	0.3012582
52	0xbdb177b6	-0.08665411
53	0x3e3f99e7	0.18711053
54	0x3dc8c3d9	0.0980298
55	0xbd48c241	-0.04901338

bias_hh_l0 f4 [56]
0	0x3e36d08c	0.17852992
1	0xbcd7aaf2	-0.02632663
2	0x3eb56878	0.35431266
3	0x3e2722f4	0.16321927
4	0xbe0c869e	-0.13723227
5	0x3ed2432e	0.4106688
6	0x3c231771	0.009954319
7	0x3e7c4538	0.2463578
8	0xbd8633de	-0.06552862
9	0xbc3103eb	-0.010804157
10	0xbcd864f6	-0.02641533
11	0xbe06b95f	-0.13156651
12	0x3e46f792	0.19430378
13	0x3e4f754c	0.20259589
14	0x3e7a4dc3	0.24443726
15	0x3ee185da	0.44047433
16	0x3ea222bd	0.31667128
17	0x3eccb007	0.39978048
18	0xbd4465d8	-0.04794869
19	0xbd855014	-0.06509414
20	0x3e603af2	0.21897486
21	0x3dc7d0c4	0.09756616
22	0x3e075bb1	0.13218571
23	0xbd10dc96	-0.035366617
24	0x3e840d4a	0.2579139
25	0x3e32034a	0.17384067
26	0xbcf1807c	-0.029480211
27	0x3ef4b083	0.47790918
28	0x3e23c9de	0.15994975
29	0x3dc178bc	0.094468564
30	0xbe4fe0bf	-0.20300578
31	0x3e1ae172	0.15125063
32	0xbe6256ef	-0.22103475
33	0xbe536732	-0.20644835
34	0x3ddd29b0	0.10798967
35	0xbc7b740e	-0.015347494
36	0x3e03c8c4	0.12869555
37	0x3d4d7b63	0.0501665
38	0xbe7a14a7	-0.2442194
39	0xbdf22982	-0.11824323
40	0xbe139f0c	-0.1441614
41	0x3da0c9b4	0.07850972
42	0x3e789c01	0.24278261
43	0xbd8bad79	-0.06820197
44	0x3f0067f4	0.5015862
45	0x3e667493	0.22505407
46	0xbdf30b0e	-0.11867343
47	0x3e9ab5a4	0.30216706
48	0xbce79001	-0.028266909
49	0x3e80fe3e	0.2519397
50	0x3dc93f25	0.09826497
51	0xbd80182f	-0.06254613
52	0xbd64fdda	-0.055906154
53	0x3d3a50e6	0.045487307
54	0x3e4f81d7	0.20264374
55	0x3e2642b2	0.1623638

weight f4 [1, 14]
0	0x3c8f0602	0.01745892
1	0xbd396700	-0.045264244
2	0xbcd882b8	-0.026429519
3	0x3c8622e5	0.01637406
4	0xbd298db5	-0.041394908
5	0xbd408440	-0.047001123
6	0xbdbb85af	-0.091563575
7	0x3c84699a	0.016163636
8	0xbe2831a5	-0.16425188
9	0xbe0cb44f	-0.13740657
10	0x3e2cfc88	0.16893208
11	0x3e8af240	0.27137947
12	0x3db84a5e	0.089985594
13	0x3bcf0a74	0.006318385
