checkpoints/lstm/lstm_o_90.pt (torch, 9058 bytes, 5 tensors)

weight_ih_l0 f4 [56, 8]
-1.742096 0.4766777 -0.7036964 0.26884583 -0.035883676 -0.4003546 1.4458134 0.74407345
0.1640934 -0.4289269 0.5218516 0.547404 -0.24806717 0.029187316 0.2574163 -0.7817339
0.01903272 0.18422535 0.1443967 0.3975469 -0.90880156 -0.0025533687 -0.2901002 -0.32606778
-0.13398124 0.2877335 0.64560074 0.73738 -0.85037357 -0.58032775 -0.101031594 -0.47151077
0.4453637 -0.5384174 0.40623048 1.1954035 0.037720695 0.61226255 0.048894107 -0.58834344
-0.14895038 -0.800135 -0.7878687 -0.40486377 0.3892366 -0.2326011 -0.6026114 0.8480079
0.9274111 -0.69910127 0.3208577 -0.08812877 0.6835927 0.34061635 0.62453574 0.39717644
-0.20115183 0.43962598 -0.23425499 0.58467317 0.23446168 -0.115656294 -0.5611673 0.27396712
-0.15155399 -0.69410366 -0.40135583 0.35790974 -0.60463727 0.15904377 -0.23387851 0.00922084
0.48706138 0.008387549 0.90896887 0.17389682 -1.1715549 0.45513132 -0.6549059 -1.3847467
0.42471117 -1.3026489 -0.21248616 0.2713776 0.06484353 0.030374527 0.5547511 -0.122764215
0.36297217 0.30809367 0.15500996 0.9297073 1.0699797 -0.49801612 0.4000966 -2.765896
-0.40928915 -0.3043691 -0.28562096 0.3511988 -0.34159318 -0.3374938 1.4416021 0.18785042
-1.0102443 0.19424568 -0.37027395 0.95007247 -0.27699643 -0.57172066 0.36387122 0.5049987
-0.59091365 0.7097888 -0.38728806 -0.19954753 1.1437099 -1.099284 0.8922991 1.1578182
0.061293762 -0.24391268 0.14960067 -0.13862742 -0.12458107 -0.09143107 -0.19318663 -0.2572693
-0.059641898 0.38231528 -0.19100346 -0.06057371 -0.49068195 -0.19884256 -0.8114586 -0.05973386
0.39092448 0.48054805 -0.13921212 0.28517422 -0.5361951 0.18282509 0.008712176 0.2718346
-0.04815115 -0.2624524 0.049403816 0.20508383 -0.744206 -0.035509467 0.26024827 0.1194353
0.5319622 -0.11201644 0.67114383 0.56219643 0.01160391 0.06995003 -0.32988852 1.0272795
1.0184363 0.2206553 0.11807054 0.23789716 0.8705689 0.8383671 0.62962884 1.7539212
-0.64592415 0.5685698 -0.24486488 -0.31747103 0.46601757 -0.23236111 -0.013852393 0.09508888
0.38646194 -0.08508316 -0.022706196 0.15114251 -0.6393535 -0.41261294 -0.007076398 0.08652981
-0.034366436 0.3087261 0.3619034 0.845078 -0.93006957 0.17587674 0.48462775 -0.21110484
0.14818802 -0.38135472 -0.30072227 -0.03626114 -0.51982725 0.37973624 0.29078585 -0.14059968
0.16256638 0.35295892 0.12854044 0.21436398 0.028882757 0.02692947 -0.28689426 -0.3799702
0.06579076 0.3053189 0.13176382 0.16802078 -0.8442528 0.23893838 0.16650768 -0.18380906
-1.3624749 0.6626779 -0.44348702 0.30172747 0.25951603 -0.56511885 -0.9149328 -1.1351373
0.38662818 -0.4289368 -0.27939537 0.26141396 0.35697252 -0.17141469 -0.82509625 0.52400446
-0.042292446 -0.16676146 -0.056673612 -0.015654147 -0.11780832 0.07328425 0.033781752 -0.13398099
0.3524739 0.20158632 0.0123049095 -0.29219422 -0.40321982 -0.11475206 0.16655742 -0.031425584
-0.13285536 -0.124499895 0.28064394 -0.15026785 0.0048354734 0.14613527 0.12766433 0.7142512
00000000: 00fd debf 190f f43e 7325 34bf 29a6 893e
00000010: c3fa 12bd 47fb ccbe 6a10 b93f 997b 3e3f
00000020: 1a08 283e 4e9c dbbe 1198 053f ab22 0c3f
00000030: 5205 7ebe 3d1a ef3c 12cc 833e b61f 48bf
00000040: 82ea 9b3c 92a5 3c3e bbdc 133e 448b cb3e
00000050: 38a7 68bf 6b56 27bb 0388 94be 5bf2 a6be
00000060: 6132 09be ce51 933e 1746 253f f0c4 3c3f
00000070: 15b2 59bf 5c90 14bf a7e9 cebd dc69 f1be
00000080: b606 e43e b9d5 09bf 71fd cf3e fb02 993f
00000090: 0481 1a3d 3dbd 1c3f 3045 483d ad9d 16bf
000000a0: 7386 18be a6d5 4cbf c3b1 49bf 4e4a cfbe
000000b0: 054a c73e fc2e 6ebe be44 1abf 0c17 593f
000000c0: d06a 6d3f 4df8 32bf 7647 a43e db7c b4bd
000000d0: eeff 2e3f 4465 ae3e 93e1 1f3f b65a cb3e
000000e0: bffa 4dbe a816 e13e 8ae0 6fbe 24ad 153f
000000f0: b916 703e 35dd ecbd a9a8 0fbf 6b45 8c3e
00000100: f830 1bbe c7b0 31bf 837e cdbe f23f b73e
00000110: 82c9 1abf 5fdc 223e d97d 6fbe 0213 173c
00000120: 1c60 f93e ee6b 093c 2fb2 683f 0212 323e
00000130: 83f5 95bf f906 e93e eaa7 27bf 613f b1bf
00000140: be73 d93e 33bd a6bf f995 59be 01f2 8a3e
00000150: afcc 843d 00d4 f83c 2b04 0e3f ce6b fbbd
00000160: 7dd7 b93e 74be 9d3e eeba 1e3e 4c01 6e3f
00000170: 18f5 883f f8fb febe 76d9 cc3e 7104 31c0
00000180: 598e d1be 44d6 9bbe e93c 92be 54d0 b33e
00000190: 4de5 aebe fdcb acbe 6b86 b83f dc5b 403e
000001a0: af4f 81bf 57e8 463e 8c94 bdbe f337 733f
000001b0: 7ad2 8dbe 495c 12bf 544d ba3e 9847 013f
000001c0: 1e46 17bf b8b4 353f 9f4a c6be 3056 4cbe
000001d0: 1665 923f 57b5 8cbf b76d 643f 6333 943f
000001e0: 2b0f 7b3d 3fc4 79be eb30 193e 59f4 0dbe
000001f0: 5c24 ffbd 3640 bbbd b7d2 45be cdb8 83be
00000200: 104b 74bd d4be c33e 6996 43be 231c 78bd
00000210: aa3a fbbe 629d 4bbe c0bb 4fbf 7eab 74bd
00000220: 4127 c83e 650a f63e 9f8d 0ebe 5b02 923e
00000230: 1544 09bf 8036 3b3e 84bd 0e3c e82d 8b3e
00000240: 243a 45bd 2960 86be a85b 4a3d 7f01 523e
00000250: 4984 3ebf 6072 11bd 433f 853e 7f9a f43d
00000260: ad2e 083f e068 e5bd 15d0 2b3f 1bec 0f3f
00000270: 531e 3e3c f641 8f3d 26e7 a8be e57d 833f
00000280: 1f5c 823f 77f3 613e f8ce f13d 509b 733e
00000290: 9add 5e3f 3a9f 563f 5b2f 213f 7d80 e03f
000002a0: 495b 25bf ca8d 113f dcbd 7abe 908b a2be
000002b0: db99 ee3e 12f0 6dbe 26f5 62bc f5bd c23d
000002c0: 57de c53e 1440 aebd 5802 babc 1ac5 1a3e
000002d0: acac 23bf 0142 d3be 21e1 e7bb 8b36 b13d
000002e0: d2c3 0cbd 5911 9e3e 674b b93e 0857 583f
000002f0: 0a19 6ebf 0819 343e 2121 f83e de2b 58be
00000300: 9abe 173e ed40 c3be 45f8 99be 9086 14bd
00000310: 6613 05bf ca6c c23e e2e1 943e 5df9 0fbe
00000320: cd77 263e 08b7 b43e 1ba0 033e 3b82 5b3e
00000330: 889b ec3c 319b dc3c cee3 92be 748b c2be
00000340: 4ebd 863d c252 9c3e 18ed 063e a40d 2c3e
00000350: f420 58bf 43ac 743e fd80 2a3e 7138 3cbe
00000360: 9465 aebf 42a5 293f bb10 e3be 067c 9a3e
00000370: 49df 843e a1ab 10bf 0939 6abf 2e4c 91bf
00000380: 21f4 c53e 9b9d dbbe e90c 8fbe 0dd8 853e
00000390: 1ac5 b63e 5587 2fbe 8239 53bf 2825 063f
000003a0: d83a 2dbd 84c3 2abe 9722 68bd 203d 80bc
000003b0: 7d45 f1bd 0e16 963d bc5e 0a3d 5032 09be
000003c0: 7677 b43e a56c 4e3e 889a 493c 7b9a 95be
000003d0: d472 cebe 2103 ebbd 078e 2a3e 1db8 00bd
000003e0: 3c0b 08be cdf9 febd 90b0 8f3e d1df 19be
000003f0: e472 9e3b 7ca4 153e 70ba 023e 2bd9 363f

weight_hh_l0 f4 [56, 14]
-0.008021138 -0.22341433 -0.28694856 0.3344166 0.08010819 0.03682637 -0.043391004 -0.3533148
0.29063666 0.1767778 0.03259488 -0.24316487 0.3212151 -0.012826238 0.50111157 0.11216824
-0.08473329 -0.07746264 -0.11835035 0.0055961492 0.095474824 -0.1995822 0.21535937 -0.35782132
-0.43135205 -0.19569547 -0.21941468 0.14588256 0.3620043 0.13315623 0.17113945 -0.1003545
-0.03926401 -0.042356584 0.5333475 -0.71198255 0.41524845 -0.45444056 -0.6750899 -0.21407914
-0.24374925 0.212012 0.3517272 -0.47011742 -0.15304904 0.16771956 0.14890973 -0.26645908
0.17885743 -0.47804108 -0.03437942 -0.5159254 -0.4088178 -0.16572551 -0.2781765 -0.50517744
0.29022896 -0.055344913 0.2068804 0.1633925 -0.11156788 0.031901322 0.4967414 -0.050598726
-0.21806291 -0.6678482 -0.06717647 0.26671538 -0.28950372 -0.14542145 -0.26999143 0.051399153
-0.047928017 -0.19302729 -0.21914423 -0.19207023 0.5886527 -0.047865182 -0.04951839 -0.2995588
0.35681853 0.2286937 0.14137164 -0.4572192 0.11492229 -0.55425763 -0.36069742 0.075242564
0.3606712 0.026709925 -0.23325385 -0.29068157 -0.3645439 0.055008825 -0.28277296 0.16617957
0.39784655 0.8636274 -0.21512079 -0.058386814 -0.15326795 -0.09272151 -0.016520416 0.22993597
0.00685216 -0.31479877 0.027258845 -0.26286533 0.7489298 -0.097323075 -0.05884902 0.21349072
0.43927616 0.2383 0.094349556 0.5121638 0.11070643 0.4244829 -0.08895119 -0.42845225
0.39293113 -0.4719027 -0.28690243 -0.43590072 -0.5657198 0.5839913 0.0019709978 0.10578774
0.3984494 0.5261646 0.15193051 -0.04988429 0.042212516 -0.2691589 0.030629016 -0.22249699
-0.300969 -0.19053924 -0.54559743 0.21119791 0.03498946 0.20953773 0.18623212 0.2179799
0.2014771 -0.041344084 0.32876045 -0.36246407 -0.19636312 -0.30329013 -0.47428778 -0.41463646
0.22647865 -0.3390927 0.55928695 -0.20913124 0.03451612 0.09565706 -0.47501168 -0.14583151
0.40355188 -0.45203918 0.10699794 -0.37009802 -0.09664066 0.020632986 -0.20874648 -0.52493054
0.28318238 -0.011953063 0.07213518 0.035921328 0.005197835 -0.115471505 -0.13305731 -0.3425424
0.197186 -0.38011494 -0.4223855 -0.095034175 -0.18362015 -0.26300824 -0.26209444 0.07972664
0.13805707 0.47145823 0.25683925 0.11491045 -0.07973558 -0.08469901 0.25628746 0.1456539
-0.50402653 0.053925823 -0.18575056 -0.25285134 0.44247964 -0.2530901 -0.13908291 -0.049842812
-0.16924898 0.21426839 0.0263119 -0.27099705 -0.09966934 -0.23169835 -0.49196568 -0.23666565
0.20525452 -0.48813534 0.08500049 0.16156043 -0.13464886 0.17334332 -0.18169299 0.2858124
-0.08376476 -0.03511702 -0.008345849 -0.32261255 -0.10741932 -0.22182867 0.010101554 -0.14855397
-0.045774166 0.30814302 0.19876282 0.10300938 0.15275571 0.28558338 0.18368384 -0.26252854
-0.20630556 -0.18016088 -0.31484112 -0.057853416 -0.3422153 0.013775041 0.13715453 -0.40485942
0.25474387 0.24464065 0.122264005 -0.033055298 0.22149655 -0.04850783 0.19287895 -0.14325367
-0.48424533 0.24639378 -0.1475162 -0.14289545 -0.050356545 0.3599304 0.17594634 0.1434275
00000000: 176b 03bc bac6 64be ecea 92be a738 ab3e
00000010: c30f a43d 3fd7 163d c4ba 31bd ade5 b4be
00000020: 54ce 943e 3d05 353e 3582 053d 3600 79be
00000030: 4e76 a43e 2425 52bc d948 003f 76b8 e53d
00000040: a688 adbd bca4 9ebd ab61 f2bd e75f b73b
00000050: 4e88 c33d 475f 4cbe 2b87 5c3e 5b34 b7be
00000060: 2dda dcbe 6564 48be 3eae 60be 3d62 153e
00000070: a158 b93e 1b5a 083e 2e3f 2f3e a986 cdbd
00000080: 4cd3 20bd 197e 2dbd 7689 083f 7d44 36bf
00000090: 729b d43e 6fac e8be b1d2 2cbf 9037 5bbe
000000a0: 6799 79be ac19 593e 9615 b43e 3bb3 f0be
000000b0: e3b8 1cbe adbe 2b3e cb7b 183e 536d 88be
000000c0: 6726 373e cdc1 f4be 6fd1 0cbd b013 04bf
000000d0: 9150 d1be f3b3 29be 266d 8ebe 4f53 01bf
000000e0: e498 943e 59b1 62bd 75d8 533e 5d50 273e
000000f0: b37d e4bd f6aa 023d e454 fe3e 9c40 4fbd
00000100: e24b 5fbe 1af8 2abf d193 89bd eb8e 883e
00000110: d539 94be 5ce9 14be 513c 8abe eb87 523d
00000120: 2b50 44bd f2a8 45be 5867 60be 0fae 44be
00000130: f1b1 163f 480e 44bd ccd3 4abd c55f 99be
00000140: ebb0 b63e ae2e 6a3e bac3 103e a318 eabe
00000150: 615c eb3d d4e3 0dbf 55ad b8be c618 9a3d
00000160: e5a9 b83e c6ce da3c 19da 6ebe 37d4 94be
00000170: 80a5 babe ef50 613d 9ec7 90be fa2a 2a3e
00000180: 8bb2 cb3e af16 5d3f a048 5cbe 0327 6fbd
00000190: 46f2 1cbe c6e4 bdbd d355 87bc 5674 6b3e
000001a0: 1688 e03b 4e2d a1be f14d df3c 4996 86be
000001b0: ddb9 3f3f 5251 c7bd ac0b 71bd 509d 5a3e
000001c0: cee8 e03e ea04 743e 573a c13d 2b1d 033f
000001d0: 0eba e23d d355 d93e 0b2c b6bd 185e dbbe
000001e0: 452e c93e 3b9d f1be e0e4 92be 612e dfbe
000001f0: 03d3 10bf 7480 153f db2b 013b 3ea7 d83d
00000200: 8f01 cc3e b9b2 063f ac93 1b3e 7853 4cbd
00000210: 08e7 2c3d 32cf 89be b4e9 fa3c 40d6 63be
00000220: 9c18 9abe b81c 43be 46ac 0bbf 4444 583e
00000230: 1c51 0f3d 0f91 563e a2b3 3e3e 1f36 5f3e
00000240: 0350 4e3e 6a58 29bd 4a53 a83e e494 b9be
00000250: 6a13 49be d848 9bbe d9d5 f2be 3b4b d4be
00000260: 05ea 673e 8f9d adbe 6e2d 0f3f 8026 56be
00000270: c660 0d3d d9e7 c33d bb34 f3be db54 15be
00000280: 5a9e ce3e ae71 e7be bc21 db3d 7d7d bdbe
00000290: 8aeb c5bd 8206 a93c a3c1 55be d961 06bf
000002a0: 48fd 903e c8d6 43bc 9cbb 933d 3e22 133d
000002b0: 9a52 aa3b 537c ecbd 2d40 08be b861 afbe
000002c0: 20eb 493e 6d9e c2be ea42 d8be 47a1 c2bd
000002d0: ec06 3cbe 04a9 86be 3e31 86be b847 a33d
000002e0: d55e 0d3e f962 f13e 6f80 833e 2c56 eb3d
000002f0: 684c a3bd ad76 adbd 1c38 833e 4c26 153e
00000300: e207 01bf 53e1 5c3d 6535 3ebe bb75 81be
00000310: b18c e23e 0795 81be c06b 0ebe fa27 4cbd
00000320: 9b4f 2dbe 2c69 5b3e 0e8c d73c 20c0 8abe
00000330: 701f ccbd 5542 6dbe ede2 fbbe 7b58 72be
00000340: 3e2e 523e e0ec f9be bd14 ae3d 1970 253e
00000350: 64e1 09be e980 313e ba0d 3abe 0156 923e
00000360: dc8c abbd ddd6 0fbd 07bd 08bc 792d a5be
00000370: a9fe dbbd 0e27 63be fd80 253c 881e 18be
00000380: b17d 3bbd ecc4 9d3e 7b88 4b3e 95f6 d23d
00000390: fe6b 1c3e fc37 923e 9e17 3c3e 246a 86be
000003a0: c441 53be 187c 38be db32 a1be b4f7 6cbd
000003b0: d836 afbe b6b0 613c 3d72 0c3e bc49 cfbe
000003c0: ca6d 823e 1483 7a3e 8d65 fa3d fe64 07bd
000003d0: fecf 623e 25b0 46bd 0f82 453e 17b1 12be
000003e0: 01ef f7be a74e 7c3e 7d0e 17be 2f53 12be
000003f0: aa42 4ebd cc48 b83e 472b 343e a9de 123e

bias_ih_l0 f4 [56]
0.13125746 -0.09883684 0.37313172 0.10151536 0.6059364 -0.19278623 -0.07185931 0.20860733
-0.08484889 0.308775 -0.11110588 0.23341669 -0.09052703 0.1569236 0.41931245 0.28474417
0.07672217 0.23902431 0.3946458 0.18855576 -0.2733001 0.03432129 0.10133153 0.16337855
-0.06708528 0.0036169603 0.13918899 0.40610096 0.3195936 -0.061429493 0.10287739 0.2938313
-0.07147118 -0.15483835 0.005704852 -0.044811543 -0.04295478 -0.16495606 -0.15970908 0.041626994
-0.13202925 0.13981247 0.32129347 0.23601082 -0.009585793 0.22943461 0.22464928 -0.0618951
0.06028324 -0.055679075 -0.1396675 0.25146157 0.056417838 0.36618286 0.26827553 0.01584063
00000000: 5b68 063e f86a cabd 1f0b bf3e 49e7 cf3d
00000010: a61e 1b3f c169 45be f92a 93bd 299d 553e
00000020: 41c5 adbd c217 9e3e 7b8b e3bd c904 6f3e
00000030: 3c66 b9bd 95b0 203e 1fb0 d63e fdc9 913e
00000040: 8320 9d3d cac2 743e 040f ca3e c314 413e
00000050: feed 8bbe 7b94 0c3d e886 cf3d b54c 273e
00000060: 0264 89bd 860a 6d3b 8f87 0e3e 77ec cf3e
00000070: c6a1 a33e 7e9d 7bbd 62b1 d23d 0e71 963e
00000080: 7b5f 92bd f28d 1ebe c4ef ba3b 4f8c 37bd
00000090: 5af1 2fbd 3eea 28be c78a 23be 1181 2a3d
000000a0: ad32 07be 002b 0f3e 9480 a43e d2ac 713e
000000b0: bb0d 1dbc e8f0 6a3e 760a 663e b785 7dbd
000000c0: 8feb 763d be0f 64bd ff04 0fbe 92bf 803e
000000d0: 6416 673d 527c bb3e 695b 893e 35c4 813c

bias_hh_l0 f4 [56]
0.35003373 0.2632146 0.084396616 0.4277672 0.42790884 -0.12505417 0.058841534 0.3327967
0.32437298 -0.000103143706 0.15517654 0.5479598 0.3459421 0.3042677 -0.017328836 0.30310532
0.27519056 0.34043887 -0.10142828 0.49357757 -0.18879007 -0.048039444 -0.039513517 0.17242922
-0.024498345 0.24629138 0.09836047 0.51079935 -0.0010715999 0.18579166 -0.17400397 0.15491419
0.1927933 -0.22109653 0.058533967 -0.11721683 -0.010955743 -0.14421308 -0.078509055 -0.19007379
-0.07174508 -0.100492686 0.02068364 0.024502782 -0.09320583 0.32242802 0.35002765 -0.08996991
0.2725444 0.128944 -0.10896485 0.2547253 0.358604 0.33811444 0.11861352 -0.059865024
00000000: 9f37 b33e 10c4 863e 22d8 ac3d 4d04 db3e
00000010: de16 db3e 330e 00be d203 713d 5464 aa3e
00000020: 3714 a63e db4e d8b8 99e6 1e3e 1847 0c3f
00000030: 531f b13e fac8 9b3e 34f5 8dbc 9f30 9b3e
00000040: c7e5 8c3e 014e ae3e a1b9 cfbd 33b6 fc3e
00000050: 2f52 41be 02c5 44bd edd8 21bd 4991 303e
00000060: c1b0 c8bc cf33 7c3e 3771 c93d bfc3 023f
00000070: ed74 8cba 2b40 3e3e 192e 32be d3a1 1e3e
00000080: 9b6b 453e 2167 62be 50c1 6f3d 610f f0bd
00000090: b77f 33bc 98ac 13be 5bc9 a0bd b4a2 42be
000000a0: 16ef 92bd 1ccf cdbd bd70 a93c 0fba c83c
000000b0: b3e2 bebd 4915 a53e d336 b33e 2542 b8bd
000000c0: f18a 8b3e e509 043e f728 dfbd 5b6b 823e
000000d0: f29a b73e 561d ad3e a5eb f23d 0735 75bd

weight f4 [1, 14]
-0.02713806 0.092565976 0.08537294 0.010870115 -0.0155000845 0.035869468 -0.24241573 -0.20871049
0.2092278 -0.015781678 0.078999415 -0.00043157415 -0.050346505 0.19901593
00000000: a350 debc 3b93 bd3d 02d8 ae3d 9118 323c
00000010: 11f4 7dbc ddeb 123d d43b 78be 34b8 55be
00000020: d03f 563e 9448 81bc 72ca a13d e744 e2b9
00000030: 2338 4ebd d5ca 4b3e
