checkpoints/lstm/lstm_o_90.pt (torch, 8162 bytes, 5 tensors)

weight_ih_l0 f4 [56, 4]
0	0x3f6ca499	0.92438656
1	0xbf127dbd	-0.5722311
2	0x3ef4aebe	0.47789568
3	0x3ede9cc6	0.43478984
4	0xbe8b37c1	-0.27190974
5	0xbf855ee7	-1.0419587
6	0xbaf269c5	-0.0018494657
7	0x3f9483ea	1.1602757
8	0x3dbf3f5c	0.09338257
9	0x3f4e419e	0.80568874
10	0x3f0c9551	0.5491534
11	0x3f8d028a	1.10164
12	0xbe7c2e57	-0.24627052
13	0xbf885ec8	-1.0653925
14	0xbe812dc0	-0.25230217
15	0x3fb96c54	1.4486184
16	0x3eb321b5	0.34986654
17	0x3dd4a6b6	0.1038336
18	0x3ea468f7	0.32111332
19	0x3e8f81f0	0.28028822
20	0xbe72fe73	-0.23729877
21	0xbed7f1e6	-0.4217674
22	0xbd67f512	-0.0566302
23	0x3fe75b45	1.8074728
24	0x3dfaf8f1	0.12254513
25	0xbe610cd2	-0.21977547
26	0x3e152e70	0.14568496
27	0x3f039350	0.51396656
28	0x3e086ee8	0.13323557
29	0x3e8a13ea	0.26968318
30	0x3e72173c	0.23641676
31	0x3f5ba6a7	0.85801166
32	0x3e75f088	0.24017537
33	0x3d69bd97	0.057065573
34	0x3e69e450	0.22841
35	0x3f27e0e4	0.6557753
36	0x3ebb9087	0.36633703
37	0x3f39e1aa	0.7260996
38	0x3e6bfe7d	0.23046298
39	0x3b48e1e8	0.0030652229
40	0x3e8e1542	0.27750593
41	0xbdbaaf02	-0.09115411
42	0xbe9f7fcc	-0.3115219
43	0x3f4f3c12	0.80951035
44	0x3d9fbc86	0.0779963
45	0xbf7d1368	-0.98857737
46	0xbe88a3d4	-0.2668749
47	0xbf06020a	-0.5234686
48	0xbf196ff8	-0.59936476
49	0x3eb1c5c1	0.34721187
50	0xbdc5742f	-0.09641301
51	0xbf5fa505	-0.87361175
52	0xbd824546	-0.06360869
53	0x3ea3fdcd	0.32029572
54	0x3d3d9cf1	0.04629225
55	0xbef3ed5b	-0.47642025
56	0xbd3a9271	-0.045549814
57	0xbf45bda5	-0.772425
58	0x3e45f044	0.19329935
59	0x3f7d583b	0.98962754
60	0x3e07daf8	0.13267124
61	0x3c97383d	0.018459434
62	0x3e049833	0.12948684
63	0xbf0c0408	-0.5469365
64	0x3ed620a9	0.41821793
65	0x3f638178	0.8886943
66	0x3f2d265a	0.67636645
67	0x3f676701	0.90391546
68	0xbe330b70	-0.17484832
69	0x3ae87934	0.0017736317
70	0xbe356244	-0.17713267
71	0x3f0d60ab	0.5522563
72	0xbe363aeb	-0.17795913
73	0xbf04fd60	-0.5194912
74	0xbe7cf02c	-0.24700993
75	0xbd1dc1e8	-0.038515
76	0xbeb22f35	-0.3480164
77	0xbd9bcd31	-0.076074965
78	0xbde3777f	-0.111067764
79	0x3e57229a	0.21009293
80	0x3dcbf9d3	0.099597596
81	0xbe901bc8	-0.28146195
82	0x3e591a83	0.2120152
83	0x3f4eeb89	0.8082815
84	0xbecf6f76	-0.40514725
85	0x3e5aba73	0.21360187
86	0xbe7fc8a6	-0.24978885
87	0x3ee0e9dd	0.43928424
88	0x3e815a62	0.2526427
89	0xbe6c4e3d	-0.2307672
90	0x3e15b68d	0.14620419
91	0x3eaacf1f	0.33361146
92	0xbe3f0623	-0.18654685
93	0x3eeffb0e	0.46871227
94	0xbe11919c	-0.14215702
95	0xbee4bb7d	-0.44674292
96	0xbdc3dd9d	-0.09563754
97	0xbe99e806	-0.30059832
98	0xbebe57d7	-0.3717639
99	0x3eca20cf	0.39478156
100	0x3e8d9409	0.27652004
101	0x3e5c5fea	0.21520963
102	0xbe7ba363	-0.24574046
103	0xbf64f08d	-0.8942955
104	0xbef63276	-0.48085374
105	0xbeb43194	-0.35194075
106	0xbce29a3b	-0.027661433
107	0xbf5eff2c	-0.8710811
108	0xbb9d6629	-0.004803438
109	0x3eaae2cf	0.33376166
110	0xbe84ea90	-0.25960207
111	0x3e5d4f45	0.2161227
112	0xbd02f542	-0.031972177
113	0x3e17fda2	0.14842847
114	0x3d60026f	0.05468982
115	0x3e0e1ad0	0.13877416
116	0xbc13958f	-0.0090078255
117	0xbda5d962	-0.08098103
118	0x3dd67556	0.10471599
119	0x3ef35eaa	0.4753316
120	0x3d958b82	0.07302
121	0xbe69652a	-0.22792497
122	0xbea314fb	-0.31851944
123	0xbd9ea864	-0.07746962
124	0x3d07b0cb	0.033127587
125	0xbea3d99b	-0.32001957
126	0x3dc9df3d	0.098570324
127	0xbc5dea53	-0.013544637
128	0x3deb1716	0.11479013
129	0xbe9f5018	-0.31115794
130	0xbeb41be6	-0.35177535
131	0x3eea05ad	0.45707455
132	0xbd74a6af	-0.059729274
133	0xbe9a16bb	-0.30095467
134	0xbea5dff3	-0.32397422
135	0x3f34adba	0.70577586
136	0xbe869f79	-0.26293543
137	0xbe8fa4dc	-0.28055465
138	0xbd8f4c2e	-0.06996952
139	0x3eea599e	0.45771497
140	0x3bad7614	0.005293617
141	0xbe324de3	-0.17412524
142	0xbe2058a2	-0.1565881
143	0xbf6b4fd7	-0.919187
144	0x3e08a641	0.13344671
145	0xbce51131	-0.027962299
146	0xbe6bf952	-0.23044327
147	0xbe5d60c6	-0.21618947
148	0xbd6c190f	-0.057641085
149	0xbf00ac3e	-0.5026282
150	0xbe2e252e	-0.1700637
151	0x3efb5633	0.49089202
152	0x3e9b6126	0.30347556
153	0xbe4fb9fb	-0.2028579
154	0x3e855eb3	0.26048812
155	0xbdff2dd5	-0.12459914
156	0x3f118752	0.5684711
157	0x3f1a9a47	0.6039166
158	0x3e4d6f4d	0.20061989
159	0xbe8f2dd8	-0.27964664
160	0xbe183e66	-0.14867553
161	0xbeb0ec2d	-0.34555188
162	0xbe18dd0d	-0.14928074
163	0xbfa29f28	-1.2704821
164	0x3d2cf818	0.04222879
165	0x3ebbf719	0.36711958
166	0x3e090647	0.13381301
167	0x401ecad2	2.4811292
168	0x3f099c80	0.53754425
169	0xbf28ca90	-0.65934086
170	0x3f4a733d	0.7908209
171	0x3f7565ee	0.9585866
172	0xbeb1dc01	-0.34738162
173	0x3ec30707	0.380913
174	0x3f280fed	0.656493
175	0xbe6d8f9e	-0.23199317
176	0x3ea7a57c	0.32743442
177	0x3f0b9c1e	0.5453509
178	0x3f210cda	0.62910235
179	0x3f5d7c58	0.8651786
180	0x3f221959	0.6331993
181	0x3e7c68a4	0.24649292
182	0x3d20473e	0.03913044
183	0x3fc6c739	1.5529548
184	0x3e9aa8be	0.30206865
185	0x3f3012bd	0.6877859
186	0x3f2e27f4	0.68029714
187	0xbde70665	-0.112805165
188	0xbdb12bed	-0.08650956
189	0x3d5ecc16	0.05439385
190	0xbdf5a121	-0.119936235
191	0xbdf4efa1	-0.11959768
192	0x3e956df3	0.29185447
193	0xbe17ed8d	-0.14836712
194	0x3f0b8408	0.5449834
195	0x3ff2e9de	1.8977621
196	0xbe9b8ce0	-0.30380917
197	0x3f31ce25	0.69455177
198	0xbf01fefd	-0.50779706
199	0x3f4784e7	0.7793717
200	0xbc65d893	-0.014028686
201	0xbebaac3b	-0.36459526
202	0x3e4151d7	0.18878876
203	0x3e01a37e	0.12660024
204	0x3e3742f7	0.17896639
205	0x3eb40190	0.35157442
206	0xbe1d7ee1	-0.15380432
207	0x3c06267a	0.008187884
208	0x3e790fc1	0.24322416
209	0xbe8705ea	-0.263717
210	0xbef9ddb0	-0.48801947
211	0x3f8ae8b3	1.0852264
212	0xbf00ca61	-0.50308806
213	0xbf2302af	-0.6367597
214	0x3e916af7	0.2840192
215	0x3f07fd0a	0.5312048
216	0xbe7672a3	-0.24067168
217	0x3e635f6f	0.22204374
218	0x3e260f06	0.16216668
219	0xbf940edc	-1.1567035
220	0x3e98676b	0.29766402
221	0x3ee9aa69	0.45637825
222	0x3ee9f22e	0.4569258
223	0x3f1cba2a	0.61221564

weight_hh_l0 f4 [56, 14]
0	0xbe10ac54	-0.14128238
1	0xbc170584	-0.009217624
2	0xbe604d16	-0.21904406
3	0x3ea7072f	0.32622668
4	0xbe090e7b	-0.1338443
5	0x3e65f6b4	0.22457391
6	0x3e76e61b	0.24111216
7	0x3e6f6e77	0.23381983
8	0xbcf016c3	-0.029307729
9	0xbd45dabe	-0.048304312
10	0xbe7cb4c0	-0.24678326
11	0x3e5edea6	0.21764621
12	0x3ef8c8ff	0.48590848
13	0x3d1b89d1	0.03797323
14	0x3e432d90	0.1906035
15	0x3e24eba7	0.16105519
16	0xbd80dbc5	-0.06291918
17	0xbc497730	-0.012296483
18	0x3ee45cc3	0.44602022
19	0x3dcd9994	0.10039058
20	0xbeb4ede3	-0.35337743
21	0x3d1f767d	0.03893136
22	0x3dabedde	0.08394979
23	0xbe33a1d3	-0.175422
24	0xbe8d786e	-0.27630943
25	0xbe017bf8	-0.12644947
26	0xbd1da336	-0.03848573
27	0xbcb488cf	-0.022037892
28	0x3e00d434	0.12580949
29	0xbedf592b	-0.43622717
30	0xbe215060	-0.15753317
31	0x3eb79db7	0.35862514
32	0x3e85b9ad	0.26118222
33	0xbe98bcd7	-0.29831573
34	0x3d2b6c98	0.04185161
35	0x3cd25922	0.025677267
36	0x3cbaee76	0.022818785
37	0xbe85788b	-0.2606853
38	0xbdfacf11	-0.12246526
39	0xbdb2867b	-0.08717056
40	0x3e923f01	0.28563693
41	0xbecf647c	-0.4050635
42	0xbc94e8b9	-0.018177377
43	0xbe199361	-0.14997627
44	0xbe91e743	-0.2849675
45	0xbee1f596	-0.4413268
46	0x3e4c9874	0.19980031
47	0xbe981090	-0.29700136
48	0xbef0e9f2	-0.47053486
49	0xbcb6d664	-0.022319026
50	0xbd833fbd	-0.064086415
51	0xbf1f2bf4	-0.6217644
52	0xbd7c2bd9	-0.061565254
53	0xbd1d719c	-0.038438424
54	0xbe228fdc	-0.1587519
55	0xbc81e2eb	-0.015855273
56	0xbec4d108	-0.38440728
57	0x3d8602b6	0.06543486
58	0x3e5e10a4	0.21686035
59	0x3e3d1a9b	0.1846718
60	0x3e47c70c	0.19509524
61	0xbc54a2e6	-0.012978291
62	0xbe6809f8	-0.22660053
63	0xbee68379	-0.4502218
64	0xbe2024c5	-0.15639026
65	0xbecf0f76	-0.40441483
66	0xbe790a23	-0.24320273
67	0x3e0bc178	0.13648021
68	0xbdbde745	-0.09272627
69	0x3f1e8b28	0.61931086
70	0x3cfe41d6	0.031037252
71	0xbe2441f3	-0.16040783
72	0x3d892715	0.066969074
73	0x3f0642de	0.5244578
74	0x3e76d35f	0.24104069
75	0x3e0e57e3	0.13900714
76	0xbf1902df	-0.59770006
77	0x3e1ed5e0	0.15511274
78	0xbe07eb83	-0.13273434
79	0x3e2bbfc9	0.16772379
80	0xbe6a0811	-0.2285464
81	0xbea1da4f	-0.3161187
82	0x3d5961c2	0.053071745
83	0x3e47d5de	0.19515178
84	0xbe79e88e	-0.24405119
85	0xbe0f2385	-0.13978393
86	0xbcbccefa	-0.023047913
87	0x3ea6e752	0.32598358
88	0x3d99ec17	0.07515734
89	0xbe6dec05	-0.23234566
90	0xbe376bca	-0.17912212
91	0xbe7e5d96	-0.24840388
92	0xbcff61ef	-0.031174628
93	0xbeb69744	-0.35662282
94	0xbe192ef1	-0.14959313
95	0xbe18c751	-0.14919783
96	0x3ef997d0	0.48748636
97	0x3d8b295b	0.06794997
98	0xbe83cf9e	-0.25744337
99	0x3deaf8bf	0.11473226
100	0xbee0246b	-0.43777785
101	0xbd81fa20	-0.06346536
102	0x3efae1da	0.49000436
103	0x39ffd634	0.00048796984
104	0x3e8fa114	0.2805258
105	0xbe2befaf	-0.16790651
106	0xbca83cea	-0.020536859
107	0xbe1da9d0	-0.1539681
108	0xbcd5d860	-0.026104152
109	0xbe24b484	-0.16084486
110	0xbda1da0c	-0.07902917
111	0x3ef6c3eb	0.4819635
112	0x3e5f15b8	0.21785629
113	0x3db4184b	0.08793696
114	0xbdbd3bf3	-0.0923995
115	0x3e7ea544	0.24867731
116	0xbd038290	-0.032106936
117	0xbe8555ab	-0.26041922
118	0xbeaad099	-0.33362272
119	0xbdd8b5e4	-0.10581568
120	0xbed5e37f	-0.41775128
121	0xbe70e05a	-0.23523083
122	0xbcc1bfe5	-0.023651073
123	0xbdb961a0	-0.090518236
124	0x3ea457e2	0.320983
125	0xbd7b00eb	-0.061280172
126	0x3d887720	0.06663346
127	0xbf0071ce	-0.5017365
128	0x3ed36626	0.4128887
129	0xbd65d12b	-0.05610768
130	0xbd460d84	-0.048352733
131	0x3a9c9577	0.00119464
132	0xbe2388bd	-0.1597013
133	0x3e27a1dc	0.16370338
134	0x3e1cce6c	0.15313119
135	0xbe998d69	-0.299907
136	0x3e681c1c	0.22666973
137	0x3e887fc3	0.26659974
138	0x3e7bdd4e	0.2459614
139	0xbe1dfed2	-0.15429237
140	0x3ebf63c0	0.3738079
141	0x3e987fd3	0.29785022
142	0x3e3350e8	0.17511332
143	0x3e03d144	0.12872797
144	0x3d3904a3	0.045170438
145	0x3e36ea29	0.17862763
146	0xbe77f141	-0.24213125
147	0xbe47439f	-0.19459389
148	0x3d44683a	0.04795096
149	0xbed5cdfa	-0.4175871
150	0xbdc38d0d	-0.09548388
151	0xbea36e3d	-0.31920043
152	0xbe4eebf4	-0.20207196
153	0xbe951654	-0.29118598
154	0x3e29d1dd	0.16583963
155	0xbef8c872	-0.48590428
156	0x3eb1cd1d	0.34726802
157	0x3e3a618b	0.18201272
158	0xbbe96fe4	-0.007123934
159	0xbeca83fa	-0.39553815
160	0xbe8b14ce	-0.2716431
161	0x3e6e628e	0.23279783
162	0xbdad148c	-0.08451185
163	0xbf9fdfe4	-1.2490201
164	0xbe8883aa	-0.26662952
165	0x3ae66c6c	0.001757992
166	0x3f64cd49	0.8937574
167	0x3d2a2eaa	0.04154841
168	0x3e22595c	0.158544
169	0xbe21a76c	-0.15786523
170	0x3e8abecb	0.27098688
171	0x3e28e871	0.1649492
172	0x3e7a3434	0.24433976
173	0x3d75c661	0.060003642
174	0x3c44122f	0.011967226
175	0xbc58f94e	-0.013243033
176	0xbe0237e3	-0.12716632
177	0xbe2a5cb4	-0.16636926
178	0xbea48426	-0.3213207
179	0xbcd496de	-0.025950845
180	0x3d1159f9	0.035486195
181	0x3ea9ad87	0.33140203
182	0xbf02322e	-0.5085782
183	0xbdfef9d0	-0.12449992
184	0xbce9d9a9	-0.028546171
185	0x3e887702	0.26653296
186	0x3ee587f2	0.4483028
187	0x3d8fdd4e	0.070246324
188	0x3e068d22	0.13139775
189	0xbf02b51f	-0.5105762
190	0xbe17f928	-0.1484114
191	0xbe807b46	-0.2509405
192	0xbee1e6ef	-0.441215
193	0x3e9c68ac	0.30548608
194	0x3f1a2061	0.60205656
195	0x3f0a8712	0.5411235
196	0xbe9e2976	-0.30891007
197	0x3ec5825b	0.38576016
198	0x3e1535c6	0.14571294
199	0x3ea696ca	0.32536918
200	0x3e82cd03	0.25547037
201	0x3c265df0	0.010154232
202	0x3e2f29f4	0.17105848
203	0xbd83a4f8	-0.0642795
204	0x3e2c136a	0.16804281
205	0x3c97b110	0.018517047
206	0xbf020373	-0.50786513
207	0x3d9911fd	0.07474134
208	0x3e152f00	0.1456871
209	0x3ef80058	0.48437762
210	0xbda8c7ce	-0.08241235
211	0xbe1c3454	-0.15254337
212	0x3de83886	0.11338906
213	0x3f120fd6	0.57055414
214	0x3e4a6ecc	0.19768828
215	0xbd29fe03	-0.04150201
216	0x3dcf7ebb	0.10131594
217	0xbdb91829	-0.09037811
218	0xbf10213b	-0.56300706
219	0xbe43b1c5	-0.19110782
220	0xbeb025a1	-0.3440371
221	0xbdb208af	-0.086930625
222	0x3e24219d	0.16028447
223	0x3eb22b9b	0.34798893
224	0xbe261677	-0.16219507
225	0xbe57f410	-0.21089196
226	0x3baf52bd	0.0053504393
227	0x3e9028d8	0.2815616
228	0xbece60b9	-0.4030817
229	0x3e082911	0.13296916
230	0xbe1e5733	-0.15462951
231	0xbe98f273	-0.29872474
232	0xbd978710	-0.07398808
233	0xbe116f9b	-0.1420273
234	0xbd27cd7c	-0.04096745
235	0x3e2f66be	0.17129037
236	0x3e0d9367	0.13825761
237	0x3e1311cf	0.14362262
238	0xbd436162	-0.047700293
239	0x3e9f72b9	0.31142214
240	0x3dccd09f	0.10000729
241	0x3e0df521	0.1386304
242	0x3f0fa4b0	0.5611067
243	0x3d7f0a14	0.06226547
244	0xbe843f5e	-0.25829595
245	0xbe73b928	-0.238011
246	0xbe2a4d9a	-0.16631165
247	0xbcaec753	-0.02133528
248	0xbea08051	-0.31347898
249	0x3d5ca100	0.05386448
250	0xbc567417	-0.013089201
251	0x3e91c459	0.28470114
252	0x3dad19a7	0.084521584
253	0x3e928ca5	0.28622928
254	0x3ee07c23	0.4384471
255	0x3ec1f375	0.37881055

bias_ih_l0 f4 [56]
0	0x3dc398bd	0.09550617
1	0x3e631629	0.22176422
2	0xbe7d16e2	-0.2471576
3	0x3eae539b	0.3404816
4	0x3d97863e	0.073986515
5	0x3e365bdb	0.17808478
6	0x3e7a4e3b	0.24443905
7	0x3d5b3705	0.053519268
8	0x3e6c16cd	0.23055573
9	0xbe3455db	-0.17610876
10	0x3bfabfc3	0.0076522543
11	0x3e2539d5	0.16135342
12	0x3d4369f5	0.04770847
13	0x3f1e0176	0.6172098
14	0xbd42b255	-0.047533352
15	0xbb232c90	-0.0024898387
16	0xbc93b900	-0.01803255
17	0x3e9611bb	0.29310402
18	0xbb909828	-0.0044126697
19	0x3e5572c9	0.20844568
20	0xbd82ee27	-0.0639308
21	0xbe97bbb3	-0.2963539
22	0xbd4ed47b	-0.050495606
23	0x3e4432f4	0.19160062
24	0x3e815c8b	0.25265917
25	0x3ed176f9	0.4091108
26	0xbdc91f0f	-0.09820377
27	0x3e5220f7	0.20520388
28	0xbe6d80ba	-0.23193637
29	0x3e4232ed	0.18964739
30	0x3e2ab7d3	0.16671686
31	0x3ea17daf	0.315412
32	0x3e3680f1	0.17822625
33	0xbdb89992	-0.09013666
34	0x3db68eaa	0.0891393
35	0xbded9e9f	-0.1160252
36	0xbe43684b	-0.19082753
37	0xbe0d6b32	-0.13810423
38	0xbe7533a3	-0.23945479
39	0xbdb5ccfb	-0.088769875
40	0x3df20f9d	0.11819384
41	0xbd8dbe9f	-0.06921124
42	0x3e5fdf96	0.21862635
43	0xbc3d4db7	-0.011554173
44	0x3d4575d7	0.048208084
45	0x3ee437ac	0.44573724
46	0xbc8c0866	-0.017093848
47	0x3d98b33f	0.074560635
48	0x3d6604b0	0.056156814
49	0xbcdabd75	-0.026701668
50	0x3c2e41bb	0.010635789
51	0x3e2c8008	0.16845715
52	0x3eba6f5d	0.36413088
53	0x3e44bac7	0.19211875
54	0x3cf6190e	0.030041244
55	0x3e736788	0.23769963

bias_hh_l0 f4 [56]
0	0x3d84a95c	0.06477615
1	0x3d3da15f	0.046296474
2	0xbd3b5984	-0.045739666
3	0x3e00d2b9	0.12580384
4	0x3c4d8521	0.012543947
5	0xbc97cb82	-0.018529657
6	0xbdc78d7f	-0.09743785
7	0x3c980b09	0.01855995
8	0x3d957c0f	0.07299053
9	0xbe086353	-0.13319139
10	0xbcb66a89	-0.022267597
11	0x3f0d633c	0.55229545
12	0x3e2eb2fb	0.17060463
13	0x3eccf1c4	0.40028203
14	0x3d274a1e	0.040842168
15	0x3e9afb19	0.30269697
16	0x3ec054af	0.37564608
17	0x3ec859db	0.39131054
18	0x3e59fa94	0.21286994
19	0x3d72f296	0.05931338
20	0x3d245bfc	0.040126786
21	0xbe2ced47	-0.16887389
22	0x3eebf2d4	0.460837
23	0x3e819ca2	0.25314814
24	0x3cf7d088	0.030250803
25	0x3eb96ef0	0.3621745
26	0xbd71cf4f	-0.059035596
27	0x3b9cb7c4	0.0047826488
28	0x3e655d72	0.22398928
29	0x3c2e64cb	0.010644148
30	0x3df47ddb	0.119380675
31	0xbdb86da2	-0.09005286
32	0xbe092cbd	-0.13395973
33	0xbc254118	-0.01008632
34	0xbe3011e7	-0.17194329
35	0xbe4077e5	-0.18795736
36	0x3dd56dbc	0.10421321
37	0xbe20c5e0	-0.15700483
38	0xbe4ff1a5	-0.20307024
39	0xbe23fb5e	-0.16013858
40	0xbd3d5ca7	-0.04623094
41	0x3e0f8b2d	0.14017935
42	0xbbb44163	-0.0055009588
43	0x3e75d206	0.24005899
44	0xbdeb2170	-0.11480987
45	0x3edc13d6	0.42983884
46	0x3df1abc2	0.11800338
47	0x3e54fe99	0.20800246
48	0x3d708a88	0.058725864
49	0x3da7dd17	0.081964664
50	0x3d8a60df	0.06756758
51	0x3d52c4bc	0.05145715
52	0x3d93b930	0.07213056
53	0x3deb3646	0.11484961
54	0x3e5ef826	0.21774349
55	0x3ec35b87	0.38155767

weight f4 [1, 14]
0	0xbd047d9a	-0.032346345
1	0x3d896aa3	0.067097925
2	0x3d02225a	0.03177104
3	0x3c2c3533	0.010510731
4	0x3e37f06e	0.1796281
5	0x3e0f6431	0.14003064
6	0x3e3dd66c	0.18538827
7	0xbd620dc3	-0.055188905
8	0xbe8d4286	-0.27589816
9	0x3d3efcff	0.046627995
10	0xbba56bfb	-0.0050482727
11	0x3a5057f7	0.0007947678
12	0xbe20d7e0	-0.1570735
13	0x3d187ad6	0.03722652
