checkpoints/lstm/lstm_o_150.pt (torch, 9065 bytes, 5 tensors)

weight_ih_l0 f4 [56, 8]
0	0x3ed746c8	0.4204619
1	0x3efddafe	0.4958114
2	0x3f4af0d2	0.7927371
3	0x3d36f26b	0.04466478
4	0x3eb30d8e	0.3497128
5	0x3f13a6d1	0.57676417
6	0xbe02a5e1	-0.1275859
7	0xbf388453	-0.7207691
8	0x3e7d9382	0.24763301
9	0xbe9b9181	-0.30384448
10	0xbea35987	-0.3190424
11	0x3f125294	0.57157254
12	0xbf1a370e	-0.60240257
13	0x3f1be1c6	0.6089138
14	0x3e9106e7	0.2832558
15	0x3cddf5ea	0.0270948
16	0xbf840749	-1.0314723
17	0x3f6c8296	0.9238676
18	0xbf24951b	-0.64290017
19	0x3eb9f2bd	0.36318007
20	0x3ebca55a	0.36844903
21	0xbf163e22	-0.5868856
22	0x3da83315	0.08212868
23	0x3f95cee2	1.1703761
24	0x3f1e1020	0.61743355
25	0xbea4e9b0	-0.3220954
26	0x3e8c135f	0.2735853
27	0x3f12b4ef	0.5730733
28	0xbf42f727	-0.76158375
29	0x3f1b3f7e	0.60643756
30	0x3e0c17c7	0.13680945
31	0xbc31b756	-0.010846933
32	0x3e7f8147	0.24951659
33	0xbe811de2	-0.2521811
34	0x3f7d3ffd	0.98925763
35	0x3c840ae1	0.016118469
36	0x3cbceaec	0.023061238
37	0x3f511132	0.8166686
38	0xbf924973	-1.1428665
39	0xbf85ce1f	-1.0453528
40	0x3e09d626	0.13460597
41	0x3e2999e0	0.16562605
42	0x3f17a3bd	0.5923422
43	0x3f4d6365	0.8022979
44	0xbefe150a	-0.49625427
45	0xbf039e24	-0.5141318
46	0x3e1c831e	0.15284392
47	0xbf15db3f	-0.5853767
48	0xbc94c362	-0.018159572
49	0x3de81a1a	0.113331035
50	0x3ebd54fb	0.36978897
51	0xbc25f1ef	-0.010128482
52	0x3f0ea7b7	0.5572466
53	0x3d845cd0	0.06463015
54	0xbec5d5a3	-0.38639554
55	0xbe6d8321	-0.23194553
56	0x3e90a33b	0.28249535
57	0xbf6272b3	-0.8845627
58	0xbeacd0ef	-0.33753154
59	0x3fdc3c04	1.7205815
60	0xbee02c9b	-0.4378403
61	0x3e9d5e93	0.30736217
62	0xbf60bdf0	-0.8778982
63	0x3e91283a	0.28351003
64	0xbd2e8ef7	-0.04261681
65	0xbe9e54bb	-0.3092402
66	0xbf08e850	-0.5347948
67	0x3e35651d	0.17714353
68	0xbecb0304	-0.39650738
69	0x3ea1e0c1	0.31616786
70	0xbfa8ccfd	-1.3187557
71	0xbc85e45d	-0.016344244
72	0x3e61689b	0.2201256
73	0x3cd5a375	0.026078919
74	0x3d9f450a	0.0777684
75	0xbf2eecb4	-0.6832993
76	0x3e4a4a9e	0.19755027
77	0xbe458431	-0.19288708
78	0x3e615379	0.22004499
79	0x3e916ed3	0.28404865
80	0xbb75aa93	-0.0037485703
81	0xbefb96e0	-0.49138546
82	0xbe6a08c8	-0.22854912
83	0xbe73edc1	-0.23821165
84	0xbf0457c3	-0.51696414
85	0x3eb720d8	0.35767245
86	0xbc2cdf70	-0.0105513185
87	0xbf0dbbbe	-0.55364597
88	0xbdd743d5	-0.10510985
89	0xbe27da8d	-0.16391964
90	0xbec6215b	-0.38697323
91	0x3ef78dd4	0.48350394
92	0xbe7b3b43	-0.24534325
93	0x3ed31d0f	0.41233107
94	0x3eaabf6c	0.33349168
95	0x3f07112c	0.5276058
96	0x3ea0ea5d	0.31428805
97	0x3df7422b	0.120731674
98	0x3e359c3e	0.17735383
99	0x3eb579eb	0.3544458
100	0xbf304c1d	-0.6886614
101	0x3f01721f	0.5056476
102	0x3d0b28d9	0.033974502
103	0xbdf47e6b	-0.11938175
104	0xbea13cb9	-0.3149164
105	0xbeb81a21	-0.35957435
106	0xbd92fc13	-0.071769856
107	0x3f062478	0.52399397
108	0x3ed16083	0.40893945
109	0x3ef7e43e	0.48416322
110	0xbe8bc28b	-0.27296862
111	0xbe87a298	-0.26491237
112	0x3d641375	0.05568262
113	0x3f0f4f9a	0.5598084
114	0x3d9b0e66	0.07571106
115	0xbf1ac871	-0.604621
116	0x3e8cce5c	0.2750119
117	0xbdf818f2	-0.12114133
118	0xbe020c83	-0.12700085
119	0xbf276c18	-0.6539931
120	0x3e9c6b68	0.30550694
121	0xbde3e7b8	-0.11128181
122	0xbe63aabc	-0.22233099
123	0x3ed80e6a	0.42198497
124	0xbeb7d379	-0.35903528
125	0x3e6edee5	0.23327215
126	0x3e9d0f41	0.306757
127	0xbe2a0274	-0.16602498
128	0x3e1d4ccf	0.15361331
129	0x3f5cffdc	0.8632791
130	0x3d8d5247	0.06900459
131	0xbf1d2483	-0.6138384
132	0xbf525b4b	-0.8217055
133	0x3e48d667	0.19613038
134	0x3e8c5732	0.27410275
135	0x3fa2db32	1.2723143
136	0xbdedf0e8	-0.11618215
137	0xbe789fee	-0.24279758
138	0xbd1f83df	-0.03894412
139	0x3ea2739d	0.3172883
140	0xbf87344f	-1.0562838
141	0x3e4f5d34	0.20250398
142	0x3b4cc255	0.003124376
143	0xbbc79784	-0.00609106
144	0xbd9ecf19	-0.077543445
145	0xbf19d409	-0.60089165
146	0xbcee4ef9	-0.029090391
147	0x3e60b828	0.2194525
148	0xbf80ed2f	-1.0072383
149	0x3d883303	0.06650355
150	0xbec527c7	-0.3850691
151	0x3e330727	0.17483197
152	0x3e1dca28	0.15409148
153	0x3f30925f	0.68973345
154	0x3f11e162	0.5698453
155	0x3f169cd3	0.58833045
156	0xbeb403a8	-0.3515904
157	0x3d4ddefe	0.05026149
158	0x3e015c2c	0.12632817
159	0xbe9afc25	-0.30270496
160	0x3e964b59	0.2935436
161	0x3eab9b92	0.33517128
162	0x3e82f727	0.25579187
163	0x3e1ea27f	0.15491675
164	0x3f2033e5	0.62579185
165	0xbdb59427	-0.088661484
166	0xbf8a7cc5	-1.0819327
167	0x3ee27763	0.4423171
168	0xbe087848	-0.13327134
169	0x3df7c060	0.120972395
170	0xbe333d60	-0.17503881
171	0xbe7caefb	-0.24676125
172	0xbf8f415f	-1.1191825
173	0xbe264d25	-0.16240366
174	0xbe3edcc5	-0.18638904
175	0x3c51a31e	0.012795238
176	0xbe150247	-0.1455165
177	0x3e8293bc	0.25503337
178	0x3e867164	0.26258385
179	0xbe18ce04	-0.14922339
180	0xbf1eea3a	-0.6207615
181	0xbdc954df	-0.09830641
182	0xbed3c984	-0.41364682
183	0xbf064f8b	-0.5246512
184	0x3f445f63	0.7670805
185	0x3e23c621	0.15993549
186	0x3f0fde34	0.5619843
187	0xbe6127fb	-0.21987908
188	0x3df0b0f1	0.11752499
189	0xbe0fbd13	-0.1403697
190	0xbe8015d8	-0.25016665
191	0x3f153676	0.58286226
192	0x3de885c2	0.11353637
193	0xbc4b19b7	-0.012396268
194	0x3cbeca4f	0.023289828
195	0x3ec3462c	0.38139474
196	0xbf1ab957	-0.60439056
197	0x3ef7bfd5	0.48388544
198	0xbe1c28da	-0.15249959
199	0xbe81efcd	-0.25378266
200	0xbe5c5716	-0.21517596
201	0xbe4de3d4	-0.20106441
202	0xbd667119	-0.056260202
203	0x3e1a6de2	0.1508098
204	0xbf2d8e81	-0.6779557
205	0xbe1ebe9f	-0.15502404
206	0x3dbc2424	0.09186581
207	0x3d0aca18	0.033884138
208	0x3cefc1ef	0.02926728
209	0x3d7742f2	0.06036658
210	0x3de97561	0.113993414
211	0x3ef1134b	0.47085032
212	0xbfa99dd2	-1.3251288
213	0xbd2d53b9	-0.042316172
214	0xbebd7a9b	-0.37007603
215	0x3e94ea5c	0.29085052
216	0x3e8d02d2	0.27541214
217	0x3bd385ef	0.006455175
218	0xbe07a991	-0.13248278
219	0xbd505913	-0.050866198
220	0x3ea74e32	0.32676846
221	0xbe93c971	-0.28864625
222	0x3d2469ee	0.040140085
223	0xbeeac7a7	-0.45855448
224	0xbe655b9c	-0.22398227
225	0x3e956eb9	0.29186037
226	0x3bebab5f	0.00719206
227	0x3e8f7b09	0.28023556
228	0x3eb99e69	0.3625367
229	0x3d2b4d02	0.041821487
230	0x3d29794b	0.04137544
231	0xbf189eed	-0.596175
232	0xbea3c9e0	-0.31989956
233	0xbc75abaf	-0.014994546
234	0xbe3e3ae6	-0.18577155
235	0x3e5793c0	0.21052456
236	0xbf0aaa8c	-0.54166484
237	0xbd207354	-0.039172485
238	0xbe025483	-0.12727551
239	0x3ea87408	0.32901025
240	0x3cf063c8	0.029344454
241	0x3f09c619	0.538179
242	0x3d35b160	0.04435861
243	0xbe89caf3	-0.2691265
244	0xbe7041ef	-0.23462652
245	0x3d7c3df0	0.061582506
246	0x3d97a954	0.07405344
247	0xbf5b71c6	-0.8572048
248	0xbe07a4b2	-0.1324642
249	0xbe524d33	-0.20537262
250	0xbe2b2559	-0.16713466
251	0x3ececdcc	0.40391386
252	0xbd609dd7	-0.054838028
253	0xbce869c4	-0.028370745
254	0x3e90db05	0.282921
255	0xbea57502	-0.32315832

weight_hh_l0 f4 [56, 14]
0	0xbc9f988c	-0.01948192
1	0x3ed7ddda	0.42161447
2	0xbe88689f	-0.2664232
3	0xbe8d1744	-0.27556813
4	0x3dea04f9	0.1142673
5	0xbd9db9b1	-0.077014334
6	0x3e05a006	0.13049325
7	0x3d9fd887	0.07804971
8	0x3c6fa9e4	0.014627907
9	0x3e2968a5	0.16543825
10	0xbe1b1fa6	-0.15148792
11	0x3e861560	0.26188183
12	0xbe27835c	-0.16358703
13	0x3d5e88ca	0.05432967
14	0x3d6f3f21	0.058409814
15	0xbda1f210	-0.07907498
16	0xbf1cb208	-0.61209154
17	0x3ebfe459	0.37478903
18	0x3e28edbf	0.16496943
19	0x3eaf9257	0.34291336
20	0xbe048fe2	-0.12945512
21	0x3d204b11	0.03913409
22	0xbd4c779d	-0.04991876
23	0xbe994d3b	-0.29941735
24	0xbdfa9edd	-0.12237332
25	0x3dc7e005	0.09759525
26	0x3df38f1f	0.118925326
27	0xbcdfebf5	-0.027334193
28	0xbd5b42f3	-0.053530645
29	0xbce008a2	-0.027347866
30	0xbe0742fb	-0.13209145
31	0xbe08501d	-0.13311811
32	0x3e213e42	0.15746406
33	0x3ed1e548	0.4099524
34	0xbe459d2a	-0.19298235
35	0xbec2562f	-0.37956378
36	0xbbecb248	-0.007223401
37	0x3e53c18c	0.20679301
38	0x3e1a6301	0.1507683
39	0xbdd65ac7	-0.10466533
40	0x3dc0c602	0.09412767
41	0xbe026d49	-0.12737001
42	0xbecbf8e3	-0.39838323
43	0x3d7d818c	0.061891124
44	0x3e178175	0.14795478
45	0x3c93c2dd	0.018037254
46	0xbdf29d78	-0.11846441
47	0xbe3d6522	-0.1849561
48	0xbe57c070	-0.21069503
49	0xbc9e24f5	-0.019304732
50	0x3b2e0d66	0.002655828
51	0xbe67e321	-0.22645237
52	0x3e12c8be	0.1433439
53	0x3ecbb7d6	0.39788693
54	0x3e273424	0.16328484
55	0xbed82501	-0.42215732
56	0x3e6d81c0	0.23194027
57	0x3e0148ee	0.12625477
58	0x3e686c59	0.22697581
59	0xbeaa1547	-0.33219358
60	0xbe109f08	-0.14123166
61	0x3d2f6c16	0.04282769
62	0x3eb15931	0.3463836
63	0xbf0fc150	-0.56154346
64	0xbe2bca83	-0.16776471
65	0x3de1367c	0.1099672
66	0xbe001bb3	-0.12510566
67	0x3ebfc25c	0.37452972
68	0xbeb50092	-0.35351998
69	0xbe6b1aab	-0.22959392
70	0x3d753f7f	0.059875008
71	0xbd5ac671	-0.053411905
72	0xbdf65dc4	-0.12029603
73	0x3e260f5d	0.16216798
74	0x3d16afde	0.036788814
75	0x3e2be2bb	0.1678571
76	0xbe4ec9ff	-0.20194243
77	0xbe6f5e61	-0.23375846
78	0x3dcc8a2a	0.0998729
79	0x3e097e61	0.13427116
80	0xbe875d84	-0.26438534
81	0xbb84af8d	-0.0040492476
82	0x3d8e671c	0.0695326
83	0xbd030c8e	-0.031994395
84	0xbe3fa7ce	-0.18716356
85	0xbe87f3ce	-0.26553196
86	0x3f122d4e	0.5710038
87	0x3e4657a4	0.1936937
88	0x3dc97193	0.09836116
89	0xbd9e8099	-0.07739372
90	0x3eb56e64	0.35435784
91	0xbdc3d8dc	-0.09562847
92	0xbe1299b5	-0.14316447
93	0xbde97b3b	-0.114004575
94	0x3eb8ca99	0.3609207
95	0x3e4913f2	0.19636515
96	0xbda5d4c7	-0.08097225
97	0xbeadecbe	-0.33969682
98	0xbea2235f	-0.3166761
99	0x3ee89cb3	0.45432052
100	0xbe44f2cd	-0.19233246
101	0xbe56cfd1	-0.20977713
102	0x3e834527	0.25638697
103	0x3ef75a48	0.48311067
104	0x3ebbf537	0.36710522
105	0xbf0f7eb8	-0.5605273
106	0xbf0a200b	-0.53955144
107	0xbeb56b20	-0.35433292
108	0xbd042009	-0.032257114
109	0x3f076cd3	0.5290043
110	0xbed24c2b	-0.41073737
111	0xbf0b15e4	-0.5433028
112	0xbea5f548	-0.32413697
113	0xbd1eb331	-0.03874511
114	0xbe999f5e	-0.300044
115	0xbdb46757	-0.08808773
116	0x3e0867f5	0.13320906
117	0xbde5bc92	-0.112176076
118	0xbe57982f	-0.21054147
119	0xbe435c13	-0.19078092
120	0xbd8b9b88	-0.068167746
121	0x3e44635e	0.1917853
122	0xbe87478c	-0.26421773
123	0xbea1a6fb	-0.31572708
124	0xbe650be7	-0.22367822
125	0xbe650def	-0.22368596
126	0xbe4e7665	-0.20162351
127	0xbe138b80	-0.14408684
128	0x3ec34ed0	0.38146067
129	0x3e8676bc	0.26262462
130	0x3e8be874	0.27325785
131	0x3f3e66f7	0.7437586
132	0x3ee898b3	0.45429
133	0xbe265ff6	-0.16247544
134	0xbe9d8034	-0.30761874
135	0xbc3c3812	-0.011487978
136	0x3ef3894e	0.47565693
137	0x3e69db07	0.22837459
138	0x3c2efca2	0.01068035
139	0x3e881da3	0.2658511
140	0xbef62c6d	-0.4808077
141	0x3d2f7058	0.04283175
142	0xbd413a29	-0.047174606
143	0x3e48f01a	0.19622841
144	0x3ea296d4	0.31755698
145	0x3e8fc3cf	0.28079078
146	0xbe0b0504	-0.13576132
147	0xbeb6e4a8	-0.35721326
148	0x3b17cab6	0.0023161597
149	0xbe900bfe	-0.2813415
150	0xbe8a6bd4	-0.2703539
151	0x3f1002d0	0.5625429
152	0x3c147744	0.009061638
153	0xbd39c444	-0.04535319
154	0x3c08b20f	0.008343234
155	0x3eb5f328	0.35537076
156	0xbe04c411	-0.12965418
157	0xbe9b620e	-0.30348247
158	0x3f40763c	0.7518041
159	0xbdefc3ff	-0.11707305
160	0x3cff7395	0.031183043
161	0xbf3745fa	-0.7159115
162	0xbe3f4192	-0.18677357
163	0xbe631984	-0.22177702
164	0x3e31ec67	0.17375337
165	0x3f2d1aca	0.67619
166	0xbf1b5649	-0.60678536
167	0x3d37ed7b	0.044904213
168	0xbe518de6	-0.20464286
169	0x3e64a24c	0.22327536
170	0x3ef6ffe6	0.4824211
171	0x3da21d00	0.079156876
172	0xbe4af1f9	-0.19818868
173	0xbe198746	-0.14993009
174	0xbe5c7b2f	-0.21531366
175	0xbddb0098	-0.106934726
176	0x3e0cb548	0.13741028
177	0x3eb26f64	0.3485061
178	0x3e8d7059	0.27624777
179	0x3e7baf3e	0.24578568
180	0x3d299161	0.04139841
181	0xbdade452	-0.08490814
182	0xbe676f97	-0.22601162
183	0xba5feaa1	-0.00085417373
184	0xbdef7ff8	-0.1169433
185	0x3e024b82	0.12724116
186	0xbe01a377	-0.12660013
187	0x3e0acb7d	0.13554187
188	0xbd99502e	-0.07485996
189	0xbd751d24	-0.059842244
190	0x3df2d90e	0.11857806
191	0x3e2153c8	0.15754616
192	0xbde35466	-0.11100082
193	0xbdd875f8	-0.10569376
194	0xbebb5963	-0.36591634
195	0xbd09b853	-0.03362305
196	0x3e69a6e4	0.2281757
197	0xbdd3b9b4	-0.103381544
198	0x3d1c980c	0.03823094
199	0xbc85943a	-0.016306031
200	0xbea87cf4	-0.32907832
201	0xbbd1ebfe	-0.0064063063
202	0xbededf74	-0.43529856
203	0xbe7e0935	-0.248082
204	0x3e1f63ad	0.15565367
205	0x3e63350d	0.22188206
206	0xbe024e1b	-0.12725107
207	0x3de44c7e	0.11147402
208	0x3e3ef239	0.18647088
209	0x3ccda917	0.025105042
210	0xb87d5983	-6.0403265e-05
211	0xbd5b6086	-0.05355885
212	0x3e23aab8	0.15983093
213	0x3c17acbc	0.009257492
214	0xbde8a9eb	-0.11360534
215	0x3eaf999b	0.3429688
216	0xbe370ef0	-0.17876792
217	0x3e027632	0.127404
218	0x3d6c8ae2	0.057749636
219	0xbd13c8be	-0.036080115
220	0xbe5a43ee	-0.21314976
221	0x3e8b51a5	0.27210727
222	0xbd980120	-0.074220896
223	0xbde20ba5	-0.11037377
224	0xbe71986a	-0.23593298
225	0x3f48fea6	0.7851356
226	0x3e3796ec	0.17928666
227	0x3e1a8bde	0.15092418
228	0x3e89f98b	0.269482
229	0x3f37811b	0.71681374
230	0x3e697e68	0.22802126
231	0xbebef2b6	-0.3729455
232	0xbf0a2a00	-0.53970337
233	0xbece549e	-0.40298933
234	0x3be351a1	0.006937221
235	0x3ee0bef4	0.43895686
236	0xbe5da0e3	-0.21643405
237	0xbe050e49	-0.1299373
238	0x3d4a6c44	0.049419656
239	0xbd34767c	-0.044058308
240	0x3e06f968	0.13181078
241	0xbe3bee1a	-0.18352547
242	0xbe6dad1e	-0.2321057
243	0xbe8a4cb1	-0.27011636
244	0x3e4515eb	0.19246642
245	0xbdaccb4f	-0.084372155
246	0x3e5b94dc	0.21443504
247	0x3e8a9e00	0.2707367
248	0xbe85cdbf	-0.26133534
249	0xbd2f629e	-0.042818658
250	0xbeb7f7f9	-0.35931376
251	0xbe61dc1c	-0.22056621
252	0xbd719d61	-0.05898798
253	0x3dd954bd	0.10611866
254	0xbe9d181f	-0.30682465
255	0xbe8c553d	-0.27408782

bias_ih_l0 f4 [56]
0	0x3e0d1a4e	0.13779566
1	0x3ddc35f1	0.10752476
2	0x3e7d3979	0.24728955
3	0xbd16065c	-0.03662716
4	0x3eaf4d68	0.34238744
5	0x3cc98193	0.024597919
6	0x3dd2fbb3	0.10301914
7	0x3edd1814	0.43182433
8	0x3dfc8ad1	0.12331165
9	0x3eb64304	0.35598004
10	0x3eaf11f0	0.34193373
11	0x3e9cd832	0.30633694
12	0x3e1bb87d	0.15207095
13	0x3e0a156e	0.13484737
14	0x3db11b09	0.08647735
15	0x3e0fe611	0.14052607
16	0x3eedd8af	0.4645438
17	0xbe29510f	-0.16534828
18	0x3d384a19	0.04499254
19	0x3dc353dc	0.09537479
20	0x3e7fcc0a	0.24980178
21	0x3e7e938e	0.24860975
22	0x3e949eb9	0.29027346
23	0x3e0de13a	0.13855448
24	0x3c635995	0.0138763385
25	0x3ee3566a	0.44401866
26	0x3e19af67	0.15008317
27	0x3cb3af3e	0.021934148
28	0xbe1ea108	-0.15491116
29	0x3d95a77c	0.07307336
30	0xbd4cd74d	-0.050010014
31	0xbbcbc591	-0.00621862
32	0x3deb793f	0.11497735
33	0x3d8012eb	0.06253608
34	0x3e16e0eb	0.14734237
35	0x3dde254f	0.1084696
36	0xbe4a1309	-0.19733824
37	0xbe94ce22	-0.29063517
38	0x3a49ae1d	0.00076934864
39	0x3e8cff4e	0.27538532
40	0xbe3b4b97	-0.18290554
41	0xbe39c19d	-0.18140264
42	0x3e6185d1	0.22023703
43	0x3df17416	0.1178972
44	0x3ea332a7	0.31874582
45	0xbc831b3f	-0.016004203
46	0x3e8a7a3e	0.27046388
47	0x3e434d1d	0.19072385
48	0x3cd2b750	0.025722176
49	0x3f3967bc	0.7242391
50	0x3dc069b9	0.09395165
51	0x3e9a99e2	0.30195528
52	0x3e258e04	0.16167456
53	0x3e42ba5f	0.19016407
54	0xbe686bef	-0.22697423
55	0x3d662c42	0.05619455

bias_hh_l0 f4 [56]
0	0x3e6b41e7	0.22974358
1	0x3e65115c	0.22369903
2	0x3e3687d9	0.1782526
3	0x3e846042	0.2585469
4	0x3e89ded2	0.2692781
5	0x3d9c4c35	0.07631723
6	0x3dbdf816	0.09275834
7	0x3ebec035	0.37256017
8	0xbd7a2a89	-0.06107572
9	0x3e32ea06	0.17472085
10	0xbd7fe430	-0.062473476
11	0x3ef6d893	0.48212108
12	0x3e8117c0	0.25213432
13	0xbdd9c5e8	-0.10633451
14	0xbdc51e4d	-0.0962492
15	0xbe149ea0	-0.14513636
16	0x3e32b636	0.1745232
17	0x3df1d64d	0.11808453
18	0xbe1251d0	-0.14289021
19	0xbdc8bbf7	-0.098014764
20	0x3d8ea443	0.06964924
21	0x3e96a483	0.29422387
22	0xbdaea6fa	-0.08527942
23	0x3e7641b7	0.24048506
24	0xbbe3aae1	-0.0069478606
25	0x3e3f3574	0.18672734
26	0x3d8331fa	0.06406017
27	0xbd00f63e	-0.031484835
28	0xbd91ad20	-0.07113099
29	0x3e1fd0a3	0.15606932
30	0xbd0e1314	-0.034686163
31	0x3e188e93	0.14898138
32	0x3e028bdb	0.12748663
33	0xbbafd343	-0.0053657605
34	0xbe4f7134	-0.20258027
35	0xbebea35e	-0.37234014
36	0xbdb88e4c	-0.09011516
37	0x3cc91adc	0.02454894
38	0xbe1a5b37	-0.15073858
39	0xbdcc0612	-0.09962095
40	0x3d8d4220	0.06897378
41	0xbe16b24e	-0.14716455
42	0x3e43701c	0.19085735
43	0x3e7339f8	0.23752582
44	0xbe0c77c8	-0.13717568
45	0x3e4f0ffc	0.20220941
46	0x3e5b3217	0.21405827
47	0x3d3da369	0.04629842
48	0x3e93cf85	0.28869262
49	0x3f0f98a7	0.56092304
50	0xbdaa769d	-0.08323405
51	0x3ea203ee	0.31643623
52	0x3d900a90	0.07033265
53	0x3e8400a3	0.25781736
54	0x3e86da51	0.26338437
55	0x3e1a1bd2	0.15049675

weight f4 [1, 14]
0	0x3e00653c	0.12538618
1	0x3d1ce738	0.038306445
2	0xbca89a27	-0.020581318
3	0xbe286132	-0.16443327
4	0x3d99d53b	0.075113736
5	0x3d9415ed	0.072307445
6	0x3cdbbbb7	0.026822908
7	0xbcca3d92	-0.024687562
8	0x3d361fd9	0.044463966
9	0xbbc5e065	-0.006038713
10	0x3d5c6c9c	0.053814515
11	0x3cd371c7	0.02581109
12	0xbe6c5514	-0.2307933
13	0x3e3745ed	0.17897768
