checkpoints/lstm/lstm_o_45.pt (torch, 9058 bytes, 5 tensors)

weight_ih_l0 f4 [56, 8]
0	0xbc95dcc9	-0.018293755
1	0xbf4c5e0c	-0.79831004
2	0xbdc84e0f	-0.097805135
3	0xbd17597a	-0.036950566
4	0x3e034f83	0.128233
5	0xbe9bc07c	-0.3042029
6	0x3f1f3621	0.6219197
7	0xbe97703e	-0.29577821
8	0x3f4e450b	0.805741
9	0x3e3f6c1a	0.18693581
10	0xbee5a419	-0.4485176
11	0x3e629549	0.2212726
12	0xbe69675f	-0.22793339
13	0xbc83e7f7	-0.01610182
14	0x3ddbd6df	0.10734343
15	0xbcb09c7b	-0.02155899
16	0xbe2a9796	-0.16659388
17	0xbf2d5e89	-0.67722374
18	0xbe912ddf	-0.2835531
19	0x3f2b3f85	0.668938
20	0x3ebfe3fa	0.3747862
21	0x3d92e425	0.07172421
22	0x3b55e09b	0.0032635096
23	0x3f6fa8c9	0.9361692
24	0xbe3519d0	-0.17685628
25	0x3ecc8a5e	0.39949316
26	0xbde5391c	-0.111925334
27	0x3f589be0	0.84612846
28	0x3e475f01	0.19469835
29	0x3df395d3	0.11893811
30	0xbe4095a7	-0.18807088
31	0x3c9a77d5	0.018855968
32	0x3ee163a7	0.4402134
33	0x3f6179fc	0.8807676
34	0x3c6f9218	0.014622234
35	0x3f5116c3	0.81675357
36	0x3f0eff20	0.5585804
37	0xbd1c2648	-0.038122445
38	0x3e8c4322	0.27394968
39	0x3ee6cb2a	0.45076877
40	0x3e8b3785	0.27190796
41	0x3d2afe33	0.04174633
42	0xbcb82371	-0.022477837
43	0x3f48325c	0.7820184
44	0xbf873753	-1.0563759
45	0xbf25c5fd	-0.6475523
46	0x3e8701cd	0.2636856
47	0xbf21121c	-0.6291826
48	0xbd6d59b1	-0.057946865
49	0x3f0e04c4	0.5547602
50	0x3cc4767c	0.023982279
51	0xbf28f44a	-0.65997756
52	0x3b0bae8a	0.002131375
53	0x3f95b544	1.1695943
54	0x3f1741d1	0.590848
55	0xbf71e3ed	-0.9448841
56	0x3d693fcd	0.05694561
57	0x3e2fad00	0.17155838
58	0xbec9dda4	-0.3942691
59	0x3e8b81a0	0.27247334
60	0x3e8365f4	0.25663722
61	0x3e2326ce	0.15932772
62	0x3ee4f0f2	0.44715077
63	0x3daeab37	0.085287504
64	0xbf17a9d3	-0.59243506
65	0xbe3ef104	-0.18646628
66	0x3e5c8f2d	0.21538992
67	0x3f051801	0.5198975
68	0xbea059ba	-0.31318456
69	0xbe7d5c3a	-0.24742213
70	0xbde6f3c4	-0.11276963
71	0xbd6ba04b	-0.057525914
72	0xbe950546	-0.29105586
73	0x3e3b9509	0.18318571
74	0x3c848180	0.016175032
75	0x3f5a615f	0.85304826
76	0xbe928248	-0.28615022
77	0xbebbe376	-0.36696976
78	0x3f082bbd	0.5319174
79	0xbfa467fa	-1.2844231
80	0xbf96d35d	-1.1783253
81	0x3d8e1971	0.06938446
82	0xbf20661a	-0.62655795
83	0x3e92f471	0.2870212
84	0xbe7aeeb7	-0.24505125
85	0xbf607f17	-0.87693924
86	0x3dcf989e	0.10136531
87	0x3ef6cb5c	0.48202026
88	0x3e266e66	0.16253051
89	0x3e852cec	0.26010835
90	0x3e288c5b	0.16459791
91	0x3f0a85fa	0.5411068
92	0x3e2bc647	0.16774856
93	0x3eafe7fb	0.34356675
94	0xbed74e72	-0.42052037
95	0xbe607b70	-0.21922088
96	0xbd83bb93	-0.06432261
97	0xbc863763	-0.016383832
98	0x3e87719b	0.26453862
99	0xbf1fe24a	-0.62454665
100	0xbf0fea6d	-0.5621708
101	0xbe71e04e	-0.23620722
102	0xbe881c27	-0.2658398
103	0xbf540f15	-0.82835513
104	0x3ec264bd	0.37967482
105	0x3e2af4d5	0.16694959
106	0xbea8866b	-0.32915053
107	0xbe61fe63	-0.22069697
108	0x3f60f438	0.8787265
109	0xbef47a2e	-0.47749466
110	0x3f036103	0.51319903
111	0xbeca38aa	-0.39496356
112	0x3d0731f3	0.03300662
113	0xbdae8b6a	-0.08522685
114	0xbc9a784b	-0.018856188
115	0x3dcf26cf	0.10114824
116	0xbd969658	-0.073528945
117	0x3eac237f	0.3362083
118	0x3ea1fd96	0.31638783
119	0x3d651e7b	0.05593727
120	0xbe905bdd	-0.28195086
121	0xbd507434	-0.05089207
122	0xbdc87aa2	-0.09789015
123	0xbd5c587c	-0.053795323
124	0xbf1c0bc2	-0.6095544
125	0x3e0a2319	0.13489951
126	0xbe119051	-0.14215209
127	0xbde26df9	-0.11056132
128	0xbdea7196	-0.11447446
129	0xbe19aa01	-0.15006258
130	0x3bb0ada1	0.005391792
131	0x3e6a1cf6	0.2286261
132	0x3e875fcc	0.26440275
133	0xbc2d0b50	-0.010561779
134	0xbea5d293	-0.32387218
135	0x3d5ebabc	0.054377303
136	0x3f555d9b	0.83345956
137	0x3f9255f1	1.1432477
138	0x3eb5cbab	0.3550695
139	0x3ef32fdd	0.47497454
140	0x3eb00974	0.34382212
141	0xbd596064	-0.05307044
142	0xbf3249bb	-0.69643754
143	0xbf240b55	-0.6407979
144	0x3ecc439f	0.3989534
145	0x3ea0067b	0.31254944
146	0x3bf85cd3	0.007579425
147	0x3e828ecf	0.2549958
148	0x3f3b3f3a	0.7314335
149	0x3e21a289	0.15784658
150	0x3eab5fcb	0.33471522
151	0x3e2b6765	0.1673866
152	0x3d4d58fe	0.050133698
153	0xbe06bbc3	-0.13157563
154	0x3e5541eb	0.20825927
155	0x3d9e2d53	0.07723489
156	0xbf41bda1	-0.75679976
157	0xbc95e896	-0.018299382
158	0xbdf6e1a6	-0.12054758
159	0xbdd6bcc4	-0.10485223
160	0xbd891039	-0.06692547
161	0xbd81112f	-0.06302106
162	0xbdd3aef7	-0.10336106
163	0xbc1bee13	-0.009517211
164	0xbeff3365	-0.49843898
165	0xbd6ea6a9	-0.05826441
166	0x3e65b883	0.22433667
167	0xbe230c27	-0.15922605
168	0x3d9e78fd	0.077379204
169	0xbc8144a6	-0.015779804
170	0xbd448da6	-0.04798665
171	0xbed22c09	-0.4104922
172	0xbdd13ce7	-0.10216694
173	0xbd2233ef	-0.03960031
174	0xbeaf54ea	-0.34244472
175	0x3d45a372	0.048251577
176	0xbf14f1d2	-0.5818149
177	0xbf5d6429	-0.8648096
178	0xbd681c2c	-0.05666749
179	0x3e459cb9	0.19298066
180	0xbe7bb9a3	-0.24582534
181	0x3c03d672	0.008046733
182	0xbe361e0c	-0.177849
183	0xbf38735c	-0.72051024
184	0xbf3bcc2e	-0.7335843
185	0x3e87d07a	0.26526242
186	0x3ed88367	0.42287752
187	0x3f22b037	0.6355013
188	0xbf147d0d	-0.5800331
189	0xbf4ded4a	-0.804402
190	0xbec4c28a	-0.38429672
191	0xbef445f0	-0.47709608
192	0xbee3a8eb	-0.44464812
193	0x3ed5cbec	0.41757143
194	0x3dbc36a4	0.09190109
195	0x3ea33993	0.31879863
196	0x3d15b870	0.036552846
197	0xbeec64ee	-0.46170753
198	0xbd867807	-0.06565862
199	0x3f4c1a92	0.79728043
200	0xbea32718	-0.31865764
201	0x3c22a754	0.009927589
202	0x3e118dee	0.14214298
203	0xbe3388d1	-0.1753266
204	0x3e280bb3	0.16410713
205	0xbe0b7fb2	-0.1362293
206	0xbe862a41	-0.26204112
207	0xbe941aa0	-0.28926563
208	0x3d485f98	0.04891929
209	0xbe00933c	-0.12556165
210	0xbdf4886a	-0.119400814
211	0x3eb84d51	0.35996488
212	0xbc7b49f8	-0.01533746
213	0xbe926ed1	-0.2860017
214	0xbedace4b	-0.42735514
215	0xbe87a914	-0.26496184
216	0xbe5fd157	-0.218572
217	0x3e8bf1db	0.2733296
218	0x3f04dbee	0.51898086
219	0x3ecdab24	0.40169632
220	0xbee1e244	-0.4411794
221	0xbea7cbf3	-0.32772788
222	0x3e8190a0	0.25305653
223	0xbf82004f	-1.0156344
224	0xbd6ab685	-0.05730297
225	0x3eedcc19	0.46444777
226	0xbd5b2ec4	-0.053511396
227	0xbb570482	-0.0032809083
228	0x3eccf886	0.40033358
229	0x3e8162be	0.25270647
230	0xbdf041ad	-0.11731277
231	0x3e116eb7	0.1420239
232	0xbd949adb	-0.07256099
233	0xbd87c08d	-0.06628523
234	0x3d4a70cf	0.04942399
235	0xbe21b9ab	-0.15793483
236	0x3dc8d465	0.09806136
237	0xbe4c8d00	-0.19975662
238	0xbdedbf9b	-0.116088115
239	0xbe9f0901	-0.31061557
240	0x3ba998a0	0.005175665
241	0x3f2bcaab	0.6710612
242	0x3dc2f52a	0.095194176
243	0xbf034fe9	-0.5129381
244	0x3e9ff9d2	0.31245285
245	0x3dc35dc5	0.095393695
246	0x3e9e36ac	0.30901086
247	0xbeb0fc7f	-0.3456764
248	0xbd8bb5b2	-0.06821765
249	0xbe802409	-0.25027493
250	0xbd73d1f9	-0.059526417
251	0x3ecfee5a	0.40611535
252	0x3f37f3b3	0.7185623
253	0xbed6b8e7	-0.41937944
254	0xbdd5de46	-0.10442786
255	0xbd2a932f	-0.04164427

weight_hh_l0 f4 [56, 14]
0	0xbebdf93d	-0.37104216
1	0x3db22826	0.08699064
2	0xbeb6680f	-0.35626265
3	0xbf0572ec	-0.5212848
4	0xbe885c42	-0.26632887
5	0x3eefb417	0.46817085
6	0x3e6bdac0	0.23032665
7	0xbf04f653	-0.5193836
8	0xbd24ad3b	-0.040204268
9	0x3e857235	0.26063696
10	0xbeecaaa8	-0.4622395
11	0x3eb33e92	0.35008675
12	0x3e1dabd3	0.15397577
13	0x3d58d854	0.05294068
14	0x3b3d5b7e	0.0028893645
15	0x3dc3ce49	0.0956083
16	0xbe54f08d	-0.20794888
17	0xbeeaa2b8	-0.4582727
18	0xbe9201f5	-0.28517118
19	0x3db016d6	0.085981056
20	0x3e95333f	0.2914066
21	0x3e30344c	0.1720745
22	0xbe1e5452	-0.15461853
23	0x3f5585a3	0.8340704
24	0xbe983092	-0.29724556
25	0x3ec5c6cf	0.3862824
26	0x3de1cf80	0.110259056
27	0x3e01d4d0	0.12678838
28	0x3e5967b6	0.21230969
29	0xbc9745fc	-0.018465988
30	0xbf045b4a	-0.51701796
31	0xbda88f70	-0.082304835
32	0x3e4448a2	0.19168332
33	0x3da2c71d	0.07948134
34	0x3eac03a6	0.33596534
35	0x3e6b4dfb	0.22978966
36	0xbf477c7f	-0.7792434
37	0x3f1828c1	0.59437186
38	0x3e85194f	0.2599587
39	0xbdbc3b44	-0.091909915
40	0x3e968cf5	0.29404417
41	0x3eefeef6	0.46862
42	0xbe4c3c90	-0.19944978
43	0x3df970a5	0.12179688
44	0xbedc4560	-0.4302168
45	0x3d71b91a	0.059014417
46	0x3e91a9f0	0.28449965
47	0x3d3e9706	0.046530746
48	0xbd69f6a6	-0.057119988
49	0xbe484315	-0.1955684
50	0xbf04ec8e	-0.51923454
51	0xbe575247	-0.2102748
52	0x3e5fe508	0.21864712
53	0x3e9abc56	0.30221814
54	0x3ce020d5	0.027359406
55	0x3dc01026	0.0937808
56	0x3de8e79b	0.113723
57	0xbe733662	-0.23751214
58	0xbe5bd3fe	-0.21467587
59	0x3d4181fb	0.0472431
60	0xbe63c354	-0.2224248
61	0x3db48eb6	0.088162825
62	0x3ec6bfb0	0.3881812
63	0x3dca7ecb	0.09887465
64	0xbe2c7951	-0.16843154
65	0x3db4fee1	0.08837677
66	0x3ed4dd74	0.41575205
67	0x3db641aa	0.08899243
68	0x3dec62f9	0.11542315
69	0x3e0af2ab	0.13569133
70	0xbe776c21	-0.24162342
71	0xbda1b917	-0.07896631
72	0xbe99d2e0	-0.30043697
73	0xbf11fd18	-0.57026815
74	0x3e396f17	0.18108784
75	0x3d816708	0.0631848
76	0xbcc8c0f9	-0.024506079
77	0x3e1f24d4	0.15541393
78	0xbdd14256	-0.10217731
79	0x3c5c537e	0.01344764
80	0x3deb92c4	0.11502603
81	0xbd536ea4	-0.051619187
82	0xbe8f4f5d	-0.27990237
83	0x3ed014aa	0.40640765
84	0x3e474545	0.19460018
85	0xbdacecb3	-0.08443584
86	0x3c7c3bda	0.015395129
87	0xbf049266	-0.51785886
88	0x3c53ef5b	0.012935485
89	0x3e940c9e	0.28915876
90	0x3e67f19e	0.22650763
91	0xb969b98b	-0.00022289732
92	0x3ddda6c9	0.10822827
93	0xbefc56c2	-0.4928494
94	0x3a3fa0a2	0.0007310008
95	0x3e9882f4	0.2978741
96	0x3ed6260a	0.41825897
97	0x3e689d40	0.22716236
98	0x3b79239e	0.0038015614
99	0x3e52d4a2	0.20588925
100	0xbe5413e6	-0.20710716
101	0xbe9c043e	-0.30471987
102	0xbd510385	-0.051028747
103	0x3f2c850a	0.673905
104	0x3e153673	0.14571552
105	0x3b59fcf8	0.0033262353
106	0xbf10ba53	-0.5653431
107	0x3ed9ad04	0.42514813
108	0xbea2efa8	-0.31823468
109	0x3e24bbd1	0.16087271
110	0x3ea61160	0.3243513
111	0x3f2256f4	0.6341393
112	0xbe82d26a	-0.25551158
113	0xbd22e769	-0.03977147
114	0xbd3895d6	-0.04506477
115	0xbf05425d	-0.5205439
116	0xbd3f1761	-0.046653155
117	0xbdb16044	-0.08660939
118	0x3e27c1b1	0.16382481
119	0x3d1ba173	0.037995767
120	0xbeb078dd	-0.3446721
121	0x3d873130	0.06601179
122	0x3eb58500	0.35453033
123	0xbc722b2b	-0.0147808
124	0x3ea547a1	0.3228121
125	0x3f211f96	0.6293882
126	0xbe60c0f3	-0.21948604
127	0xbe8c7a0c	-0.27436864
128	0x3e5a498b	0.21317117
129	0x3c93d9bd	0.018048162
130	0xbe9affc0	-0.30273247
131	0xbe22fec6	-0.15917501
132	0xbd232809	-0.039833102
133	0x3db73d8c	0.08947286
134	0x3e42dcae	0.19029495
135	0xbdb23eb1	-0.08703364
136	0xbed0005e	-0.4062528
137	0x3d45ce72	0.048292585
138	0xbe9a0d26	-0.30088156
139	0x3d779d1d	0.06045257
140	0xbf07418f	-0.5283441
141	0x3e49fd0d	0.19725437
142	0xbe12e07f	-0.14343451
143	0xbe26d590	-0.16292405
144	0x3e6e6591	0.23280932
145	0xbcce7c75	-0.02520583
146	0x3ed5e320	0.41774845
147	0xbd80ba0e	-0.06285487
148	0xbeca3035	-0.39489904
149	0xbed0b882	-0.40765768
150	0x3e548cd5	0.20756848
151	0x3e8d5a71	0.27608064
152	0xbf258497	-0.6465544
153	0xbe2c023d	-0.16797729
154	0xbe1b6d73	-0.1517847
155	0xbd7a58d6	-0.061119877
156	0xbf14e770	-0.58165646
157	0xbe994fd1	-0.29943708
158	0x3cae9ab0	0.021313995
159	0x3db965f0	0.09052646
160	0x3ea9b3a7	0.33144876
161	0xbd5685ae	-0.05237358
162	0xbdf978c2	-0.12181236
163	0xbde036eb	-0.10947975
164	0xbe1ca336	-0.15296635
165	0xbd96fc0d	-0.073722936
166	0xbdaa9e78	-0.08331007
167	0x3c74130d	0.01489712
168	0x3d4c00ce	0.049805455
169	0x3e3fdd19	0.18736686
170	0x3d22f865	0.03978767
171	0xbed9b893	-0.4252363
172	0xbe2f04c0	-0.17091656
173	0x3ea4b26a	0.3216737
174	0x3f0757b2	0.5286819
175	0x3e0ae8a1	0.13565303
176	0xbd332fc0	-0.04374671
177	0xbebefc33	-0.37301788
178	0x3ceda64d	0.029009962
179	0x3f10f70b	0.5662696
180	0x3dcc65c6	0.09980349
181	0x3ea485c5	0.32133308
182	0xbe81d43c	-0.25357234
183	0xbe6936a6	-0.22774753
184	0xbe25b876	-0.16183648
185	0xbe95b7b0	-0.29241705
186	0x3d2132ba	0.039355017
187	0x3d197099	0.037460897
188	0xbe56d4f5	-0.20979674
189	0x3ce45d10	0.027876407
190	0xbd2e5793	-0.042563986
191	0xbde463db	-0.111518584
192	0xbe219174	-0.15778142
193	0x3de8c65d	0.1136596
194	0x3f0d8498	0.55280447
195	0x3a065610	0.00051245186
196	0xbed20189	-0.41016796
197	0x3e6afe57	0.22948585
198	0xbde7f404	-0.11325839
199	0x3e1e146f	0.15437482
200	0x3deee9fd	0.116657235
201	0x3e531237	0.20612417
202	0x3da09d88	0.07842547
203	0x3de864b4	0.113473326
204	0xbd4f203a	-0.050567843
205	0x3e54b832	0.2077339
206	0xbe96884a	-0.29400855
207	0x3ecde374	0.40212595
208	0x3e26ee5c	0.16301864
209	0xbe545f35	-0.20739444
210	0x3dd01ea5	0.10162095
211	0xbee7d23b	-0.4527758
212	0xbdb3e46a	-0.08783801
213	0xbe876d1e	-0.26450437
214	0xbc9a3d73	-0.01882813
215	0x3edeee98	0.43541408
216	0x3e32fd35	0.17479403
217	0x3e899947	0.26874754
218	0x3d9103dc	0.07080814
219	0x3ee9faa8	0.45699048
220	0xbe8a6953	-0.2703348
221	0xbe9831af	-0.29725406
222	0x3d588960	0.052865386
223	0x3e4afe8e	0.19823667
224	0xbe94062d	-0.28910962
225	0x3d86489f	0.0655682
226	0xbf1a033e	-0.601612
227	0xbf22ec26	-0.63641584
228	0xbd6ec579	-0.058293793
229	0xbe875151	-0.26429227
230	0x3ed1ac5e	0.40951818
231	0x3c135c17	0.008994124
232	0xbf3a6f6b	-0.7282626
233	0x3ec8d4b1	0.3922477
234	0x3ed487fe	0.41510004
235	0xbdafbc3a	-0.08580823
236	0x3e4c4e81	0.19951822
237	0x3efa71e4	0.48915017
238	0xbcbd7878	-0.023128733
239	0xbf127ae5	-0.5721877
240	0xbe7b9bdc	-0.24571174
241	0xbe8d8b1e	-0.276452
242	0x3ecf20b1	0.4045463
243	0x3e69e2fa	0.22840491
244	0xbf014d41	-0.50508505
245	0xbca7e7c7	-0.020496262
246	0x3e2db5a1	0.16963817
247	0xbed3e3d3	-0.41384754
248	0x3ec7e49a	0.39041597
249	0x3ee31b57	0.44356796
250	0xbead5381	-0.3385277
251	0x3f116bfd	0.568054
252	0x3e3a51de	0.18195292
253	0x3e289309	0.1646234
254	0xbda6f78f	-0.08152687
255	0x3eae8a88	0.34090066

bias_ih_l0 f4 [56]
0	0x3f08a976	0.53383577
1	0x3e12fe39	0.14354791
2	0x3e496fdf	0.19671582
3	0xbdc68b21	-0.096945055
4	0xbe0033dc	-0.12519783
5	0x3ebe0e99	0.37120512
6	0x3d8cce57	0.06875294
7	0x3ef6a334	0.4817139
8	0x3cf8d9f7	0.030377371
9	0xbdf09851	-0.11747802
10	0x3d52e878	0.05149123
11	0x3ea258e4	0.31708443
12	0x3e18977f	0.14901541
13	0x3e60312d	0.21893759
14	0x3ea3c52c	0.31986368
15	0xbda5411b	-0.080690585
16	0x3e1cffe0	0.15331984
17	0xbd9fa17e	-0.07794474
18	0x3e1dca9e	0.15409324
19	0x3c07cee6	0.0082890745
20	0xbe1bf596	-0.15230402
21	0x3c86567d	0.016398663
22	0x3ddf8f6b	0.10916027
23	0xbe4debe1	-0.20109512
24	0x3e3252eb	0.17414443
25	0x3e9a81f6	0.30177277
26	0x3ee56dfc	0.44810474
27	0x3e4ed7c3	0.20199494
28	0x3e5184bc	0.2046079
29	0x3e815f8c	0.2526821
30	0xbd9a25a0	-0.07526708
31	0xbc64ff36	-0.013976863
32	0x3e0de6ca	0.1385757
33	0x3e5820c4	0.21106249
34	0xbcbe69ed	-0.023243869
35	0x3cdfd03a	0.02732097
36	0xbdbb04cd	-0.09131775
37	0x3d7033f2	0.05864329
38	0xbdbb7fa6	-0.091552064
39	0x3d89a29b	0.06720468
40	0x3e4524d8	0.19252336
41	0x3d3f8e0a	0.04676632
42	0x3ecff9f8	0.406204
43	0x3e3e7b37	0.1860169
44	0xbcead7a8	-0.028667286
45	0x3e0837f3	0.13302593
46	0xbe0b6842	-0.1361399
47	0x3dc2fb44	0.09520581
48	0x3ebd7b80	0.37008286
49	0x3e88825e	0.26661962
50	0x3e59ec30	0.21281505
51	0xbe673a06	-0.22580728
52	0x3eb030a9	0.34412125
53	0xbe0c054b	-0.13673894
54	0x3e57dac8	0.21079552
55	0x3e8ea6ce	0.27861637

bias_hh_l0 f4 [56]
0	0x3ef08580	0.46976852
1	0x3dd5f03d	0.104462124
2	0x3e9c2aa1	0.30501273
3	0xbc94ecc7	-0.01817931
4	0xbe0ef482	-0.1396046
5	0x3e19ccc5	0.1501952
6	0x3ea6789b	0.3251389
7	0x3ea6fa74	0.32612956
8	0x3d2124a7	0.039341595
9	0x3dad45b3	0.0846056
10	0x3e868c11	0.26278737
11	0x3ee26ac3	0.44222078
12	0x3e24dfd8	0.16101015
13	0x3dbf3a5b	0.09337302
14	0x3eb333c5	0.35000435
15	0x3e2218c6	0.15829763
16	0xbcc19db6	-0.023634773
17	0x3c0ea465	0.008706187
18	0xbdbf0206	-0.09326558
19	0x3e6b54aa	0.22981516
20	0xbc384606	-0.011247164
21	0x3eb05b02	0.34444433
22	0x3dce68e9	0.10078604
23	0x3e04ab0e	0.12955877
24	0x3e6e2b20	0.23258638
25	0x3d326018	0.043548673
26	0x3c4e518a	0.012592683
27	0x3eeab285	0.45839325
28	0xbe472bfd	-0.19450374
29	0xbe29ac15	-0.1656955
30	0x3db7188a	0.08940227
31	0xbe340906	-0.17581567
32	0xbd8bc936	-0.06825487
33	0x3e6de2ab	0.23230998
34	0x3dd9fdf0	0.10644138
35	0x3dcf7d62	0.10131337
36	0xbcb9823d	-0.02264511
37	0x3dae502e	0.08511387
38	0xbc7c3545	-0.01539356
39	0x3d8c01dd	0.06836293
40	0xbd36797a	-0.044549443
41	0x3d77852c	0.060429737
42	0x3eab737e	0.3348655
43	0x3e0830df	0.13299893
44	0x3e260482	0.16212657
45	0x3d90a4e7	0.070627026
46	0xbde0b51d	-0.109720446
47	0x3df9a4a5	0.121896066
48	0x3e46778a	0.19381538
49	0x3e430300	0.19044113
50	0xbc7e1d91	-0.015509979
51	0x3e2c8e8c	0.16851252
52	0x3d2ffd32	0.042966075
53	0x3e257d0e	0.16160986
54	0x3e6e3a3e	0.23264405
55	0x3eba9b33	0.36446533

weight f4 [1, 14]
0	0xba875a8e	-0.001032667
1	0xbdbdbd9f	-0.09264683
2	0xbd4c78f6	-0.049920045
3	0x3e2fffd3	0.17187433
4	0xbe1d56c6	-0.15365133
5	0xbbf64395	-0.0075153806
6	0xbda39bf1	-0.07988728
7	0x3cb48d58	0.022040054
8	0xbdbd9be2	-0.09258248
9	0x3e0c1e69	0.13683476
10	0xbd53dc53	-0.05172379
11	0xbe2cff46	-0.16894254
12	0x3be14918	0.0068751685
13	0x3d8c1ef9	0.06841845
