checkpoints/lstm/lstm_o_15.pt (torch, 8994 bytes, 5 tensors)

weight_ih_l0 f4 [56, 8]
0.31639907 0.8499254 0.029453913 -0.1909876 -0.42660975 -0.963043 -0.4408706 0.2819254
0.15902008 0.03161894 -0.5333365 0.5281319 -0.44063115 -0.34294075 0.23358423 -0.12615772
-0.033915788 -0.19373702 0.32114983 -0.6693789 0.5471645 0.55214167 -0.02162545 -0.08164413
-0.19575913 0.09216415 -0.12544881 0.655201 -0.48165837 -0.47699842 -0.269746 -0.41980273
-0.2657138 -0.23898913 -0.28269905 -0.087393 -0.2807539 -0.3965677 0.35985437 0.4378997
-0.56147933 -0.659456 0.6065449 0.63200027 0.5019144 -0.16413982 -0.4023294 -0.23899864
0.56797034 0.52074486 0.32820484 -0.039565556 -0.2576325 0.1941306 0.0010560555 -0.5065489
0.19491476 0.05429523 0.18080635 1.018178 -0.60415536 -0.0026721351 -0.113836676 -0.34474257
0.029197402 0.39227384 -0.042653732 0.62835544 -0.5612575 0.13501574 -0.0087338695 -0.33841857
0.30426762 0.15009102 -0.13877378 0.66569936 -0.0210289 0.55974567 0.05103491 0.17822193
-0.11312404 -0.1332713 -0.621946 -0.98427993 0.11904199 0.27999547 0.3072735 0.7270748
-0.0701814 -0.0929406 0.21906513 1.1820235 -0.3440194 -0.002502604 0.45093334 -0.81991535
0.545398 -0.23363633 -0.117365025 0.2570399 0.1176667 0.30270886 0.3749324 -0.55163705
0.034524433 0.296031 0.14128213 -0.21787585 -0.013369976 0.6713429 1.1932714 0.34538555
0.31433743 0.5038462 0.11058458 -0.5682766 -0.04297489 -0.06673741 0.36718702 0.06518391
0.1396054 -0.22867002 -0.44820523 0.28450072 0.30061677 0.024647051 -0.14886022 0.07160491
0.03687298 -0.12855646 0.081843406 -0.062013533 0.05743207 0.32996258 0.09613551 0.16327278
0.14394219 0.05023035 -0.37206486 0.59416527 0.05535314 -0.112367705 -0.48266733 -0.20490532
-0.43475008 -0.22738703 -0.2746236 0.31554458 -0.3030226 0.2106237 0.34067076 0.6311359
-0.47186452 -0.41145542 0.179766 0.28729424 -0.7022915 0.3009055 -0.4188041 -0.297856
0.3715291 0.44886008 0.008879755 -0.12897253 -0.08157391 0.27186972 0.17583698 -0.3383485
-0.20800297 0.49349603 0.15094367 0.2646306 -0.21641135 0.33368006 -0.27719685 0.14516516
0.50950485 -0.08405609 0.2977555 -0.16282861 -0.45380923 0.10979795 -0.17941129 -0.05678595
-0.1611006 0.050802607 0.1040589 1.0946671 -0.1099742 0.2965987 -0.1641077 0.76608956
-0.01469253 0.2506597 -0.1418918 -1.0500506 0.057790697 0.12054675 -0.10540103 0.44505692
-0.57867986 0.1258948 0.08401461 0.0049635433 -0.7584056 0.17322321 0.15450954 -0.25513658
0.01128952 0.051423565 0.035908308 0.4430056 -0.5860876 0.012927274 0.050732218 -0.43424574
0.9230038 -0.5202499 0.57596433 -1.0050772 -0.31710124 0.3702747 0.166949 0.07677259
0.22171824 0.044099633 0.08990029 -0.017834786 -0.50152737 -0.056303248 -0.23964067 0.34192055
0.05795323 -0.65261334 0.05305032 0.6095943 -0.12005236 0.13606486 -0.39148912 0.0013242624
0.04142707 -0.18909779 0.033485744 0.04475622 0.10553649 0.06037883 0.20928097 -0.06355582
0.17859627 -0.015005868 0.00025010222 -0.19166623 0.5430529 -0.1414815 0.2861211 0.1001511
00000000: 0fff a13e b694 593f 5549 f13c 4192 43be
00000010: 986c dabe fc89 76bf cbb9 e1be 8758 903e
00000020: 29d6 223e dd82 013d be88 08bf a733 073f
00000030: 689a e1be ee95 afbe b430 6f3e 7d2f 01be
00000040: 48eb 0abd ff62 46be c06d a43e 6a5c 2bbf
00000050: f912 0c3f 2859 0d3f db27 b1bc 0a35 a7bd
00000060: 1575 48be 8fc0 bc3d a775 00be 41bb 273f
00000070: ed9b f6be 2339 f4be 261c 8abe 62f0 d6be
00000080: a40b 88be 91b9 74be eebd 90be 1afb b2bd
00000090: fabe 8fbe ec0a cbbe d53e b83e 6434 e03e
000000a0: 1cbd 0fbf 1cd2 28bf 8746 1b3f c5ca 213f
000000b0: 767d 003f 4514 28be 1efe cdbe 0fbc 74be
000000c0: 8166 113f 894f 053f 770a a83e 7e0f 22bd
000000d0: 68e8 83be 2cca 463e 586b 8a3a 30ad 01bf
000000e0: bc97 473e ad64 5e3d 4d25 393e a853 823f
000000f0: eda9 1abf fd1e 2fbb 3423 e9bd 1982 b0be
00000100: 642f ef3c 1ed8 c83e aeb5 2ebd e7db 203f
00000110: 92ae 0fbf 9141 0a3e 8118 0fbc 3345 adbe
00000120: f7c8 9b3e 76b1 193e b71a 0ebe 466b 2a3f
00000130: cd44 acbc 7e4b 0f3f fb09 513d cf7f 363e
00000140: 94ad e7bd 4678 08be da37 1fbf c5f9 7bbf
00000150: 49cc f33d 915b 8f3e f452 9d3e 9321 3a3f
00000160: 44bb 8fbd a457 bebd 9c52 603e 8c4c 973f
00000170: 5023 b0be ba02 24bb bce0 e63e f9e5 51bf
00000180: 349f 0b3f 5d3e 6fbe 135d f0bd bc9a 833e
00000190: 3dfb f03d a8fc 9a3e 24f7 bf3e 1638 0dbf
000001a0: 7e69 0d3d 6091 973e 43ac 103e d91a 5fbe
000001b0: be0d 5bbc 21dd 2b3f 1ebd 983f 60d6 b03e
000001c0: d6f0 a03e 11fc 003f 2b7a e23d 937a 11bf
000001d0: 7006 30bd a0ad 88bd f0ff bb3e 247f 853d
000001e0: b8f4 0e3e 7928 6abe 287b e5be 14aa 913e
000001f0: 71ea 993e 9de8 c93c d06e 18be 98a5 923d
00000200: 1f08 173d 4ea4 03be 849d a73d e701 7ebd
00000210: e43d 6b3d dbf0 a83e b2e2 c43d fb30 273e
00000220: 9565 133e 57be 4d3d 497f bebe 371b 183f
00000230: f9b9 623d 0a21 e6bd 2c20 f7be b3d2 51be
00000240: 9097 debe 25d8 68be 779b 8cbe 0f8f a13e
00000250: c725 9bbe bdad 573e 666c ae3e 1f92 213f
00000260: 3a98 f1be 49aa d2be 9414 383e 3b18 933e
00000270: 60c9 33bf 4910 9a3e 7e6d d6be 9580 98be
00000280: 1039 be3e fdd0 e53e 647c 113c 6011 04be
00000290: 3910 a7bd 8232 8b3e 9c0e 343e 043c adbe
000002a0: bbfe 54be 83ab fc3e fa90 1a3e a97d 873e
000002b0: f09a 5dbe 1dd8 aa3e bfec 8dbe 2da6 143e
000002c0: e96e 023f 9925 acbd 6973 983e 8bbc 26be
000002d0: af59 e8be bfdd e03d 98b7 37be 6298 68bd
000002e0: 8ef7 24be 6516 503d d51c d53d 0d1e 8c3f
000002f0: 273a e1bd c9db 973e d90b 28be 721e 443f
00000300: f0b8 70bc 7856 803e 164c 11be 0f68 86bf
00000310: f0b5 6c3d 37e1 f63d 7fdc d7bd 80de e33e
00000320: 5d24 14bf 91ea 003e da0f ac3d 38a5 a23b
00000330: df26 42bf 6d61 313e c037 1e3e 43a1 82be
00000340: aef7 383c 84a1 523d 9714 133d a1d1 e23e
00000350: d609 16bf ebcc 533c 96cc 4f3d 7555 debe
00000360: fa49 6c3f 192f 05bf 6672 133f 5fa6 80bf
00000370: 185b a2be a594 bd3e aef4 2a3e f33a 9d3d
00000380: 1b0a 633e d1a1 343d a51d b83d 421a 92bc
00000390: 1964 00bf 3c9e 66bd 5d64 75be 3610 af3e
000003a0: 5e60 6d3d ab11 27bf 4b4b 593d 5f0e 1c3f
000003b0: 03de f5bd 9654 0b3e 4371 c8be df92 ad3a
000003c0: 6eaf 293d daa2 41be 5928 093d 4c52 373d
000003d0: 8423 d83d cb4f 773d c04d 563e 8e29 82bd
000003e0: f1e1 363e 2cdb 75bc 2720 8339 2744 44be
000003f0: 8405 0b3f 87e0 10be 777e 923e 051c cd3d

weight_hh_l0 f4 [56, 14]
0.14318553 0.26205653 -0.053690676 0.25718126 0.27428305 -0.5328478 0.37336025 -0.34892336
-0.005701446 -0.23709095 0.31675822 -0.47999135 -0.20244531 -0.26155224 -0.028015576 -0.060815323
-0.18484913 -0.49686265 -0.7573893 -0.017362475 0.11815999 -0.78755164 -0.08945421 0.010518893
-0.3034712 0.2418917 -0.29936904 0.17510158 0.23826028 0.10054498 0.23177743 0.1362903
0.22692354 0.99701774 0.27668342 -0.1869712 -0.17278576 -0.05160652 0.33551458 0.09290195
0.5724576 0.27271965 0.15173136 0.28842977 -0.028116714 -0.21278404 0.073967025 0.35318416
0.23004206 -0.05242468 0.11098131 0.16352157 -0.08612538 -0.23501654 -0.011529759 0.35804427
-0.02927177 -0.077296644 0.04842259 0.3251888 -0.21061057 -0.042529527 0.3702892 -0.31633654
0.41362062 -0.12044564 -0.10962007 -0.5676585 0.2727267 -0.31305864 -0.3915825 0.31561708
-0.053725623 -0.19699672 0.12685196 0.16432779 0.10790256 -0.02577331 -0.565733 -0.20281133
-0.33833376 -0.06500376 0.38343862 -0.16908874 -0.08796502 0.018346794 0.15088472 -0.11221187
-0.22000742 -0.22382925 0.24680477 0.31777698 -0.046540618 -0.09860271 0.4744245 0.024009433
-0.85833275 -0.3790581 0.8391662 -0.09412175 0.3522018 -0.5166853 -0.4190438 0.5183062
0.18161033 -0.056847613 -0.3026779 -0.30312747 -0.37805963 0.5009614 0.15154366 0.088764675
-0.03122027 0.06545587 0.23906647 -0.006254666 -0.56050074 0.3872308 0.20501111 -0.38359722
-0.27927074 -0.42348608 -0.061465807 0.058999058 0.0402554 -0.33493212 -0.11818782 0.08831161
0.05972981 -0.055858657 -0.22747447 0.32675168 0.2734228 0.0150623005 0.13740228 -0.32732746
-0.15434282 0.20745803 0.26180342 0.13401793 -0.20016405 0.18904397 -0.09675518 -0.07874035
0.10532213 -0.16744277 0.7253253 -0.3035372 0.16253325 -0.6116324 0.21340793 -0.38337266
0.23281118 0.117330104 -0.33052707 0.3154603 0.12450767 -0.88041043 -0.91373986 0.21397142
0.20256467 -0.20076299 -0.3769332 -0.27780217 -0.30871478 -0.26933482 -0.46308824 -0.45081314
-0.38625562 0.12358823 0.036439586 0.16186863 0.5598325 -0.1668285 0.123714 0.15252198
0.08102854 -0.13540934 0.057252098 0.12172806 0.9694981 -0.60560364 0.10778011 -0.77603424
-0.48429206 0.23246536 0.14816855 -0.11655161 0.25784767 -0.15267599 -0.10317355 0.53446954
0.2727524 -0.06189264 0.3601468 -0.25582504 -0.40112746 0.046983067 -0.26930043 0.2202182
0.050034463 -0.66345185 0.1485354 0.09244667 0.09643926 -0.26811948 0.38245875 -0.4106971
0.051271424 -0.24647762 -0.346119 -0.15030293 -0.26874185 0.0050191474 0.13721229 0.24316259
0.29654005 -0.06447005 -0.08252635 -0.23333974 -0.41112885 -0.05229339 0.0436421 0.13327268
0.28256014 0.36904338 0.20750879 0.025006369 -0.3599746 -0.24829754 0.5555532 0.1569868
0.026841529 -0.08349795 -0.16355814 -0.20742989 -0.35864413 0.30887592 0.66065544 0.17778507
-0.15235823 0.055690568 -0.26870984 0.036048528 0.19531491 -0.6897641 -0.09993036 0.2484481
-0.11615088 -0.19720933 0.19882004 0.055435445 0.07206369 -0.3399135 -0.30041033 0.2378707
00000000: 3a9f 123e 462c 863e c1ea 5bbd 43ad 833e
00000010: d46e 8c3e b768 08bf 1329 bf3e 15a6 b2be
00000020: 32d3 babb f8c7 72be 222e a23e 6dc1 f5be
00000030: d34d 4fbe 2dea 85be ec80 e5bc 7d19 79bd
00000040: 1749 3dbe c864 febe 44e4 41bf c03b 8ebc
00000050: ddfd f13d fc9c 49bf c533 b7bd 6f57 2c3c
00000060: 9460 9bbe 75b2 773e e646 99be d44d 333e
00000070: 81fa 733e 87ea cd3d 1057 6d3e af8f 0b3e
00000080: a55e 683e 8e3c 7f3f 73a9 8d3e 6175 3fbe
00000090: c0ee 30be 5c61 53bd 91c8 ab3e 6143 be3d
000000a0: 958c 123f e9a1 8b3e 775f 1b3e 11ad 933e
000000b0: 0655 e6bc 0fe4 59be 067c 973d 8ed4 b43e
000000c0: 2590 6b3e 43bb 56bd 2b4a e33d 3372 273e
000000d0: 8162 b0bd 2da8 70be 50e7 3cbc 9451 b73e
000000e0: 5acb efbc b44d 9ebd c456 463d 257f a63e
000000f0: 4caa 57be 7133 2ebd 8c96 bd3e ddf6 a1be
00000100: 15c6 d33e 34ac f6bd 7d80 e0bd 1152 11bf
00000110: d6a2 8b3e 3949 a0be 807d c8be 9098 a13e
00000120: 660f 5cbd 82b9 49be 7be5 013e 8b45 283e
00000130: 04fc dc3d 8c22 d3bc e1d3 10bf c6ad 4fbe
00000140: 153a adbe b120 85bd 1152 c43e 9925 2dbe
00000150: 0127 b4bd 044c 963c 8681 1a3e 56cf e5bd
00000160: a049 61be 7f33 65be 64ba 7c3e aab3 a23e
00000170: 60a1 3ebd 38f0 c9bd c5e7 f23e 6eaf c43c
00000180: b2bb 5bbf e713 c2be 99d3 563f e7c2 c0bd
00000190: cb53 b43e 7d45 04bf e98c d6be b7af 043f
000001a0: 0ff8 393e 0bd9 68bd 99f8 9abe 8633 9bbe
000001b0: 0891 c1be 023f 003f 432e 1b3e 41ca b53d
000001c0: a7c1 ffbc ba0d 863d d7cd 743e f1f3 ccbb
000001d0: fa7c 0fbf 1e43 c63e 6fee 513e db66 c4be
000001e0: 93fc 8ebe 2bd3 d8be 92c3 7bbd ffa8 713d
000001f0: d9e2 243d 397c abbe 750c f2bd b8dc b43d
00000200: 3fa7 743d 0ccc 64bd 11ef 68be ff4b a73e
00000210: 13fe 8b3e dec7 763c 2fb3 0c3e 7797 a7be
00000220: 0b0c 1ebe e16f 543e 190b 863e ff3b 093e
00000230: cef7 4cbe be94 413e 9427 c6bd 9f42 a1bd
00000240: 21b3 d73d 1e76 2bbe ebae 393f 3a69 9bbe
00000250: 1e6f 263e f193 1cbf 9c87 5a3e 6c49 c4be
00000260: 0e66 6e3e c44a f03d d83a a9be 0384 a13e
00000270: e1fd fe3d 9462 61bf dbea 69bf 531b 5b3e
00000280: 1d6d 4f3e d094 4dbe 63fd c0be 163c 8ebe
00000290: dd0f 9ebe 41e6 89be e719 edbe fbd0 e6be
000002a0: 4cc3 c5be d31b fd3d ad41 153d e4c0 253e
000002b0: 2f51 0f3f 17d5 2abe c45d fd3d b92e 1c3e
000002c0: 4bf2 a53d bfa8 0abe 2d81 6a3d 904c f93d
000002d0: 0731 783f d708 1bbf d1bb dc3d 2eaa 46bf
000002e0: 21f5 f7be 660b 6e3e 7fb9 173e 9cb2 eebd
000002f0: 9c04 843e 1857 1cbe a74c d3bd ffd2 083f
00000300: 34a6 8b3e 2383 7dbd 2965 b83e 80fb 82be
00000310: 9460 cdbe 5171 403d bfe1 89be e180 613e
00000320: f0f0 4c3d fbd7 29bf aa19 183e ae54 bd3d
00000330: f281 c53d f546 89be a2d1 c33e e446 d2be
00000340: fc01 523d a164 7cbe 8236 b1be 03e9 19be
00000350: 8898 89be a977 a43b 6181 0c3e 9dff 783e
00000360: 19d4 973e e008 84bd 9303 a9bd 9df0 6ebe
00000370: 7b7f d2be 9831 56bd 0fc2 323d a278 083e
00000380: b9ab 903e 41f3 bc3e 2f7d 543e 28da cc3c
00000390: 974e b8be b641 7ebe bc38 0e3f 26c1 203e
000003a0: c4e2 db3c f900 abbd c97b 27be 8068 54be
000003b0: 34a0 b7be fc24 9e3e b720 293f 4a0d 363e
000003c0: cc03 1cbe cb1b 643d 5694 89be 9fa7 133d
000003d0: a200 483e 6194 30bf 4aa8 ccbd 2e69 7e3e
000003e0: 83e0 edbd 3ef1 49be 7b97 4b3e 4710 633d
000003f0: 2196 933d 2409 aebe 62cf 99be 6094 733e

bias_ih_l0 f4 [56]
0.2636532 0.06338331 0.25784248 0.37084785 0.39179313 0.08618069 0.32773373 0.18732135
-0.012439914 0.07462616 0.26816705 0.122650914 -0.094022475 0.12645039 0.15463644 -0.017420173
0.05492916 0.1671838 0.33213103 0.08178605 0.4174254 0.4196073 0.17361444 -0.106750056
0.042875692 -0.13646929 0.040967405 -0.059129544 0.23841822 0.02008316 -0.25160757 0.14793725
0.060522083 -0.13185088 0.09509975 -0.06845637 -0.13590178 -0.02953439 0.17212349 0.11692385
-0.057621863 0.0649277 0.34441626 0.07420998 0.54162264 0.5520918 0.31317738 0.18960857
0.050617263 0.34759516 0.08331312 -0.02305653 0.18037853 -0.060412366 0.5017215 -0.086171135
00000000: 8dfd 863e 1ccf 813d ee03 843e c5df bd3e
00000010: 1c99 c83e 807f b03d b7cc a73e 2bd1 3f3e
00000020: c8d0 4bbc 9ad5 983d 314d 893e 6730 fb3d
00000030: db8e c0bd 367c 013e 0459 1e3e c0b4 8ebc
00000040: 66fd 603d 3b32 2b3e 140d aa3e 727f a73d
00000050: c8b8 d53e c5d6 d63e fcc7 313e c69f dabd
00000060: 6c9e 2f3d 9bbe 0bbe 70cd 273d d231 72bd
00000070: e823 743e 7085 a43c b5d2 80be dd7c 173e
00000080: 01e6 773d eb03 07be a8c3 c23d da32 8cbd
00000090: d629 0bbe 1bf2 f1bc 2441 303e c575 ef3d
000000a0: e704 6cbd d0f8 843d 5457 b03e 67fb 973d
000000b0: c8a7 0a3f e355 0d3f c958 a03e c028 423e
000000c0: 0c54 4f3d fef7 b13e 12a0 aa3d 0ce1 bcbc
000000d0: 26b5 383e f572 77bd d270 003f 7e7a b0bd

bias_hh_l0 f4 [56]
-0.04845945 0.26566333 0.6846141 0.41838944 0.29432842 0.30646014 -0.14806335 0.105076246
0.41626266 0.2609281 0.40224078 -0.10551434 -0.07421467 -0.19021706 0.25743577 -0.10768934
0.38725942 0.15294538 0.19036232 0.020479536 0.064103484 0.10534077 0.2551618 0.23897426
0.23052236 -0.1407682 0.16687374 0.16894029 -0.038264286 0.108167395 0.1267162 0.1101389
-0.12091303 0.1009698 0.26376507 0.04478987 0.04629582 -0.16282018 -0.25190374 -0.065961875
-0.043073192 0.1870327 0.3141818 -0.08886521 0.2619839 0.30337209 -0.0015894129 0.0866067
0.056844402 0.12366506 0.23312905 0.1522177 0.4447676 0.1633402 0.1709168 -0.045070097
00000000: 6b7d 46bd 0605 883e df42 2f3f 2437 d63e
00000010: 37b2 963e 58e8 9c3e eb9d 17be 3732 d73d
00000020: 6120 d53e 5e98 853e 81f2 cd3e e717 d8bd
00000030: dcfd 97bd 43c8 42be 9fce 833e 3b8c dcbd
00000040: de46 c63e b79d 1c3e 57ee 423e b3c4 a73c
00000050: b048 833d e7bc d73d 91a4 823e abb5 743e
00000060: 0e0e 6c3e 8a25 10be f3e0 2a3e affe 2c3e
00000070: 03bb 1cbd de86 dd3d e4c1 013e 8190 e13d
00000080: 40a1 f7bd 41c9 ce3d 370c 873e 9575 373d
00000090: b0a0 3d3d 55ba 26be 87f9 80be 0517 87bd
000000a0: 846d 30bd 8085 3f3e 70dc a03e f7fe b5bd
000000b0: c122 863e 9653 9b3e d953 d0ba db5e b13d
000000c0: add5 683d 1b44 fd3d 62b9 6e3e f5de 1b3e
000000d0: 94b8 e33e a742 273e d004 2f3e 6c9b 38bd

weight f4 [1, 14]
-0.028004821 0.25163788 -0.0557151 0.02281812 -0.031050889 0.24064986 -0.019121714 -0.1033135
-0.13675427 -0.1509054 -0.09477427 0.24329995 0.09481541 0.0048887692
00000000: 5e6a e5bc aed6 803e 8435 64bd 11ed ba3c
00000010: 6f5e febc eb6c 763e 24a5 9cbc 0796 d3bd
00000020: 5009 0cbe f286 1abe 0319 c2bd 9f23 793e
00000030: 952e c23d f831 a03b
