checkpoints/lstm/lstm_o_150.pt (torch, 8169 bytes, 5 tensors)

weight_ih_l0 f4 [56, 4]
0.26147366 -0.27407226 0.19491686 0.3523204 0.29868767 0.2990575 0.49612713 0.4511818
0.06578648 -0.3162554 -0.10499069 1.7135284 0.42555508 1.1086042 0.97961617 1.1074035
0.24915476 0.5803897 0.46777663 -0.101814054 0.081375495 1.212348 0.29348278 -0.4108049
0.44694796 0.38584793 0.7753597 0.66114485 1.6671678 0.21067305 1.1423804 -0.24042393
-0.0070109786 -0.3360205 -0.008851241 0.116164 0.39514285 0.37731913 0.7475523 0.96780187
-0.39028382 -0.64787984 -0.2291156 1.0969836 -0.57237977 -1.0022213 0.18847409 0.82234156
-0.5673628 -0.06935193 0.2605137 0.25044048 -0.13846493 0.5964961 -0.24377006 -0.19252424
-0.26553577 -0.18167652 -0.39727753 0.46175078 0.27536964 0.41762108 -0.4632164 1.2013179
0.23300773 0.18133731 0.06580546 0.2880201 -0.10371695 0.17861108 0.0950679 0.9586808
0.15468645 -0.3586978 0.57707506 0.27416658 -0.36475766 0.1944137 -0.14811802 0.011370646
-0.014135178 0.07496853 -0.1644385 0.9504235 0.5003726 -0.40084943 0.26484314 0.478691
-0.0055622766 -0.5711914 -0.35240036 -0.14589031 -0.08349816 0.15199412 0.13813153 0.63674504
0.2610622 -0.03897753 -0.1529342 -0.5322461 0.18933102 -0.10096629 0.16322516 0.46604505
0.111443266 -0.19974484 0.05074791 0.108532846 -0.15599246 -0.0033403502 0.069440864 -0.1218319
-0.018542895 -0.08691584 -0.20956396 -0.019161051 0.22189564 -0.050309885 -0.061917495 0.5514378
0.15323654 0.40642673 0.096408024 -0.2758754 0.18345176 -0.62619114 -0.4088122 -0.3963745
0.11341917 0.30903214 -0.56888604 0.5624199 -0.036848947 -0.075051196 0.12526372 -1.5814128
-0.06548534 0.09433523 -0.070321135 0.66289216 0.009205356 0.33967072 0.09928158 0.6707884
0.53220403 -0.5177294 -0.29694748 0.6977841 0.36332685 0.4215007 0.26072338 0.74483585
0.06269719 -0.08011385 0.39096916 -0.46317333 0.0063804113 0.24342042 -0.029922452 0.23961361
-0.2670849 -0.1856932 -0.24514739 0.030201646 0.13148546 -0.43921676 -0.13848732 0.5324931
-0.041886367 0.14638244 -0.11746966 0.47753873 0.21759242 0.47572765 0.49677292 1.6812882
0.025458837 0.33214524 0.042858183 0.84611 -0.24369395 0.23178647 0.18878265 -0.10236295
0.17328218 0.4548745 0.45057866 0.18799397 0.6809116 0.3293921 0.81692886 0.1409158
0.023697961 -0.8358644 0.293511 0.2096434 0.8972417 -0.20981354 0.8275259 0.4856002
0.33733156 -0.77257717 -0.21911637 0.050934665 0.12040822 -0.39809206 -0.048154414 0.62047416
0.31481192 0.16442396 0.18235256 -0.6407029 0.100509256 0.7005986 0.6600091 0.5404506
0.48328677 0.14669701 0.08325972 1.200082 0.32423994 0.4425085 -0.09027612 -0.39052436
00000000: e0df 853e 3353 8cbe 4998 473e 5763 b43e
00000010: 97ed 983e 111e 993e 6004 fe3e 4d01 e73e
00000020: 10bb 863d 3aec a1be 5c05 d7bd e654 db3f
00000030: 5be2 d93e bee6 8d3f 20c8 7a3f 66bf 8d3f
00000040: 6d22 7f3e 6b94 143f 6b80 ef3e e383 d0bd
00000050: 32a8 a63d 382e 9b3f 6043 963e 0555 d2be
00000060: 5dd6 e43e dc8d c53e f97d 463f ca40 293f
00000070: c165 d53f adba 573e 8539 923f b131 76be
00000080: 5abc e5bb e10a acbe cc04 11bc 64e7 ed3d
00000090: 2a50 ca3e f92f c13e 965f 3f3f ddc1 773f
000000a0: 48d3 c7be 74db 25bf 489d 6abe f569 8c3f
000000b0: 7b87 12bf ca48 80bf 5aff 403e fa84 523f
000000c0: b03e 11bf 6208 8ebd 0d62 853e bc39 803e
000000d0: c0c9 0dbe f8b3 183f dc9e 79be 1325 45be
000000e0: 4ef4 87be 6909 3abe f667 cbbe 996a ec3e
000000f0: 40fd 8c3e 6ed2 d53e b32a edbe c9c4 993f
00000100: 9499 6e3e 7db0 393e 03c5 863d 5f77 933e
00000110: 8d69 d4bd d3e5 363e f6b2 c23d 1b6c 753f
00000120: 2066 1e3e 3da7 b7be 31bb 133f 905f 8c3e
00000130: 84c1 babe 6314 473e 40ac 17be f24b 3a3c
00000140: 3c97 67bc 1a89 993d 9162 28be f44e 733f
00000150: 6b18 003f 233c cdbe 8599 873e fd16 f53e
00000160: c243 b6bb 9939 12bf d26d b4be 4564 15be
00000170: 1501 abbd 59a4 1b3e 5a72 0d3e b901 233f
00000180: f2a9 853e e7a6 1fbd c89a 1cbe 4841 08bf
00000190: fedf 413e 6ac7 cebd 7f24 273e 759d ee3e
000001a0: 5e3c e43d e989 4cbe 0add 4f3d 7846 de3d
000001b0: 7dbc 1fbe c7e9 5abb 0337 8e3d 0183 f9bd
000001c0: 45e7 97bc ef00 b2bd ef97 56be a3f7 9cbc
000001d0: 9c38 633e bd11 4ebd 339d 7dbd 072b 0d3f
000001e0: 0aea 1c3e 2a17 d03e 9271 c53d 8a3f 8dbe
000001f0: c7da 3b3e 104e 20bf d54f d1be 99f1 cabe
00000200: 4f48 e83d 7639 9e3e 84a2 11bf c0fa 0f3f
00000210: ecee 16bd 71b4 99bd 2245 003e bc6b cabf
00000220: 2e1d 86bd d432 c13d 8704 90bd 4db3 293f
00000230: 10d2 163c 52e9 ad3e 2454 cb3d cab8 2b3f
00000240: 863e 083f ea89 04bf 8009 98be fba1 323f
00000250: fa05 ba3e f1ce d73e 897d 853e 90ad 3e3f
00000260: 6267 803d bb12 a4bd 1c2d c83e 0e25 edbe
00000270: c512 d13b 3443 793e ee1f f5bc 455d 753e
00000280: 5abf 88be 5c26 3ebe eb07 7bbe 7169 f73c
00000290: 20a4 063e 05e1 e0be 9fcf 0dbe 7851 083f
000002a0: 0a91 2bbd 47e5 153e ef93 f0bd f57f f43e
000002b0: 8cd0 5e3e 9392 f33e 0559 fe3e 7434 d73f
000002c0: 0d8f d03c f10e aa3e 108c 2f3d aa9a 583f
000002d0: e88a 79be 6f59 6d3e 3d50 413e aba3 d1bd
000002e0: e270 313e 4fe5 e83e 3fb2 e63e 7e81 403e
000002f0: 3950 2e3f 15a6 a83e 4022 513f 3b4c 103e
00000300: 3a22 c23c 36fb 55bf 1347 963e c2ac 563e
00000310: a2b1 653f 5cd9 56be bdd8 533f 97a0 f83e
00000320: b9b6 ac3e 9ec7 45bf 0b60 60be dea0 503d
00000330: 9698 f63d b9d2 cbbe 903d 45bd 65d7 1e3f
00000340: 072f a13e c15e 283e a1ba 3a3e 1b05 24bf
00000350: ccd7 cd3d 6e5a 333f 5bf6 283f f85a 0a3f
00000360: 5d71 f73e be37 163e 1284 aa3d 499c 993f
00000370: c702 a63e 7990 e23e b0e2 b8bd cff2 c7be

weight_hh_l0 f4 [56, 14]
-0.25255555 -0.011789003 -0.12532386 -0.020665359 -0.20014429 0.1300994 0.3175157 0.09680178
-0.075671375 0.3872795 0.014740629 -0.16626379 0.13691606 -0.15580717 -0.12119747 0.15024719
-0.1557651 -0.13041936 -0.10779777 -0.181832 0.14770018 -0.21572295 0.06352613 0.314285
-0.17601778 -0.20583516 -0.37732127 -0.12489487 0.35275984 -0.41640186 -0.039041482 0.047569722
0.123999916 -0.15914775 0.1812315 -0.08592643 -0.11419061 0.13308588 -0.04016324 -0.00039827067
-0.2653331 -0.21949255 0.21264543 -0.04119948 0.0010689703 -0.64540404 -0.05443368 0.041080486
0.36163402 -0.30513468 -0.24890329 0.47212973 -0.11272555 0.032225654 -0.3690079 0.022848641
-0.02068217 -0.062673494 -0.33446318 -0.013298468 -0.55335003 -0.3327293 -0.14062887 0.26215038
0.2882954 0.35522404 -0.18080449 0.12118862 -0.43055585 0.33265272 -0.13769288 0.036360335
-0.209959 -0.40114343 0.17343636 -0.15131573 0.12462234 0.20591943 0.10418155 0.0057797497
0.11242663 0.07367117 -0.24794948 0.17654261 0.009673198 -0.016849099 0.22287497 -0.5496035
0.16846424 0.39976698 0.26584104 0.07614563 0.14384879 0.4713007 -0.3750315 -0.2545332
-0.40079015 -0.08603924 -0.022281727 -0.13951688 0.31190482 0.08911053 -0.24243334 0.19005707
0.052446228 0.052230492 -0.04349648 0.3446618 0.34846097 -0.11538313 0.03616058 -0.3220178
0.46641374 -0.16372108 -0.48792315 0.09372932 -0.32100767 -0.25739303 -0.102684624 0.083991066
-0.11916118 0.14126451 0.077251785 0.23135947 -0.09137377 0.22797196 0.02147062 0.2709263
0.07773596 -0.23008429 0.08668657 0.24397443 0.19270568 -0.035586897 0.14135395 0.46655244
-0.05713957 -0.19838841 -0.18866688 -0.12661016 0.33907577 0.0061686435 -0.35855722 -0.39876246
0.18813525 -0.099136114 0.5220744 -0.5566644 0.024274478 0.40563777 0.119527824 -0.5053116
-0.12361304 0.25991464 0.17961107 -0.69270086 0.08633569 -0.27906728 -0.18167098 0.117452994
0.27970964 -0.34443593 -0.096962236 0.012052082 0.23415816 -0.59940845 0.11739932 -0.07076979
0.28091472 -0.10922349 -0.19733082 -0.34533787 0.110569075 0.14313637 0.15995722 0.009993724
0.0489252 0.47492054 -0.039925218 0.06646426 -0.05727389 -0.10990169 0.51750207 -0.1822799
-0.2434785 0.2726841 -0.03437323 -0.14861819 -0.18003349 -0.07896819 0.027779922 0.07502264
0.32938853 0.35316634 -0.32856908 -0.20857616 -0.033918634 0.022902416 -0.18637061 -0.49396083
-0.029079907 -0.5392392 0.22839703 0.05932557 0.64001685 0.11063903 -0.324434 -0.0613344
0.017578866 -0.019689536 -0.03811391 0.20197983 0.063766286 -0.039983425 0.11436383 0.2685834
0.20872903 -0.25827628 0.12819931 0.3690146 -0.13657628 -0.2959041 0.4277024 -0.39631087
0.15216255 -0.44925052 -0.27885932 0.04572503 0.22707005 0.06624021 0.26769558 0.12306995
0.04786478 0.13980898 -0.21045391 0.34796458 0.060697414 -0.06353428 0.23544991 -0.49771795
-0.4709859 -0.5687776 0.38931805 -0.46472022 0.5542809 0.023761509 0.18789592 0.39202008
-0.822181 0.32355943 -0.45379946 0.0313888 0.078501575 -0.71937174 -0.3572924 -0.40996805
00000000: f64e 81be aa26 41bc e654 00be 664a a9bc
00000010: a0f2 4cbe c738 053e 6b91 a23e 0340 c63d
00000020: 98f9 9abd 8049 c63e ae82 713c 0e41 2abe
00000030: b933 0c3e ea8b 1fbe 6136 f8bd 66da 193e
00000040: e380 1fbe a78c 05be 14c5 dcbd 2b32 3abe
00000050: b73e 173e 7ae6 5cbe fd19 823d f7e9 a03e
00000060: 013e 34be 74c6 52be 4130 c1be e2c8 ffbd
00000070: f09c b43e a032 d5be f6e9 1fbd 78d8 423d
00000080: abf3 fd3d a1f7 22be c094 393e 32fa afbd
00000090: c4dc e9bd aa47 083e 3682 24bd fcce d0b9
000000a0: bdd9 87be a8c2 60be b9bf 593e c9c0 28bd
000000b0: b11c 8c3a 3339 25bf daf5 5ebd 0344 283d
000000c0: 1828 b93e 9d3a 9cbe 81e0 7ebe fdba f13e
000000d0: a7dc e6bd 0cff 033d 9aee bcbe 132d bb3c
000000e0: a76d a9bc f65a 80bd c23e abbe d1e1 59bc
000000f0: 59a8 0dbf 7f5b aabe 0401 10be 9338 863e
00000100: 749b 933e eddf b53e d024 39be bd31 f83d
00000110: d171 dcbe 7551 aa3e 5dff 0cbe 93ee 143d
00000120: 7eff 56be ac62 cdbe 4d99 313e 83f2 1abe
00000130: ff39 ff3d 8bdc 523e 235d d53d 0e64 bd3b
00000140: ef3f e63d e9e0 963d 78e6 7dbe 96c7 343e
00000150: 557c 1e3c 1f07 8abc 5639 643e d1b2 0cbf
00000160: e481 2c3e 42ae cc3e 511c 883e 3df2 9b3d
00000170: 194d 133e 534e f13e 2104 c0be 2d52 82be
00000180: 5e34 cdbe 5735 b0bd 2b88 b6bc 83dd 0ebe
00000190: fdb1 9f3e 957f b63d 7240 78be 529e 423e
000001a0: dbd1 563d a4ef 553d 5d29 32bd 8377 b03e
000001b0: 7a69 b23e fe4d ecbd 1e1d 143d 84df a4be
000001c0: c8cd ee3e 80a6 27be 10d1 f9be 28f5 bf3d
000001d0: 1e5b a4be 05c9 83be 514c d2bd 8203 ac3d
000001e0: c70a f4bd a5a7 103e 2f36 9e3d 7fe9 6c3e
000001f0: 2c22 bbbd 7b71 693e 27e3 af3c dab6 8a3e
00000200: 0834 9f3d 379b 6bbe ba88 b13d 6fd4 793e
00000210: a354 453e 91c3 11bd 17bf 103e f6df ee3e
00000220: 2f0b 6abd 5526 4bbe e431 41be 18a6 01be
00000230: 579b ad3e 5522 ca3b d094 b7be 982a ccbe
00000240: 87a6 403e e007 cbbd aba6 053f 8f81 0ebf
00000250: 45db c63c c1af cf3e 01cb f43d 1a5c 01bf
00000260: d528 fdbd 8813 853e f7eb 373e d854 31bf
00000270: c4d0 b03d e8e1 8ebe f507 3abe 328b f03d
00000280: 1a36 8f3e e859 b0be 2394 c6bd 1976 453c
00000290: 28c7 6f3e d572 19bf 0e6f f03d c0ef 90bd
000002a0: 0ed4 8f3e 91b0 dfbd 1711 4abe 20d0 b0be
000002b0: 0a72 e23d 5792 123e d3cb 233e b7bc 233c
000002c0: ca65 483d c928 f33e a088 23bd 6a1e 883d
000002d0: 0798 6abd 2314 e1bd 047b 043f 95a7 3abe
000002e0: 6e52 79be 409d 8b3e f2ca 0cbd 5e2f 18be
000002f0: b35a 38be 13ba a1bd b892 e33c 78a5 993d
00000300: 9da5 a83e 38d2 b43e 353a a8be fd94 55be
00000310: 44ee 0abd d99d bb3c f0d7 3ebe 6fe8 fcbe
00000320: fc38 eebc 950b 0abf e9e0 693e 5eff 723d
00000330: 25d8 233f b796 e23d 371c a6be c839 7bbd
00000340: 8e01 903c f34b a1bc 551d 1cbd cdd3 4e3e
00000350: e697 823d a9c5 23bd 9537 ea3d c383 893e
00000360: 10bd 553e ca3c 84be ae46 033e 7bef bc3e
00000370: a7da 0bbe be80 97be cffb da3e 42e9 cabe
00000380: 80d0 1b3e 2a04 e6be a6c6 8ebe 2b4a 3b3d
00000390: 0d85 683e f2a8 873d 650f 893e 190c fc3d
000003a0: dc0d 443d 162a 0f3e 3b81 57be 6a28 b23e
000003b0: da9d 783d 431e 82bd c819 713e e3d4 febe
000003c0: 1025 f1be 699b 11bf b254 c73e cfef edbe
000003d0: 5ae5 0d3f 7fa7 c23c ca67 403e dbb6 c83e
000003e0: 747a 52bf 95a9 a53e 6758 e8be 8b91 003d
000003f0: 6fc5 a03d bf28 38bf 08ef b6be 55e7 d1be

bias_ih_l0 f4 [56]
0.13840678 0.17399776 -0.12248578 0.13566914 0.33035263 0.1397253 0.061087873 -0.1160201
0.23550493 0.14060879 0.2610341 -0.13090225 0.07426056 0.33318722 -0.043915097 -0.26115724
-0.13608165 0.021745156 0.26591095 0.25101063 0.35525614 0.061715387 0.11299341 0.06330496
0.08477139 0.11625261 0.25516748 0.35563445 0.21710256 -0.038641773 -0.2671248 0.16241743
-0.06623985 0.013284152 -0.07479287 -0.18647386 0.17024463 0.06002624 0.038440976 0.22966714
-0.26921925 0.102702364 -0.016794777 -0.15295255 0.34047836 0.29530084 0.29736164 0.20804629
0.26418746 0.15284884 0.022540446 0.1998584 0.375974 -0.042907868 0.044051677 0.28524378
00000000: 82ba 0d3e 782c 323e d3d9 fabd daec 0a3e
00000010: fb23 a93e 2614 0f3e 4737 7a3d f29b edbd
00000020: 3428 713e c0fb 0f3e 43a6 853e 3d0b 06be
00000030: ec15 983d 8497 aa3e 51e0 33bd 67b6 85be
00000040: fd58 0bbe e622 b23c 7b25 883e 7784 803e
00000050: 22e4 b53e 46c9 7c3d 1769 e73d 08a6 813d
00000060: 9f9c ad3d d915 ee3d 50a5 823e b815 b63e
00000070: 2250 5e3e d646 1ebd 95c4 88be c150 263e
00000080: c2a8 87bd c6a5 593c 012d 99bd 01f3 3ebe
00000090: 9c54 2e3e 13de 753d 4974 1d3d dd2d 6b3e
000000a0: 1bd7 89be 9e55 d23d 3395 89bc 989f 1cbe
000000b0: 2e53 ae3e ac31 973e c93f 983e 160a 553e
000000c0: 9443 873e 6884 1c3e bea6 b83c aea7 4c3e
000000d0: aa7f c03e 29c0 2fbd 886f 343d 790b 923e

bias_hh_l0 f4 [56]
-0.1066098 0.20741214 0.28716302 -0.010415465 0.029062528 0.196779 0.3220902 0.0057875686
0.27843046 -0.15401067 0.3716783 0.2817394 0.23240623 0.069032945 0.2757255 -0.042271443
0.15917844 0.22146419 -0.115321495 0.338872 0.09400564 -0.14049229 0.1767863 0.26698261
0.05695167 -0.0008688758 0.13117005 0.20372765 0.24796356 -0.04064744 -0.23415375 -0.26734185
-0.08467176 -0.3300079 0.095810115 -0.12667501 -0.22064734 -0.10250075 -0.04606906 -0.077712156
-0.23072726 0.066876024 -0.07095085 -0.15682173 0.08211842 0.03597936 0.12436712 0.45238063
0.11158342 -0.25581074 0.3578508 0.27255207 0.4202897 -0.0024082647 0.2090209 -0.1309287
00000000: 3d56 dabd d963 543e 0807 933e a0a5 2abc
00000010: 8a14 ee3c 6f80 493e 02e9 a43e a5a5 bd3b
00000020: 708e 8e3e f9b4 1dbe 9e4c be3e 2640 903e
00000030: e6fb 6d3e 2561 8d3d e52b 8d3e d224 2dbd
00000040: acff 223e 82c7 623e ad2d ecbd a180 ad3e
00000050: 0786 c03d 36dd 0fbe 7807 353e f2b1 883e
00000060: 2846 693d 45c5 63ba 7151 063e fb9d 503e
00000070: 29ea 7d3e ee7d 26bd 00c6 6fbe 08e1 88be
00000080: 6368 adbd ccf6 a8be 1838 c43d 18b7 01be
00000090: 60f1 61be eaeb d1bd e9b2 3cbd 8d27 9fbd
000000a0: c443 6cbe 4cf6 883d ae4e 91bd e095 20be
000000b0: b42d a83d 185f 133d 30b4 fe3d 6f9e e73e
000000c0: d985 e43d a0f9 82be 3838 b73e f28b 8b3e
000000d0: 3630 d73e fad3 1dbb 9309 563e 2c12 06be

weight f4 [1, 14]
0.031601127 0.13998014 -0.040857818 -0.0048712026 0.050505426 -0.09284306 0.0064730984 0.054392356
0.19141889 -0.006172371 -0.084885225 0.013639645 -0.0012352794 0.21766266
00000000: 2f70 013d f456 0f3e 875a 27bd 9c9e 9fbb
00000010: c7de 4e3d 8124 bebd 491c d43b 85ca 5e3d
00000020: 5003 443e 9a41 cabb 4ed8 adbd d178 5f3c
00000030: 19e9 a1ba f6e2 5e3e
