checkpoints/lstm/lstm_o_15.pt (torch, 8098 bytes, 5 tensors)

weight_ih_l0 f4 [56, 4]
0.34997797 0.314613 0.55594623 0.4910215 -0.27186492 1.1698345 0.1885812 0.64060795
0.35874707 0.65380585 -0.12853152 0.2540748 -0.25476876 0.2037851 0.20063986 0.13633181
-0.44937718 -0.81241405 -0.18788418 0.5949529 0.24089882 0.44769678 0.03460342 0.26091406
-0.82644486 -0.33191207 -0.15464841 0.09006884 -0.17875367 0.08594032 0.19175819 0.4058487
0.5457177 -0.16312908 0.87243384 -0.36496365 0.17361434 -0.6112281 -0.6487384 0.6170668
0.33512795 -0.13096611 0.045968957 0.9861145 0.25813788 0.21192153 -0.3373202 0.6758793
0.10397337 0.3740429 0.60039616 1.8125421 -0.086656086 0.14485519 -0.08076647 0.20270397
-0.010377829 0.18119086 -0.19894668 -0.18870041 -0.12653776 -0.07583755 -0.43169442 0.2143506
-0.23245862 0.2830468 -0.43636316 -0.4987759 -0.24444914 -0.2802591 -0.26310164 0.20129804
-0.18770224 -0.6853235 -0.85997224 0.043109003 0.36053535 0.3004965 0.13334602 0.16269334
-0.10446192 -0.25757205 0.17468145 -0.16514786 0.28951913 0.22329235 0.26737505 0.15361007
-0.23650785 -0.335756 -0.28544813 0.7730457 0.32352796 0.14543884 -0.02206866 0.476615
0.11995806 -0.14255467 -0.5414497 0.18437116 -0.6290211 -0.21845232 -0.5941405 -0.6562846
-0.61168694 -0.01613147 -0.16791421 0.2432439 0.30565435 0.0075088935 -0.03951438 0.31250823
0.014844593 -0.17511314 0.07800925 -0.37981957 0.07445994 -0.33938318 -0.08254251 1.7988579
-0.040111363 -0.56138605 -0.21592386 -0.3591918 0.23176605 0.25806856 -0.089082904 -0.08385884
-0.2985142 0.2887142 0.4139512 -0.09912644 -0.34322837 0.3723296 0.18917756 -0.36189649
0.44351727 -0.12386312 0.21838988 0.01942708 -0.053357422 -0.2702483 -0.12592833 -0.28547826
-0.08883127 -0.20127305 -0.02581986 0.6614852 0.116531044 0.15571149 -0.2211729 0.2660138
0.040889278 -0.19909868 -0.045389567 0.44109422 -0.2052171 -0.4998222 -0.5418957 0.8786169
0.5890728 0.020935731 -0.1294795 -0.43237126 -0.032499854 0.30327296 -0.14753817 -0.25391984
-0.4081434 -0.07864194 -0.22271375 0.09638425 0.14190856 0.9753967 -0.17951566 0.5742472
0.07062192 -0.032497756 -0.028118564 -1.013277 0.14933074 0.04560701 0.015330956 0.33087417
-0.22159174 -1.2072344 -0.22555514 1.141779 0.08667687 0.40795675 -0.17461394 0.09636153
0.010772527 -0.50071126 0.42168757 -0.20762241 0.5557576 -0.36309114 0.52545327 0.72167873
0.49570772 0.17556055 0.74107563 0.21746625 0.03931668 -0.04454523 -0.13409488 1.4304557
0.19518186 -0.19083315 -0.235639 0.4784336 -0.6660582 -0.851149 -0.7452831 -0.010159988
0.21107168 -0.21529008 0.037283424 0.75313944 -0.19941638 0.29102364 -0.25577018 -0.011618596
00000000: 5030 b33e f514 a13e 7e52 0e3f 2c67 fb3e
00000010: e131 8bbe 23bd 953f 6e1b 413e e2fe 233f
00000020: b2ad b73e d25f 273f c49d 03be 1816 823e
00000030: 0d71 82be 0bad 503e 8974 4d3e 919a 0b3e
00000040: c414 e6be 5efa 4fbf b664 40be d54e 183f
00000050: 2eae 763e 8338 e53e 51bc 0d3d 8796 853e
00000060: e491 53bf 61f0 a9be 275c 1ebe 0376 b83d
00000070: 340b 37be 7a01 b03d 425c 443e 67cb cf3e
00000080: 28b4 0b3f 4f0b 27be d357 5f3f 84dc babe
00000090: f5c7 313e 7279 1cbf b813 26bf 17f8 1d3f
000000a0: e495 ab3e fb1b 06be f249 3c3d 0072 7c3f
000000b0: a62a 843e f501 593e 3cb5 acbe 6d06 2d3f
000000c0: fdef d43d 8d82 bf3e 90b3 193f 6101 e83f
000000d0: bf78 b1bd eb54 143e e468 a5bd a191 4f3e
000000e0: c507 2abc 198a 393e aeb8 4bbe ae3a 41be
000000f0: 1d93 01be b850 9bbd 0d07 ddbe b97e 5b3e
00000100: a209 6ebe 83eb 903e fe6a dfbe 8e5f ffbe
00000110: e050 7abe 1f7e 8fbe 42b5 86be 1321 4e3e
00000120: 0435 40be 5c71 2fbf 2427 5cbf 1193 303d
00000130: 1798 b83e adda 993e dc8b 083e 1599 263e
00000140: 22f0 d5bd 7ce0 83be b2df 323e 851c 29be
00000150: da3b 943e c0a6 643e 62e5 883e f54b 1d3e
00000160: 1d2f 72be 36e8 abbe 4226 92be 53e6 453f
00000170: 75a5 a53e ebed 143e 56c9 b4bc e206 f43e
00000180: 92ac f53d daf9 11be 739c 0abf cbcb 3c3e
00000190: 8707 21bf f7b1 5fbe 9819 18bf 4402 28bf
000001a0: 8497 1cbf 2526 84bc b4f1 2bbe ee14 793e
000001b0: ba7e 9c3e 2a0d f63b d5d9 21bd 1401 a03e
000001c0: bc36 733c dc50 33be 50c3 9f3d b677 c2be
000001d0: 747e 983d a2c3 adbe 0c0c a9bd fa40 e63f
000001e0: d04b 24bd ffb6 0fbf 251b 5dbe fde7 b7be
000001f0: 1454 6d3e 9021 843e 1971 b6bd 2fbe abbd
00000200: dad6 98be 59d2 933e 69f1 d33e ce02 cbbd
00000210: a1bb afbe fca1 be3e c3b7 413e 7f4a b9be
00000220: b214 e33e f3ab fdbd 99a1 5f3e 8a25 9f3c
00000230: 508d 5abd fc5d 8abe 5bf3 00be 352a 92be
00000240: 2bed b5bd 861a 4ebe 2c84 d3bc 1857 293f
00000250: d4a7 ee3d d572 1f3e 267b 62be f632 883e
00000260: 847b 273d 86e0 4bbe 69ea 39bd 1ad7 e13e
00000270: 6e24 52be b2e8 ffbe adb9 0abf 0aed 603f
00000280: 7acd 163f 6981 ab3c 4696 04be c45f ddbe
00000290: 911e 05bd 9846 9b3e 3f14 17be c801 82be
000002a0: 2cf8 d0be 070f a1bd 130f 64be 1b65 c53d
000002b0: 7a50 113e 99b3 793f f4d2 37be dd01 133f
000002c0: 3aa2 903d 5e1c 05bd e758 e6bc 10b3 81bf
000002d0: 28ea 183e 6bce 3a3d b12e 7b3c 5768 a93e
000002e0: f2e8 62be a886 9abf edf7 66be d025 923f
000002f0: a583 b13d b5df d03e ffcd 32be 3259 c53d
00000300: 417f 303c 9d2e 00bf 6fe7 d73e f89a 54be
00000310: 2146 0e3f 15e7 b9be 1b84 063f f0bf 383f
00000320: 67cd fd3e 25c6 333e 22b7 3d3f 79af 5e3e
00000330: 870a 213d 0f75 36bd 2b50 09be 2c19 b73f
00000340: c1dd 473e c469 43be 5a4b 71be 40f5 f43e
00000350: ca82 2abf e7e4 59bf e0ca 3ebf 1476 26bc
00000360: 2d23 583e 0175 5cbe 81b6 183d bfcd 403f
00000370: cf33 4cbe 0d01 953e 4ff4 82be ec5b 3ebc

weight_hh_l0 f4 [56, 14]
-0.11468183 0.32388517 0.32877377 0.04961424 -0.68961084 -0.40965778 -0.14017582 -0.42579693
0.16164601 -0.653045 0.7534192 0.3738701 -0.41453922 -0.18574591 -0.1899396 -0.08967496
0.16265906 -0.45794362 0.090126745 -0.6260158 -0.50543755 0.07255488 0.15658984 -0.72728485
0.5569303 0.10884774 -0.6025105 -1.0203395 0.33863834 -0.14150107 0.43648666 -0.08053249
-0.25911826 -0.27739966 -0.20293795 -0.23771298 -0.3337337 -0.2720597 -0.18067484 0.1864729
-0.84442455 -0.12923804 -0.3262191 0.13896297 0.20366052 -0.3595886 0.5494758 -0.3224335
-0.38450867 -0.36642426 0.41029114 0.2316246 -0.054395784 -0.15164255 -0.095626295 0.012358278
-0.21007577 0.36214054 0.49817732 -0.2878634 0.021589337 -0.12637523 -0.6713592 -0.120915055
-0.08332909 -0.53196245 -0.08873432 0.725129 -0.043170437 -0.42394358 -0.19987425 0.10829192
0.14160576 -0.5826405 -0.35468364 -0.10166516 -0.24676655 -0.5675097 -0.11339621 0.07464413
0.30877924 0.552126 0.1661009 0.04795637 0.09969395 -0.17536277 0.05171602 0.18273093
0.0822239 0.25031406 -0.06701219 -0.49717453 0.10323447 0.096642666 0.18912038 -0.34413967
-0.3043364 -0.12584898 -0.50578445 0.2533195 0.13480599 -0.2261821 0.3254804 0.25470674
-0.5074536 -0.2939147 0.3424402 0.01825258 0.35511947 0.2765442 -0.5102697 -0.36433735
-0.6589248 -0.1313505 0.27262625 -0.326148 -0.3369861 -0.7261996 -0.060851723 0.43891793
0.802837 0.10583466 0.25705862 0.17802447 -0.45852628 -0.3465856 -0.057175368 -0.087554894
1.0949422 -0.39586526 -0.36998266 -0.35079476 -0.03343381 -0.046883736 -0.007082008 0.5955293
0.00047631582 0.28107002 0.21704009 -0.31533083 0.0030398173 0.19703558 0.39899972 -0.080180556
-0.10890431 -0.19398057 0.033561364 -0.16174786 0.031935807 -0.07076428 -0.059238162 0.3330686
-0.19463304 -0.13783029 0.10208055 0.43348333 -0.45594987 -0.1613107 -0.22327131 -0.19126979
-0.25046954 -0.7857404 -0.5600769 -0.9094818 0.40752274 -0.100053415 -0.28622496 -0.027217876
-0.16507399 0.21171884 -0.10481596 -0.0049641575 0.16535948 -0.6596424 0.6641018 -0.35377407
0.10631066 -0.27761313 -0.18123217 0.3023384 -0.25976586 0.20161316 0.23576045 0.35095856
0.03750132 -0.18891317 -0.044887617 0.21116266 -0.30590314 -0.52910894 0.10788743 0.15038733
-0.17439488 -0.071628824 -0.30061495 -0.16814785 -0.1694885 0.16337878 -0.40035865 0.039676268
-0.8440077 -0.14850874 0.05503253 0.21113452 0.31212458 -0.5995269 0.09750514 0.102525294
-0.06791439 0.13432424 -0.061114255 0.015875652 -0.18542874 0.2543223 0.041004177 0.06512041
-0.08353438 0.028580258 -0.34038523 -0.1378762 0.47264183 0.17179638 -0.07262629 -0.26308742
-0.04602943 0.39928445 0.013544268 -0.28681496 0.43168074 -0.44867334 -0.08068819 -0.43349177
0.70307124 0.34809968 -0.26562235 -0.2759948 -0.5613769 -0.6781377 -0.45583498 0.17426562
0.1436987 -0.41625586 -0.3366727 -0.12286677 -0.2518756 -0.28180644 0.1601048 -0.18600878
0.11882249 0.32137612 -0.27451244 0.02075555 -0.13533813 0.53438383 -0.14332704 -0.32756168
00000000: 4fde eabd 47d4 a53e 0955 a83e 4d38 4b3d
00000010: 568a 30bf aabe d1be 408a 0fbe 0e02 dabe
00000020: 8886 253e f52d 27bf 15e0 403f e76b bf3e
00000030: 7c3e d4be 2d34 3ebe 877f 42be 81a7 b7bd
00000040: 1990 263e 9677 eabe 5f94 b83d 9242 20bf
00000050: 5b64 01bf a797 943d 1659 203e 572f 3abf
00000060: fc92 0e3f 90eb de3d 213e 1abf 7c9a 82bf
00000070: 0162 ad3e a8e5 10be 2e7b df3e 38ee a4bd
00000080: 26ab 84be 5407 8ebe f7ce 4fbe 086b 73be
00000090: 25df aabe 694b 8bbe d302 39be c0f2 3e3e
000000a0: 352c 58bf fa56 04be 3106 a7be 4f4c 0e3e
000000b0: 628c 503e ff1b b8be 72aa 0c3f 0116 a5be
000000c0: 52de c4be f69b bbbe ae11 d23e 002f 6d3e
000000d0: 1dce 5ebd 2f48 1bbe b8d7 c3bd 607a 4a3c
000000e0: 1a1e 57be 7c6a b93e 1911 ff3e d562 93be
000000f0: 1fdc b03c 8268 01be 32de 2bbf 50a2 f7bd
00000100: 71a8 aabd b12e 08bf 57ba b5bd 0ea2 393f
00000110: 7cd3 30bd 220f d9be d6ab 4cbe 27c8 dd3d
00000120: 1a01 113e ee27 15bf 1899 b5be d335 d0bd
00000130: 5fb0 7cbe 5148 11bf 463c e8bd 06df 983d
00000140: 5018 9e3e 2158 0d3f 5b16 2a3e e66d 443d
00000150: 572c cc3d 4c92 33be 2dd4 533d d11d 3b3e
00000160: 0165 a83d 2a29 803e b03d 89bd a98d febe
00000170: 986c d33d 97ec c53d c6a8 413e 1333 b0be
00000180: fbd1 9bbe 8ede 00be 177b 01bf 18b3 813e
00000190: 950a 0a3e 489c 67be 5ea5 a63e ec68 823e
000001a0: 7be8 01bf fd7b 96be 5254 af3e 6f86 953c
000001b0: 38d2 b53e 3497 8d3e 09a1 02bf 6d8a babe
000001c0: 4caf 28bf bf80 06be ab95 8b3e dffc a6be
000001d0: 7189 acbe 38e8 39bf a83f 79bd dab9 e03e
000001e0: ba86 4d3f d8bf d83d 309d 833e 0c4c 363e
000001f0: f5c3 eabe ab73 b1be b830 6abd fb4f b3bd
00000200: 1127 8c3f daae cabe 5e6e bdbe 5f9b b3be
00000210: e4f1 08bd 2909 40bd 3010 e8bb 9c74 183f
00000220: 07ba f939 69e8 8f3e c23f 5e3e 0b73 a1be
00000230: ac37 473b b2c3 493e b149 cc3e b435 a4bd
00000240: 3909 dfbd d8a2 46be a477 093d 3ba1 25be
00000250: 1fcf 023d ddec 90bd b7a3 72bd f887 aa3e
00000260: e24d 47be 6223 0dbe 9b0f d13d 87f1 dd3e
00000270: 4372 e9be a22e 25be 3ca1 64be 3adc 43be
00000280: 8b3d 80be 4826 49bf 3361 0fbf cdd3 68bf
00000290: d2a6 d03e cee8 ccbd 148c 92be 06f8 debc
000002a0: 2809 29be d3cc 583e c0a9 d6bd 5faa a2bb
000002b0: ff53 293e 53de 28bf 9302 2a3f e021 b5be
000002c0: 67b9 d93d 4f23 8ebe ed94 39be 19cc 9a3e
000002d0: 0800 85be ae73 4e3e 306b 713e d7b0 b33e
000002e0: fc9a 193d 7472 41be 14dc 37bd 063b 583e
000002f0: 569f 9cbe af73 07bf 16f4 dc3d 23ff 193e
00000300: 9294 32be 22b2 92bd 34ea 99be f32e 2cbe
00000310: 658e 2dbe c44c 273e cffb ccbe 9583 223d
00000320: e310 58bf ad12 18be ca69 613d a633 583e
00000330: cbce 9f3e 987a 19bf c6b0 c73d c8f8 d13d
00000340: b316 8bbd 4b8c 093e f152 7abd a80d 823c
00000350: 08e1 3dbe 8836 823e fff3 273d d95d 853d
00000360: 1314 abbd 2521 ea3c f946 aebe 6b2f 0dbe
00000370: 1cfe f13e 64eb 2f3e 18bd 94bd 65b3 86be
00000380: 5b89 3cbd 036f cc3e c7e8 5d3c 69d9 92be
00000390: 4205 dd3e 83b8 e5be da3f a5bd a2f2 ddbe
000003a0: 7afc 333f 1f3a b23e a7ff 87be 314f 8dbe
000003b0: 66b6 0fbf 6f9a 2dbf 3463 e9be b072 323e
000003c0: c125 133e 7d1f d5be 5d60 acbe 93a1 fbbd
000003d0: d7f5 80be ef48 90be 83f2 233e 1679 3ebe
000003e0: 3559 f33d 698b a43e e58c 8cbe 8b07 aa3c
000003f0: 1496 0abe 61cd 083f 53c4 12be 2ab6 a7be

bias_ih_l0 f4 [56]
-0.03497972 0.6083755 0.04392229 0.14692654 0.22694667 0.04226012 0.025298674 0.12997028
0.36645928 0.14922956 -0.019899605 0.36636078 -0.19490242 -0.18977903 0.24701035 0.10353529
0.36757132 0.14295508 0.17536283 0.025399877 0.1819463 -0.018020926 0.092902794 0.17097509
-0.0666721 0.33198488 0.23099196 0.052579958 -0.155273 -0.026918873 0.13222703 0.15508786
0.11125309 -0.18372598 -0.10772852 0.26349318 0.26412636 -0.18152905 0.18506734 0.20067999
-0.18013723 -0.05941282 0.06361262 0.578035 0.17888233 0.07833507 -0.01957133 0.22664236
0.3629142 -0.07693219 0.3062522 0.37648478 0.09899054 0.12817845 0.30674797 -0.10127827
00000000: e546 0fbd 7fbe 1b3f dce7 333d e973 163e
00000010: b564 683e f318 2d3d 2a3f cf3c ee16 053e
00000020: 8da0 bb3e a2cf 183e 7f04 a3bc a493 bb3e
00000030: 8094 47be 6f55 42be 48f0 7c3e 4f0a d43d
00000040: 4f32 bc3e d162 123e 5092 333e 6713 d03c
00000050: 2250 3a3e 9fa0 93bc d243 be3d 1814 2f3e
00000060: 628b 88bd ecf9 a93e 2889 6c3e 155e 573d
00000070: e3ff 1ebe f884 dcbc 8666 073e 5acf 1e3e
00000080: a9d8 e33d aa22 3cbe c5a0 dcbd 94e8 863e
00000090: 923b 873e c0e2 39be 4b82 3d3e 0e7f 4d3e
000000a0: e575 38be db5a 73bd 5547 823d 1afa 133f
000000b0: ee2c 373e 236e a03d 0e54 a0bc ef14 683e
000000c0: e4cf b93e a08e 9dbd 17cd 9c3e 9dc2 c03e
000000d0: 8dbb ca3d 3641 033e 120e 9d3e fb6a cfbd

bias_hh_l0 f4 [56]
0.34422776 0.7363654 0.13814804 0.03437757 -0.0018094493 0.23693955 -0.080305934 -0.030862598
0.3586669 0.1506109 0.29227668 -0.017622016 -0.20505956 0.019706879 0.34861585 -0.010848731
0.06302901 0.38424554 0.18429022 -0.050548133 -0.012024925 -0.05409651 0.19079085 0.12761891
0.02922311 -0.0023391275 0.44364062 -0.0075728116 0.06842152 -0.037850972 0.23052426 -0.1836264
-0.13050155 0.20383133 -0.020112671 -0.18072781 0.054009985 -0.032071486 -0.14720374 -0.22734375
-0.051733278 0.057486396 0.0041148933 0.5865302 0.50976 0.0022378485 0.19048624 -0.09623862
0.05253568 0.2843469 0.25200003 0.30210993 0.14661883 0.34710348 0.045543388 0.032168105
00000000: 9f3e b03e 7182 3c3f ae76 0d3e 7fcf 0c3d
00000010: 0b2b edba 48a0 723e 7077 a4bd 8fd3 fcbc
00000020: 30a3 b73e be39 1a3e 4aa5 953e 0c5c 90bc
00000030: 22fb 51be 5270 a13c c77d b23e e0be 31bc
00000040: 5b15 813d d5bb c43e 93b6 3c3e 8f0b 4fbd
00000050: 3104 45bc 4d94 5dbd ad5e 433e 88ae 023e
00000060: 4e65 ef3c 0c4c 19bb dd24 e33e 5925 f8bb
00000070: 9520 8c3d 9f09 1bbd 8d0e 6c3e 8f08 3cbe
00000080: 33a2 05be 29b9 503e 54c3 a4bc b610 39be
00000090: 9339 5d3d 645d 03bd 94bc 16be cdcc 68be
000000a0: 46e6 53bd db76 6b3d 3ad6 863b d826 163f
000000b0: a27f 023f dea8 123b d30e 433e c118 c5bd
000000c0: a72f 573d eb95 913e 2606 813e 27ae 9a3e
000000d0: 3f23 163e 8cb7 b13e b48b 3a3d b4c2 033d

weight f4 [1, 14]
-0.063867845 0.1113275 -0.09009408 -0.014544706 -0.036577288 -0.15180705 -0.13927262 0.12856184
0.038766645 0.027080765 0.056129493 0.19363624 -0.050783098 -0.087976724
00000000: 25cd 82bd acff e33d 3f83 b8bd eb4c 6ebc
00000010: 11d2 15bd 4f73 1bbe 7b9d 0ebe b7a5 033e
00000020: c6c9 1e3d 7bd8 dd3c 0ae8 653d 9448 463e
00000030: f001 50bd 242d b4bd
