checkpoints/lstm/transformer_o_15.pt (torch, 487332 bytes, 70 tensors)

weight f4 [16, 8]
0.6903711 2.7051358 0.08144721 -1.0505924 -1.1293124 0.34813124 0.9472257 0.07546133
0.53804773 1.9890941 -0.4821922 0.16369146 -0.9417034 0.8573911 1.7858924 -0.09916843
-1.1213076 -0.6103205 0.68619776 1.2075784 1.2303499 0.6122097 -0.26378012 -0.14463545
0.27443403 0.82375306 -0.37406284 0.86906254 -0.5282268 -1.1618432 0.32884726 -0.5978063
1.0674709 -0.047352213 0.09886895 0.121819645 0.87665826 -0.73637086 -2.5073705 0.1406566
-1.0795016 0.09676859 -0.28953362 0.6621177 1.7110732 0.6982955 -0.3380879 0.2281893
-0.87960947 0.6234201 -0.2522218 -0.8947781 -0.6904553 1.0577533 -0.45302525 -0.25605616
0.54130524 -1.1642514 -0.116541125 0.39720452 -1.0036589 0.58926016 -0.24006335 -0.2199867
0.10810355 -0.51571125 -0.5910788 0.8414552 -0.8006184 0.12092155 -0.13369575 0.015978543
-0.020941142 0.11702133 -0.5997101 -0.61204475 0.7604366 -0.42260787 0.19056374 -0.5823135
0.027943406 1.1474426 -0.044971883 -0.75916797 0.35861802 -0.017572507 -0.24904306 0.21085754
-0.6990894 -0.25227565 -0.59770745 -0.3066065 -0.5327422 -0.80045587 0.7771759 0.38274485
0.26706025 -0.103402466 -0.23651782 0.44950274 -1.2203671 -0.22774197 -0.12367035 -0.059149303
-0.87992257 -0.4253526 -0.03363867 0.5380789 1.0174922 -0.1276075 -0.09033559 0.30670753
-0.023629155 -1.1541436 0.48643678 -0.38249227 0.7277803 0.022342848 0.27569258 -0.059371714
0.064482465 -0.56362087 -0.62647605 -0.79803807 0.72390157 0.22040592 -0.1978617 0.17077476
00000000: 29bc 303f f220 2d40 cbcd a63d d079 86bf
00000010: 4f8d 90bf 423e b23e 627d 723f 788b 9a3d
00000020: 7fbd 093f a39a fe3f e5e1 f6be bc9e 273e
00000030: 7913 71bf fc7d 5b3f 1f98 e43f d118 cbbd
00000040: 0287 8fbf f73d 1cbf a8aa 2f3f ee91 9a3f
00000050: 1b7c 9d3f c6b9 1c3f 300e 87be 511b 14be
00000060: 9e82 8c3e 7be1 523f 2a85 bfbe e27a 5e3f
00000070: df39 07bf 47b7 94bf ab5e a83e d509 19bf
00000080: e3a2 883f 65f4 41bd ce7b ca3d 947c f93d
00000090: ad6c 603f cd82 3cbf c278 20c0 4908 103e
000000a0: 1c2d 8abf 9c2e c63d c03d 94be 8c80 293f
000000b0: 7204 db3f 7ec3 323f db19 adbe 75aa 693e
000000c0: 162e 61bf 7698 1f3f 3723 81be 2d10 65bf
000000d0: aec1 30bf 7664 873f edf2 e7be cb19 83be
000000e0: fb92 0a3f 3106 95bf 1dad eebd 645e cb3e
000000f0: e577 80bf c1d9 163f 2bd3 75be 3244 61be
00000100: 6565 dd3d a705 04bf f150 17bf 9c69 573f
00000110: 54f5 4cbf b8a5 f73d 8ae7 08be 6fe5 823c
00000120: c28c abbc e1a8 ef3d 9a86 19bf f7ae 1cbf
00000130: f9ab 423f 0f60 d8be 2423 433e 7f12 15bf
00000140: 92e9 e43c 66df 923f 7034 38bd d558 42bf
00000150: c89c b73e 38f4 8fbc 2505 7fbe 0aeb 573e
00000160: 86f7 32bf 462a 81be 5b03 19bf 87fb 9cbe
00000170: cb61 08bf adea 4cbf 00f5 463f 22f7 c33e
00000180: 1fbc 883e acc4 d3bd ba31 72be 3925 e63e
00000190: fd34 9cbf 3135 69be e146 fdbd 8a46 72bd
000001a0: 9b42 61bf d1c7 d9be b4c8 09bd 8abf 093f
000001b0: 2f3d 823f 8aab 02be de01 b9bd c508 9d3e
000001c0: ee91 c1bc faba 93bf 3e0e f93e 07d6 c3be
000001d0: cf4f 3a3f 5908 b73c 9427 8d3e c12f 73bd
000001e0: 620f 843d 7549 10bf bc60 20bf 394c 4cbf
000001f0: 9d51 393f 17b2 613e 429c 4abe 94df 2e3e

bias f4 [16]
-0.37139776 -0.06532841 -0.07408816 -0.37752455 -0.78244245 0.29688364 0.07746122 -0.5619438
-0.011449873 -0.49167198 0.045946006 -0.15440445 -0.17418209 -0.6497611 -0.043582246 -0.3887836
00000000: d927 bebe e7ca 85bd 89bb 97bd e64a c1be
00000010: 264e 48bf 2201 983e fda3 9e3d 8ddb 0fbf
00000020: 4098 3bbc 6ebc fbbe e131 3c3d 331c 1ebe
00000030: ca5c 32be be56 26bf 4c83 32bd a50e c7be

weight f4 [16, 8]
-0.25455672 -0.065886274 -0.111295156 -0.101081125 0.17821887 0.29139343 0.013049086 -0.03995791
0.09501092 -0.04639702 0.030695591 0.20327619 -0.13805525 0.14072984 0.043224417 0.010718744
0.28523418 -0.10095228 -0.21620658 -0.2529529 0.07447765 0.05460925 -0.19053516 -0.12853545
-0.2773245 0.010050211 -0.07783026 -0.15061383 0.24678573 0.10096484 -0.28254306 0.25302404
0.31199053 -0.18077748 0.27987012 -0.07908085 0.3124823 0.27196229 0.15417448 0.2997573
0.19382392 -0.055501077 0.19217364 0.3131108 0.18494163 -0.011909182 -0.2220038 0.20977843
-0.061226092 -0.2865848 0.24609402 -0.12828581 0.24501024 -0.063368924 -0.107671075 0.2813073
-0.26619467 -0.122085765 0.32909307 -0.26914144 -0.12791038 -0.21576661 0.24481389 -0.1278885
-0.17122865 -0.18897319 -0.042562038 -0.021777783 -0.12708656 -0.3502075 0.061525505 -0.21000248
0.253901 -0.057944372 0.22833148 -0.009229064 -0.1581313 0.25005287 -0.30167535 -0.28377047
0.04930945 -0.002502764 0.19256465 0.2567728 -0.17575674 0.05983474 -0.2608403 0.3044836
0.13116512 -0.3342728 0.22426106 -0.10271962 -0.1560029 -0.020036401 0.011126557 -0.17816842
0.052527785 -0.14600912 0.30721003 -0.1548865 0.059871875 0.2783273 0.22900873 -0.30549473
0.3066015 -0.019505098 -0.26612106 -0.34988004 0.20878212 -0.19402225 0.22924517 0.28651798
0.12854043 -0.21084918 0.33333936 0.008605333 -0.04097445 -0.07442506 -0.33366832 0.14462286
-0.27025148 0.26575875 -0.08142801 -0.18337895 0.12006229 -0.16794263 0.082649045 -0.15453841
00000000: 4255 82be 62ef 86bd b7ee e3bd 9f03 cfbd
00000010: 027f 363e 8531 953e d5cb 553c e8aa 23bd
00000020: 1695 c23d cd0a 3ebd 5275 fb3c a227 503e
00000030: 5b5e 0dbe 7c1b 103e 160c 313d ac9d 2f3c
00000040: 370a 923e 12c0 cebd 4265 5dbe 0b83 81be
00000050: bd87 983d f3ad 5f3d a61b 43be cc9e 03be
00000060: 7afd 8dbe a4a9 243c 7965 9fbd 833a 1abe
00000070: 66b5 7c3e a7c6 ce3d 7ca9 90be 5e8c 813e
00000080: 39bd 9f3e bb1d 39be 234b 8f3e 24f5 a1bd
00000090: aefd 9f3e a43e 8b3e eadf 1d3e ca79 993e
000000a0: c779 463e 1955 63bd 2bc9 443e 0f50 a03e
000000b0: 5761 3d3e bb1e 43bc f754 63be 28d0 563e
000000c0: 36c8 7abd 3ebb 92be 1200 7c3e 5b5d 03be
000000d0: f7e3 7a3e 91c7 81bd a782 dcbd 8307 903e
000000e0: ab4a 88be 1a08 fabd e37e a83e e8cc 89be
000000f0: f0fa 02be ecf1 5cbe 7eb0 7a3e 34f5 02be
00000100: 9056 2fbe 3082 41be 8855 2ebd 5267 b2bc
00000110: fb22 02be 664e b3be 2b02 7c3d e40a 57be
00000120: 50ff 813e 1457 6dbd bacf 693e 8035 17bc
00000130: 2ced 21be ee06 803e 3175 9abe 5d4a 91be
00000140: b5f8 493d 6a05 24bb ab2f 453e b977 833e
00000150: 93f9 33be 4615 753d dc8c 85be 46e5 9b3e
00000160: 2650 063e ce25 abbe b1a4 653e aa5e d2bd
00000170: 39bf 1fbe 6123 a4bc 2a4c 363c c871 36be
00000180: 6027 573d 6a83 15be a24a 9d3e 919a 1ebe
00000190: 363c 753d ea80 8e3e 4481 6a3e ce69 9cbe
000001a0: dffa 9c3e 28c9 9fbc 0541 88be 7a23 b3be
000001b0: fbca 553e c5ad 46be 3fbf 6a3e 7cb2 923e
000001c0: 1aa0 033e d9e8 57be 75ab aa3e 62fd 0c3c
000001d0: d3d4 27bd 2a6c 98bd 93d6 aabe 0418 143e
000001e0: 675e 8abe 8811 883e bac3 a6bd b1c7 3bbe
000001f0: 38e3 f53d 27f9 2bbe e743 a93d 513f 1ebe

bias f4 [16]
-0.13864923 -0.33551115 0.28098196 0.10276868 -0.22924463 -0.226092 0.19390757 0.31627193
-0.1529147 0.1348102 0.22558771 -0.14704807 0.30943486 0.16720459 -0.3487198 0.30437312
00000000: 10fa 0dbe 1ec8 abbe dedc 8f3e 6378 d23d
00000010: 1bbf 6abe a984 67be b58f 463e 65ee a13e
00000020: ac95 1cbe af0b 0a3e 7700 673e c593 16be
00000030: 3f6e 9e3e ae37 2b3e 678b b2be cbd6 9b3e

in_proj_weight f4 [48, 16]
-0.13526702 0.035598367 0.2297598 -0.15695883 -0.20749746 0.08498563 -0.0644477 -0.39178926
-0.93105793 0.2103594 1.0683753 -0.26174894 0.041521814 0.30377242 0.9436953 0.04072123
-0.09853422 -0.26722363 -0.12153167 0.16923265 -0.24069451 0.027172238 0.41120133 -0.066753946
0.001596864 0.11008403 -0.23530287 -0.31927115 -0.12585369 -0.2850498 -1.1525251 -0.16332479
0.08941975 -0.0956012 0.14601961 -0.12809177 -0.4232563 -0.11336285 -0.23153448 -0.2619061
-0.117361836 -0.57581794 -1.1137344 0.043510392 0.3922559 -0.50176084 -0.97202235 -0.28979135
-0.0066343835 -0.1924838 0.038830042 0.11306587 0.0016511213 -0.2344397 -0.5721843 -0.43892938
-0.7545393 0.49265707 0.7850094 -0.15516718 0.040044066 0.40033045 1.2548244 -0.088024974
0.3424853 -0.022277256 -0.34391105 -0.17571855 -0.0341852 -0.3817143 -0.21845342 -0.050770525
-0.5387868 -0.69052815 -0.20015919 -0.6495767 0.9323616 -1.1848004 1.1100926 -0.2081865
-0.023090078 0.034751732 -0.05838923 0.026724543 -0.86646837 0.072080836 -0.80897295 -1.021124
-0.16931847 -0.41088566 -0.41354844 -0.68322206 1.1978152 -0.1704351 0.5803645 -0.34470135
0.0017563817 0.09357174 0.011619363 -0.17290562 -0.3713008 0.18480316 0.17214483 0.10799186
0.2754333 0.42702457 0.52261835 -0.013956181 -0.79407877 0.050939105 -1.3378338 0.87098676
-0.25032404 0.05232185 0.23333156 -0.056879178 -0.27717635 0.1302437 0.2689124 0.38134408
-0.7021243 -0.45288783 -0.34790865 -0.5648692 0.018301524 -0.44998303 1.888621 -0.41110963
0.12022671 0.027188959 -0.058593992 0.2764177 0.002136473 -0.11350698 -0.122665115 -0.004628528
-0.056706734 0.08187153 0.3663442 1.0063317 -0.053624887 0.12869012 -0.41447243 -0.22724658
-0.025382988 -0.039670594 -0.36472195 0.06296388 0.066912055 -0.42421865 -0.628831 -0.30254045
0.11389404 0.1949983 -0.021071285 0.27371696 1.080546 -0.56935686 0.29089272 -0.17113061
0.027683599 -0.04682627 -0.13326098 0.06995052 -0.45311102 -0.11350431 0.086457774 0.08799564
-0.44567788 0.4671606 0.6944045 -0.30254 -0.16322961 0.11137857 0.5272884 0.2248779
0.101391114 0.11222623 0.10423666 0.112639755 -0.25838912 0.21400122 0.018658182 -0.42534605
-0.13911168 0.21288553 0.026995402 -0.04230502 0.2910174 -0.3246134 0.9124522 -0.14843144
-0.22762349 0.0961548 -0.03981238 -0.08473049 -0.4466391 0.10751049 0.06831415 -0.6180659
-0.90280426 0.13724153 -0.17002738 -1.0429977 -0.73078597 -0.19051737 1.0500973 -0.16570807
0.056778602 0.14639471 0.03841417 0.14984997 -0.40303284 -0.03357567 -0.0037421598 -0.008937268
-0.22126147 -0.18717703 -1.2830309 0.33355612 0.1515339 -0.30918697 -1.0215315 -0.54685676
-0.17113975 -0.04661445 -0.1741475 -0.13330485 0.051971328 -0.109159924 -0.3267234 0.3452336
1.0007818 0.74565303 0.22030772 1.0791817 0.46713465 0.48292497 0.52136123 0.2592362
-0.021120638 0.11850948 0.32339785 0.11961413 0.091352515 0.18659909 0.085174285 0.035872493
0.45222437 0.29476494 1.072134 -0.0748621 -0.16760117 0.35237968 1.2443026 0.32893366
00000000: 7083 0abe 98cf 113d 2746 6b3e d1b9 20be
00000010: 377a 54be f20c ae3d 28fd 83bd 9a98 c8be
00000020: d059 6ebf 7468 573e 86c0 883f f503 86be
00000030: c712 2a3d 0f88 9b3e 0496 713f 4ecb 263d
00000040: 4fcc c9bd 89d1 88be 99e5 f8bd 534b 2d3e
00000050: 9f78 76be 5098 de3c fb88 d23e 4bb6 88bd
00000060: dd4d d13a bc73 e13d 3cf3 70be 8277 a3be
00000070: cadf 00be 0cf2 91be f185 93bf 9d3e 27be
00000080: b421 b73d 90ca c3bd 2a86 153e 7d2a 03be
00000090: 0db5 d8be c82a e8bd 6017 6dbe 8e18 86be
000000a0: 675b f0bd ce68 13bf d98e 8ebf f437 323d
000000b0: c4d5 c83e 6673 00bf 75d6 78bf 885f 94be
000000c0: 3e65 d9bb 791a 45be 400c 1f3d 148f e73d
000000d0: 706a d83a f610 70be ac7a 12bf 5abb e0be
000000e0: 7d29 41bf 8c3d fc3e 60f6 483f 25e4 1ebe
000000f0: 3f05 243d 1df8 cc3e 169e a03f 7046 b4bd
00000100: 3c5a af3e cb7e b6bc 1c15 b0be 90ef 33be
00000110: c805 0cbd 0f70 c3be 41b2 5fbe c1f4 4fbd
00000120: efed 09bf 74c6 30bf 88f6 4cbe a94a 26bf
00000130: 40af 6e3f 8aa7 97bf 8417 8e3f d82e 55be
00000140: 6727 bdbc d557 0e3d 8c29 6fbd 6eed da3c
00000150: dfd0 5dbf 1e9f 933d da18 4fbf 31b4 82bf
00000160: d261 2dbe 9b5f d2be 9fbc d3be a4e7 2ebf
00000170: 0252 993f 8a86 2ebe c592 143f b27c b0be
00000180: 6436 e63a 8aa2 bf3d 245f 3e3c 2c0e 31be
00000190: 231b bebe 0a3d 3d3e bc46 303e d62a dd3d
000001a0: 9805 8d3e f7a2 da3e 51ca 053f 77a8 64bc
000001b0: bf48 4bbf 86a5 503d 233e abbf fdf8 5e3f
000001c0: 792a 80be 704f 563d 78ee 6e3e 24fa 68bd
000001d0: 0fea 8dbe 9b5e 053e e3ae 893e 883f c33e
000001e0: 6bbe 33bf eae0 e7be 1521 b2be 459b 10bf
000001f0: 14ed 953c 2d64 e6be 55be f13f f67c d2be
00000200: 6c39 f63d 61bb de3c 4100 70bd 9f86 8d3e
00000210: 1204 0c3b 5976 e8bd d937 fbbd e8aa 97bb
00000220: 5245 68bd 43ac a73d 7891 bb3e 7acf 803f
00000230: c5a5 5bbd 58c7 033e bb35 d4be 54b3 68be
00000240: fcef cfbc a27d 22bd d6bc babe 35f3 803d
00000250: 3009 893d 3033 d9be 12fb 20bf 95e6 9abe
00000260: 4741 e93d a2ad 473e b09d acbc a124 8c3e
00000270: 554f 8a3f 5fc1 11bf e4ef 943e dd3c 2fbe
00000280: b7c8 e23c e7cc 3fbd 9175 08be 3842 8f3d
00000290: 2bfe e7be f374 e8bd c610 b13d 0f37 b43d
000002a0: e42f e4be ad2f ef3e 7ec4 313f 86e6 9abe
000002b0: aa25 27be 731a e43d 5ffc 063f 6446 663e
000002c0: 25a6 cf3d ded6 e53d 087a d53d acaf e63d
000002d0: 944b 84be 2323 5b3e 0bd9 983c f5c6 d9be
000002e0: 4b73 0ebe aafe 593e 7625 dd3c 0748 2dbd
000002f0: 3c00 953e ba33 a6be 7896 693f 69fe 17be
00000300: 2216 69be cfec c43d 4e12 23bd 2e87 adbd
00000310: e1ad e4be 762e dc3d 4ae8 8b3d 9139 1ebf
00000320: 2e1e 67bf 0b89 0c3e a81b 2ebe f380 85bf
00000330: ca14 3bbf fc16 43be 9769 863f 60af 29be
00000340: ae90 683d 7fe8 153e 2d58 1d3d 4572 193e
00000350: 525a cebe a486 09bd 063f 75bb 9e6d 12bc
00000360: 5e92 62be 56ab 3fbe 5b3a a4bf dec7 aa3e
00000370: b42b 1b3e c14d 9ebe 8bc1 82bf cefe 0bbf
00000380: 423f 2fbe cbee 3ebd b953 32be 1181 08be
00000390: e3df 543d 3d8f dfbd 4a48 a7be 75c2 b03e
000003a0: 9e19 803f 1ee3 3e3f 5998 613e a022 8a3f
000003b0: 462c ef3e f141 f73e ee77 053f 9bba 843e
000003c0: 3005 adbc 19b5 f23d 6794 a53e 41f8 f43d
000003d0: 0717 bb3d d513 3f3e db6f ae3d 09ef 123d
000003e0: f489 e73e 6eeb 963e b03b 893f 4d51 99bd
000003f0: a49f 2bbe 1c6b b43e 4f45 9f3f fe69 a83e

in_proj_bias f4 [48]
-0.08583703 0.16096918 -0.10230384 -0.06839057 -0.15854691 -0.4965685 0.32590646 -0.10171075
0.4300851 -0.6071582 0.29020926 -0.17973225 -0.48301488 -0.2584126 0.5496131 0.290654
0.00034538124 -0.00058945327 -0.003982259 -0.0022755638 -0.0061481586 -0.00914768 0.004443557 -0.003639409
-0.0043486664 -0.013814305 -0.0034276573 -0.0017655152 -0.0093913935 -0.0034488582 0.0035220198 -0.005378395
0.0116722165 0.007947606 -0.014662674 0.057140537 0.11369176 0.04387314 0.05759067 -0.008321943
0.03278415 -0.011740794 -0.012430718 0.017626196 -0.021075452 0.009351475 0.043734156 -0.017445337
00000000: 53cb afbd 1bd5 243e ad84 d1bd 5b10 8cbd
00000010: 1f5a 22be 3a3e febe 36dd a63e ba4d d0bd
00000020: 1d34 dc3e b86e 1bbf 4f96 943e bb0b 38be
00000030: ba4d f7be a84e 84be 72b3 0c3f 9ad0 943e
00000040: 4914 b539 8a85 1aba 9c7d 82bb a021 15bb
00000050: 7e76 c9bb 27e0 15bc 429b 913b 2783 6ebb
00000060: 427f 8ebb 6555 62bc 8ca2 60bb dc68 e7ba
00000070: 5cde 19bc 3d06 62bb b0d1 663b 3f3d b0bb
00000080: d33c 3f3c ad36 023c b63b 70bc 320c 6a3d
00000090: 3ad7 e83d 52b4 333d 32e4 6b3d c258 08bc
000000a0: ac48 063d 765c 40bc 36aa 4bbc d064 903c
000000b0: 6da6 acbc ee36 193c 9622 333d 86e9 8ebc

weight f4 [16, 16]
0.20861304 0.10314826 -0.51939416 0.4066868 0.44249088 -0.038788605 0.11029441 0.05430374
0.6145668 0.14263391 -0.2109431 0.6473843 -0.33635026 0.06293508 -0.7249722 -0.03219858
0.12887232 0.63588506 -0.4258966 0.043568358 0.25289822 -0.15436251 0.42727444 0.41303933
0.6034494 0.64997625 0.39072627 0.066661924 0.38159552 -0.05594836 -0.115446515 0.0406089
-0.44459602 -0.09609196 -0.24620162 0.55060124 0.03988563 0.0009982897 0.5595238 -0.15031175
0.20376734 -0.16849892 1.0188572 -0.66296506 0.055635896 0.17450154 -0.46684396 -0.37838596
0.10813782 0.45941153 -0.65565306 0.16263324 0.3339153 -0.7808116 0.046716273 0.47456634
0.47565693 -0.53631186 0.49649227 -0.06810989 0.32122985 0.074244775 -0.21352424 -0.4461634
0.2822648 -0.086432494 -0.167645 0.3455153 0.17536831 -0.1805514 -0.41473782 0.4286499
0.0882826 0.40761003 -0.14519683 -0.059486322 -0.3443592 -0.1117644 0.36059237 0.37158942
-0.009053264 0.026563436 0.32918105 0.38151792 0.10418577 0.23657651 0.074269466 0.33739933
-0.5508841 0.31386074 0.30593908 0.31596944 -0.22194459 0.080376275 0.2414937 0.1301402
-0.019456055 -0.12302299 -0.18767264 -0.243472 -0.13251169 -0.38288268 0.11082473 0.30861098
0.10934803 0.07260657 -0.06452508 -0.051062033 -0.13109241 0.035374634 0.027867904 0.18658663
0.13320601 -0.15629263 -0.060168475 -0.0754997 0.145696 0.295594 0.17158547 0.117262974
-0.22387621 -0.12228702 0.08390597 -0.0126756355 -0.32727674 -0.20594178 0.15415055 -0.039356135
-0.13026382 0.05859983 -0.07932905 -0.04554304 0.11655501 0.15642491 -0.01652015 -0.0034171422
-0.12815261 -0.23868035 -0.12356808 -0.0016687337 0.16400297 -0.08743699 -0.18701687 0.0055439007
0.04823248 0.18462545 0.36510494 0.060496006 -0.04093983 0.22634755 -0.072387375 0.3168796
0.3019916 -0.04853762 -0.17527 0.02560983 0.21395269 0.040728543 -0.115863755 0.01587384
0.10774378 0.042147845 0.08504547 0.08281069 0.027370373 -0.22926685 -0.035722647 -0.16432206
0.035275746 -0.05831428 -0.03607153 -0.1025638 -0.1273908 -0.13751924 -0.02276192 0.11543364
-0.15708327 -0.30883634 0.012077195 -0.104563385 0.08362988 0.086807646 0.014514201 -0.19124983
0.12841633 0.13335522 0.021976372 0.4453003 0.28416324 -0.009719543 0.103303775 -0.19531734
-0.03377175 0.10172895 -0.04417639 0.0025193589 -0.17270565 -0.010471355 0.13482201 -0.108448006
-0.065077364 -0.07000438 0.01473832 0.014411585 -0.1531451 -0.104023255 0.023635264 -0.21976842
-0.11792447 0.09198901 0.013819057 0.15711167 -0.15673868 -0.14840776 0.12845325 -0.2287193
0.107433565 0.08297937 0.00082057226 0.11083196 -0.1072604 0.031217884 0.22850445 -0.1440507
0.113766335 -0.13435532 -0.0051437602 -0.18069439 0.028773978 0.021922085 0.061456613 0.032128934
-0.20343497 0.051544793 0.15846519 -0.004943559 0.19356371 0.12972584 -0.17591049 -0.121920526
0.123416126 -0.293084 -0.13386981 -0.100544065 0.006999264 0.032615554 -0.12218278 -0.18314931
-0.043247025 0.0428454 -0.04595591 0.06299362 -0.059582 0.0106340395 0.15689833 0.2985085
00000000: a89e 553e 653f d33d 04f7 04bf 4139 d03e
00000010: 2a8e e23e cde0 1ebd 09e2 e13d 996d 5e3d
00000020: 4054 1d3f a00e 123e 7801 58be faba 253f
00000030: 1a36 acbe 1be4 803d c797 39bf a9e2 03bd
00000040: 1bf7 033e 5dc9 223f 1f0f dabe bc74 323d
00000050: e07b 813e 3511 1ebe b7c3 da3e e479 d33e
00000060: a97b 1a3f d864 263f 460d c83e 0c86 883d
00000070: 7d60 c33e 1c2a 65bd 396f ecbd 8555 263d
00000080: 17a2 e3be ddcb c4bd 471c 7cbe 34f4 0c3f
00000090: 1d5f 233d 0bd9 823a f43c 0f3f 53eb 19be
000000a0: 63a8 503e fb8a 2cbe ea69 823f 14b8 29bf
000000b0: 77e2 633d 88b0 323e 2c06 efbe cebb c1be
000000c0: 5d77 dd3d fd37 eb3e e1d8 27bf 5489 263e
000000d0: f2f6 aa3e 45e3 47bf 9059 3f3d 5cfa f23e
000000e0: 4e89 f33e bc4b 09bf 3c34 fe3e 337d 8bbd
000000f0: 3d78 a43e a50d 983d 19a6 5abe 876f e4be
00000100: 0385 903e 8503 b1bd 22ab 2bbe 62e7 b03e
00000110: c093 333e 77e2 38be 8458 d4be 0078 db3e
00000120: 82cd b43d 43b2 d03e 7aae 14be eea7 73bd
00000130: d94f b0be bce4 e4bd 909f b83e f840 be3e
00000140: 2454 14bc 909b d93c 6b8a a83e 5156 c33e
00000150: 595f d53d 1d41 723e 971a 983d 9bbf ac3e
00000160: be06 0dbf 5bb2 a03e 0ca4 9c3e bfc6 a13e
00000170: 7145 63be 519c a43d 204a 773e 7943 053e
00000180: 4e62 9fbc 7af3 fbbd 422d 40be b950 79be
00000190: 25b1 07be 3309 c4be 13f8 e23d 4202 9e3e
000001a0: dcf1 df3d c1b2 943d ba25 84bd 6c26 51bd
000001b0: 173d 06be fee4 103d 3b4b e43c 9110 3f3e
000001c0: 2867 083e 2d0b 20be 3873 76bd 969f 9abd
000001d0: 5531 153e 1958 973e 1ab4 2f3e 9227 f03d
000001e0: ce3f 65be 9e71 fabd e5d6 ab3d 78ad 4fbc
000001f0: d190 a7be 67e2 52be a4d9 1d3e e633 21bd
00000200: e163 05be 6006 703d 4577 a2bd 578b 3abd
00000210: 65b4 ee3d da2d 203e 4455 87bc 22f2 5fbb
00000220: 703a 03be 9f68 74be 4311 fdbd 69b9 daba
00000230: 65f0 273e 2a12 b3bd 5a81 3fbe 9ca9 b53b
00000240: 6c8f 453d 740e 3d3e 09ef ba3e a9ca 773d
00000250: 86b0 27bd a7c7 673e d53f 94bd 0b3e a23e
00000260: a59e 9a3e 62cf 46bd fb79 33be b5cb d13c
00000270: 6a16 5b3e f9d2 263d fa49 edbd db09 823c
00000280: c5a8 dc3d 38a3 2c3d 522c ae3d a798 a93d
00000290: d537 e03c eec4 6abe e951 12bd 0b44 28be
000002a0: 4d7d 103d f4da 6ebd bebf 13bd f80c d2bd
000002b0: bc72 02be d8d1 0cbe 3577 babc 7968 ec3d
000002c0: 70da 20be cc1f 9ebe 6ddf 453c 5425 d6bd
000002d0: 2446 ab3d 35c8 b13d f9cc 6d3c ffd6 43be
000002e0: 927f 033e 458e 083e cb07 b43c 67fe e33e
000002f0: d87d 913e b83e 1fbc ee90 d33d 4501 48be
00000300: 3f54 0abd 4557 d03d 4df2 34bd d41b 253b
00000310: c0d9 30be 0c90 2bbc c80e 0a3e fd19 debd
00000320: 4847 85bd 755e 8fbd ff78 713c 921e 6c3c
00000330: 12d2 1cbe 250a d5bd be9e c13c f90a 61be
00000340: 6282 f1bd bc64 bc3d 5369 623c e2e1 203e
00000350: 1b80 20be 34f8 17be 4089 033e 6435 6abe
00000360: 2106 dc3d 17f1 a93d ac1b 573a defb e23d
00000370: 57ab dbbd a6bc ff3c 12fd 693e 0782 13be
00000380: 53fe e83d 7194 09be fd8c a8bb f307 39be
00000390: 68b7 eb3c f295 b33c eeb9 7b3d a199 033d
000003a0: 4251 50be a220 533d b344 223e 94fd a1bb
000003b0: 9135 463e dad6 043e e121 34be 78b1 f9bd
000003c0: 98c1 fc3d 1b0f 96be 2b15 09be 0cea cdbd
000003d0: 155a e53b e397 053d f73a fabd 7e8b 3bbe
000003e0: cb23 31bd a87e 2f3d 443c 3cbd cd02 813d
000003f0: 410c 74bd 653a 2e3c f5a9 203e 1bd6 983e

bias f4 [16]
0.10195005 0.08946716 0.27351806 -0.17045969 0.10102172 -0.03210655 -0.023075353 0.14546068
0.011371917 0.034896333 0.036700796 0.100343615 -0.09039088 0.0064506438 -0.041267138 -0.011292988
00000000: 30cb d03d 8f3a b73d 8f0a 8c3e fc8c 2ebe
00000010: 7ae4 ce3d 2882 03bd 8608 bdbc a5f3 143e
00000020: 4751 3a3c 75ef 0e3d 9353 163d f480 cd3d
00000030: db1e b9bd ec5f d33b bb07 29bd 3a06 39bc

weight f4 [64, 16]
0.34089756 0.13294463 -0.12767528 -0.16804819 -0.08640137 -0.40187696 -0.32527715 -0.09103395
-0.15254447 0.19608742 0.20079677 0.13073811 0.28296235 -0.23737039 -0.16762587 -0.122688614
-0.04559148 0.1274092 0.02761348 0.14041032 -0.20201945 0.013692998 -0.080762416 -0.38533184
-0.08650318 -0.043519262 -0.19309142 0.30099678 0.3314487 -0.03388884 0.13402897 -0.21456625
-0.1546666 -0.043215398 0.15910402 -0.048559096 -0.02533074 -0.046580166 -0.12931906 0.1633321
-0.33691937 -0.15017219 0.4296463 0.13527915 0.10851743 -0.4350984 0.41703582 0.1450257
0.054577444 -0.21669576 -0.24232414 -0.13031644 -0.26483992 -0.04042974 0.3025302 0.1125611
0.10282342 -0.18172787 0.32113847 0.33272249 0.12328614 -0.3291796 -0.42359003 0.44786307
0.31602293 0.113322176 -0.18705484 -0.35646108 -0.33197945 -0.2020273 -0.017224824 0.1421314
0.17341252 -0.11500011 0.029602002 -0.44113898 0.03400762 -0.38583967 0.16025141 0.17690207
-0.23873168 -0.33005816 -0.20162706 0.308986 -0.07120069 0.29700932 -0.27858818 0.038647093
-0.41311193 -0.047237348 -0.20239136 -0.093628794 -0.04526801 -0.1867893 -0.18699415 0.13633549
0.10944533 -0.07751385 -0.089614704 0.061825126 0.10683593 0.031170284 0.22383301 -0.12532449
-0.07741828 -0.16167487 0.32139683 -0.159843 0.18960942 -0.14787327 -0.37863022 0.39339113
-0.022564827 0.035484884 0.011195802 -0.21995622 0.050493654 0.086115666 0.13805275 0.10389028
0.05808006 -0.2589315 0.31441388 -0.15497285 -0.05819349 -0.25625843 -0.008231511 0.5170935
-0.27374384 -0.29214588 0.12159648 0.12892117 0.25102493 0.38968495 0.17147514 0.05147926
-0.021504894 0.08408561 0.008049451 0.11822282 -0.053989086 0.30143738 0.25980616 -0.09325135
-0.16280971 -0.1971865 -0.05099898 -0.20724078 -0.26366365 0.043243084 0.23031873 -0.19614694
-0.2528244 -0.05110042 -0.016944002 0.09645722 0.18656978 0.15197447 -0.25526336 0.10280354
0.26339766 0.034727957 -0.12242029 -0.006003953 -0.32162824 -0.15929459 -0.30509403 0.089300804
0.28823057 0.17622168 -0.12542282 0.22945236 -0.037123535 -0.13070536 -0.009045242 -0.09431697
0.010812954 -0.18853699 -0.10701405 -0.07983833 0.17462893 0.0064676637 0.24510153 -0.19866769
-0.29013175 -0.37347123 0.27192995 -0.19478714 -0.20187424 0.1340878 -0.019231226 0.12897916
-0.13024266 -0.07345952 0.049527105 -0.13814238 0.032848913 0.11587569 -0.07381313 -0.08824013
0.66916126 -0.21843834 -0.1327225 -0.2596428 0.116288856 0.03668629 -0.4834542 0.004535402
0.024687989 0.13655162 -0.26390404 -0.06392151 0.0459874 0.20729958 0.14837877 0.10571109
0.21502833 0.041457012 0.2083527 0.10080224 0.008512165 0.1241458 0.28111675 -0.35881764
0.197959 0.11608086 -0.03752791 -0.273513 -0.088175565 0.017177783 0.29383665 0.091459
0.18289618 -0.51620823 0.06287859 -0.38659245 0.15166295 -0.1718025 -0.036930088 -0.03246612
-0.077871464 -0.098102 -0.09959331 -0.008484939 -0.08139427 -0.25928605 -0.28994635 -0.049629897
-0.21641453 -0.07240735 0.1378546 -0.19881159 0.045406796 -0.16928647 0.57766086 -0.20496146
00000000: 208a ae3e a322 083e 4fbd 02be d314 2cbe
00000010: 34f3 b0bd d1c2 cdbe ba8a a6be 0270 babd
00000020: 9e34 1cbe 24cb 483e ab9d 4d3e 36e0 053e
00000030: 71e0 903e 3911 73be 1ea6 2bbe 2b44 fbbd
00000040: 22be 3abd 8f77 023e aa35 e23c b9c7 0f3e
00000050: 30de 4ebe 9958 603c c466 a5bd 374a c5be
00000060: 9428 b1bd 4141 32bd c2b9 45be 401c 9a3e
00000070: a5b3 a93e 06cf 0abd e43e 093e 41b7 5bbe
00000080: ec60 1ebe a102 31bd 2aec 223e e7e5 46bd
00000090: 6982 cfbc d8ca 3ebd 376c 04be 8840 273e
000000a0: b280 acbe bdc6 19be 9afa db3e 9e86 0a3e
000000b0: 633e de3d 38c5 debe b885 d53e 9e81 143e
000000c0: 998c 5f3d 7ee5 5dbe d223 78be ac71 05be
000000d0: 1999 87be a899 25bd 3de5 9a3e 6f86 e63d
000000e0: 1695 d23d df16 3abe 436c a43e 9a5a aa3e
000000f0: 727d fc3d 3b8a a8be cbe0 d8be 4f4e e53e
00000100: c2cd a13e 7515 e83d 4e8b 3fbe 1182 b6be
00000110: 36f9 a9be 3fe0 4ebe 131b 8dbc e58a 113e
00000120: 0d93 313e 2d85 ebbd e67f f23c f8dc e1be
00000130: 934b 0b3d c78c c5be f218 243e d125 353e
00000140: 1476 74be 62fd a8be 5377 4ebe 6a33 9e3e
00000150: abd1 91bd 9b11 983e 1ca3 8ebe 6a4c 1e3d
00000160: 6883 d3be f37b 41bd ae3f 4fbe 74c0 bfbd
00000170: f36a 39bd b245 3fbe 657b 3fbe 889b 0b3e
00000180: e024 e03d 95bf 9ebd ea87 b7bd 583c 7d3d
00000190: cccc da3d d358 ff3c 7b34 653e 1055 00be
000001a0: 7a8d 9ebd 198e 25be 208e a43e e2ad 23be
000001b0: f928 423e 176c 17be d2db c1be 906a c93e
000001c0: dfd9 b8bc 9958 113d 996e 373c 343c 61be
000001d0: 6fd2 4e3d 695d b03d b35d 0d3e 6dc4 d43d
000001e0: 5be5 6d3d ab92 84be dbfa a03e 34b1 1ebe
000001f0: 4c5c 6ebd 4e34 83be 76dd 06bc 3d60 043f
00000200: 2728 8cbe 2594 95be 9307 f93d e903 043e
00000210: 5786 803e c984 c73e 2e97 2f3e ebdb 523d
00000220: 082b b0bc 1435 ac3d d8e1 033c ce1e f23d
00000230: a923 5dbd 0056 9a3e 5005 853e 90fa bebd
00000240: 97b7 26be 42eb 49be 4ee4 50bd ed36 54be
00000250: ecfe 86be a91f 313d acd8 6b3e beda 48be
00000260: 3372 81be ad4e 51bd 26ce 8abc 5d8b c53d
00000270: 260c 3f3e 329f 1b3e e1b1 82be aa8a d23d
00000280: 0fdc 863e e73e 0e3d 7db7 fabd cfbc c4bb
00000290: 75ac a4be 1f1e 23be 4935 9cbe 57e3 b63d
000002a0: f592 933e 7573 343e d76e 00be 8ff5 6a3e
000002b0: d90e 18bd a0d7 05be 7f32 14bc 4129 c1bd
000002c0: d128 313c d70f 41be 2f2a dbbd 4782 a3bd
000002d0: edd1 323e b2ee d33b e5fb 7a3e 8b6f 4bbe
000002e0: 268c 94be 9f37 bfbe 673a 8b3e 4876 47be
000002f0: 1fb8 4ebe 504e 093e ce8a 9dbc 1d13 043e
00000300: 555e 05be f271 96bd efdc 4a3d 3275 0dbe
00000310: 958c 063d 3c50 ed3d 572b 97bd 3eb7 b4bd
00000320: 274e 2b3f 4dae 5fbe 68e8 07be e7ef 84be
00000330: da28 ee3d 5d44 163d 4f87 f7be b69d 943b
00000340: 773e ca3c 30d4 0b3e 6e1e 87be 48e9 82bd
00000350: 495d 3c3d 5746 543e 9bf0 173e 0e7f d83d
00000360: 6330 5c3e d4ce 293d 695a 553e 6871 ce3d
00000370: 9c76 0b3c 2740 fe3d 89ee 8f3e f2b6 b7be
00000380: c4b5 4a3e cdbb ed3d deb6 19bd e509 8cbe
00000390: 6495 b4bd 6cb8 8c3c c271 963e db4e bb3d
000003a0: 2349 3b3e 3926 04bf 7dc6 803d 72ef c5be
000003b0: 884d 1b3e ffec 2fbe 0144 17bd 32fb 04bd
000003c0: 137b 9fbd b4e9 c8bd 94f7 cbbd 6a04 0bbc
000003d0: 0ab2 a6bd 24c1 84be d973 94be b848 4bbd
000003e0: c59b 5dbe 4e4a 94bd c229 0d3e 4495 4bbe
000003f0: 7afc 393d 6f59 2dbe 95e1 133f 6be1 51be

bias f4 [64]
-0.02078525 0.026868824 -0.07215371 -0.27417994 -0.15800361 -0.16223201 0.09352883 -0.27566922
-0.2624517 0.15618391 -0.12609895 -0.21428756 -0.1808789 0.0888516 -0.13544452 -0.041506246
0.021621317 -0.18553582 -0.19713527 -0.029281186 -0.19125238 -0.37341267 -0.16187993 -0.16236834
0.04863258 0.09118662 0.049128182 -0.13956077 -0.060052946 0.05065389 0.17565063 -0.037286513
0.28362375 -0.26065707 0.00811458 -0.03862041 0.09378195 -0.16843843 0.13672282 -0.0097890375
-0.20877112 -0.20912194 -0.30952263 -0.11510439 -0.26512983 -0.19311525 -0.29571372 -0.22076295
0.14379463 -0.1035389 -0.24054796 -0.20169887 0.18496035 -0.041722927 -0.033226203 -0.042393617
-0.25316063 -0.24984959 -0.1547719 0.11172679 -0.38229245 0.016572861 0.02736651 -0.3981883
00000000: d445 aabc 021c dc3c 53c5 93bd 5061 8cbe
00000010: b3cb 21be 2620 26be 0b8c bf3d 8424 8dbe
00000020: 1260 86be adee 1f3e 1520 01be 336e 5bbe
00000030: 5238 39be d4f7 b53d f8b1 0abe 7402 2abd
00000040: 301f b13c 1afd 3dbe d4dd 49be 19df efbc
00000050: aad7 43be f22f bfbe dac3 25be e343 26be
00000060: f532 473d 0dc0 ba3d a23a 493d 05e9 0ebe
00000070: 14fa 75bd 747a 4f3d c2dd 333e beb9 18bd
00000080: 2237 913e d874 85be 04f3 043c 6f30 1ebd
00000090: c010 c03d 207b 2cbe 1101 0c3e 3362 20bc
000000a0: 19c8 55be 1024 56be c079 9ebe dabb ebbd
000000b0: 19bf 87be 01c0 45be ca67 97be af0f 62be
000000c0: e63e 133e 340c d4bd 3452 76be 268a 4ebe
000000d0: 3f66 3d3e a9e5 2abd 3318 08bd eea4 2dbd
000000e0: 459e 81be 92d8 7fbe 867c 1ebe 04d1 e43d
000000f0: d6bb c3be cfc3 873c bb2f e03c 56df cbbe

weight f4 [16, 64]
-0.22150826 -0.22911258 0.46541455 0.17406379 -0.5117036 -0.15617228 -0.02566539 -0.008014246
0.12829542 0.16154039 -0.16407256 -0.19604136 -0.05310573 0.1446483 -0.34025788 0.38092765
0.19129215 0.03612767 0.30439582 -0.055023804 -0.38288316 -0.3421551 0.4170257 0.37780184
-0.089509495 0.010342426 -0.11320492 0.31438833 0.054916035 0.0898275 -0.114419356 -0.37989828
0.20857847 -0.21273492 -0.26009208 -0.18247037 0.21859823 0.015914978 0.21976295 0.21680057
0.010286021 0.25289312 -0.11151644 0.3407531 -0.09488221 0.30775383 -0.65499055 0.07293329
0.0019869853 0.15147762 0.37993827 -0.13348672 0.21747401 0.19446518 -0.3544299 -0.21452583
0.048218053 0.16170542 -0.438356 -0.24534395 -0.5508467 -0.18531154 0.06962747 0.2627099
-0.36388278 -0.46128023 -0.2951956 0.31807 0.06588615 -0.22713752 -0.048904434 -0.2869624
0.118333414 0.58072567 0.17874978 -0.050746195 -0.12153452 -0.066712946 0.2438397 0.012005236
-0.049582727 -0.3230008 -0.22747147 0.12295402 0.090474516 0.15260401 0.034178652 0.6303723
0.04911759 -0.29550886 -0.0386507 0.06541014 -0.08426853 -0.033666432 0.097287685 0.31841555
0.16983686 0.005904124 0.27663025 0.039803892 -0.03472138 0.04658524 0.039996717 -0.14547081
0.10699009 -0.03202073 0.25791112 0.18141119 0.19421859 0.022201857 0.29161003 -0.07175585
0.27416852 -0.038454834 -0.19956546 -0.027408248 0.1096423 0.14297067 0.25331318 -0.39475363
-0.044175755 0.4922805 0.12171298 0.11749331 -0.25509018 0.30930862 0.0048355316 -0.26671502
-0.33899343 -0.09288136 -0.105605915 -0.2857595 -0.044132862 -0.19770087 0.07236859 0.0013802776
-0.095022134 -0.02714413 -0.037997622 0.31586426 -0.004351598 0.58751565 -0.03707618 0.112270646
-0.09606893 0.23913065 0.020166552 -0.23938556 0.22447594 0.062001232 -0.15307985 -0.35087964
0.11937001 -0.1308969 0.27522627 -0.24559036 -0.1965141 -0.13599755 -0.05605832 -0.25730056
0.44301313 0.2332284 0.025213124 -0.17741777 -0.28146684 0.19910978 -0.19485912 0.008064507
0.3242701 0.18621488 -0.07274154 0.28635612 0.19557941 -0.08576558 -0.29764894 -0.102381624
-0.07193998 -0.2064333 0.042886857 0.2619888 0.20867814 -0.40660647 0.32788572 -0.019725546
-0.051859353 0.14702734 0.35699937 -0.12597899 0.32608616 0.06145384 0.059072573 0.09830456
0.23113671 -0.1105998 -0.16831945 -0.3063852 0.09015541 -0.4032876 -0.18416886 0.48383397
-0.037823223 -0.13614579 -0.14427507 -0.20615532 0.11449029 0.2428373 0.16307245 -0.2143417
-0.13396674 0.009123431 -0.036896046 0.09447782 -0.011097398 0.4362693 -0.12462848 0.7572928
0.14398295 -0.11158209 0.19328912 0.13738607 -0.10146719 -0.11231608 -0.09060625 0.18634081
0.2345846 0.021087142 0.5047453 0.18167539 0.14848223 4.103429e-05 -0.016245427 0.11264594
0.2852995 -0.4172717 -0.30327648 0.15173358 0.38560596 -0.3546453 -0.060571875 -0.046707213
-0.0032306775 -0.31482458 -0.044922248 0.19017984 0.1538838 0.12734392 0.36189052 0.029884594
0.25884774 0.07694193 -0.16758193 -0.48003405 0.10232474 0.09266485 -0.051630314 0.58996934
00000000: 10d3 62be 7d9c 6abe d14a ee3e c73d 323e
00000010: 02ff 02bf a0eb 1fbe 3940 d2bc 2f4e 03bc
00000020: e05f 033e d86a 253e a302 28be 11bf 48be
00000030: 6585 59bd af1e 143e 4836 aebe f308 c33e
00000040: 17e2 433e 9cfa 133d c5d9 9b3e a460 61bd
00000050: 4309 c4be f42e afbe 6484 d53e 3e6f c13e
00000060: c150 b7bd 4773 293c fbd7 e7bd 82f7 a03e
00000070: a3ef 603d 7bf7 b73d b254 eabd 0782 c2be
00000080: 9895 553e 2fd7 59be ca2a 85be 83d9 3abe
00000090: 37d8 5f3e 2160 823c 8a09 613e f800 5e3e
000000a0: b386 283c 357b 813e bb62 e4bd 3177 ae3e
000000b0: 9b51 c2bd e991 9d3e 76ad 27bf 0c5e 953d
000000c0: 1538 023b f31c 1b3e 4587 c23e beb0 08be
000000d0: 82b1 5e3e e121 473e d677 b5be a9ac 5bbe
000000e0: 4b80 453d 1b96 253e 3370 e0be 723b 7bbe
000000f0: 4a04 0dbf 4fc2 3dbe d998 8e3d e981 863e
00000100: d84e babe ec2c ecbe e123 97be 12da a23e
00000110: 51ef 863d bd96 68be 0450 48bd bcec 92be
00000120: ca58 f23d 70aa 143f 2f0a 373e 3edb 4fbd
00000130: 17e7 f8bd cca0 88bd 1db1 793e 9cb1 443c
00000140: 4217 4bbd 5c60 a5be 48ee 68be 51cf fb3d
00000150: b44a b93d 3a44 1c3e eafe 0b3d 1460 213f
00000160: 872f 493d f04c 97be 3250 1ebd c0f5 853d
00000170: fb94 acbd d0e5 09bd c43e c73d 5d07 a33e
00000180: b7e9 2d3e 6277 c13b 7ba2 8d3e 6809 233d
00000190: 0138 0ebd 2ad0 3e3d 99d3 233d 4df6 14be
000001a0: 9f1d db3d 2b28 03bd ed0c 843e dbc3 393e
000001b0: 3de1 463e abe0 b53c e94d 953e bbf4 92bd
000001c0: d15f 8c3e d182 1dbd e35a 4cbe 4387 e0bc
000001d0: 248c e03d e766 123e 44b2 813e 261d cabe
000001e0: a3f1 34bd 310c fc3e a844 f93d 55a0 f03d
000001f0: 2e9b 82be b35d 9e3e 6173 9e3b df8e 88be
00000200: 8c90 adbe 9538 bebd ea47 d8bd 124f 92be
00000210: a9c4 34bd 1972 4abe fc35 943d 6eea b43a
00000220: f79a c2bd 5e5d debc 65a3 1bbd f6b8 a13e
00000230: da97 8ebb 6d67 163f 31dd 17bd 27ee e53d
00000240: cabf c4bd aade 743e 5334 a53c 7d21 75be
00000250: 05dd 653e 01f5 7d3d f7c0 1cbe 7fa6 b3be
00000260: 4478 f43d d609 06be 75ea 8c3e 0a7c 7bbe
00000270: fe3a 49be f142 0bbe 699d 65bd e6bc 83be
00000280: 9ed2 e23e 6dd3 6e3e c18b ce3c 01ad 35be
00000290: 6c1c 90be 6fe3 4b3e 2689 47be fe20 043c
000002a0: bb06 a63e 1daf 3e3e 84f9 94bd 459d 923e
000002b0: f845 483e dda5 afbd 7165 98be 75ad d1bd
000002c0: 4555 93bd 4063 53be 21aa 2f3d 6523 863e
000002d0: b9af 553e b92e d0be a3e0 a73e 7897 a1bc
000002e0: 796a 54bd 568e 163e 9fc8 b63e a300 01be
000002f0: c4f4 a63e 06b7 7b3d 15f6 713d e753 c93d
00000300: 1aaf 6c3e 2682 e2bd ef5b 2cbe 85de 9cbe
00000310: 66a3 b83d b67b cebe c396 3cbe 16b9 f73e
00000320: 86ec 1abd cd69 0bbe d8bc 13be 611a 53be
00000330: e379 ea3d 57aa 783e 77fc 263e 647c 5bbe
00000340: 942e 09be 717a 153c 4f20 17bd 967d c13d
00000350: dcd1 35bc b15e df3e 373d ffbd f1dd 413f
00000360: 4470 133e 2785 e4bd 95ed 453e efae 0c3e
00000370: 08ce cfbd f905 e6bd c58f b9bd 20d0 3e3e
00000380: f236 703e f1be ac3c fd36 013f 1d09 3a3e
00000390: ba0b 183e 3c1c 2c38 2115 85bc eab2 e63d
000003a0: c712 923e a3a4 d5be 0e47 9bbe 0c60 1b3e
000003b0: 256e c53e 1294 b5be 371a 78bd 1050 3fbd
000003c0: c6b9 53bb b030 a1be 6400 38bd 81be 423e
000003d0: b793 1d3e 7266 023e b749 b93e 89d0 f43c
000003e0: b187 843e bb93 9d3d 999a 2bbe 06c7 f5be
000003f0: a28f d13d 12c7 bd3d 4f7a 53bd 3b08 173f

bias f4 [16]
-0.043820433 -0.09901951 -0.14260346 -0.0672122 -0.2119219 -0.016029531 0.041539907 0.043181036
-0.02870245 0.06227135 0.05024927 -0.117358394 0.116046034 0.022633076 -0.025305929 -0.022057803
00000000: 0e7d 33bd beca cabd a406 12be 8da6 89bd
00000010: 0e02 59be 5d50 83bc c025 2a3d 99de 303d
00000020: 6721 ebbc 3e10 7f3d 2ed2 4d3d 9959 f0bd
00000030: 8ba9 ed3d 0069 b93c 614e cfbc 91b2 b4bc

weight f4 [16]
0.16720603 0.18129905 0.30235702 0.19412094 0.50099933 0.3175892 0.8130768 0.9206477
1.210719 1.1146208 1.2742813 0.9010463 1.2269931 1.2105706 1.4545271 1.1819487
00000000: 0f38 2b3e 75a6 393e 8ace 9a3e a4c7 463e
00000010: 7e41 003f 0d9b a23e cd25 503f 91af 6b3f
00000020: d7f8 9a3f e5ab 8e3f a61b a33f f8aa 663f
00000030: 1c0e 9d3f faf3 9a3f f22d ba3f 184a 973f

bias f4 [16]
-0.029808538 0.0284262 0.043868184 0.0031728733 0.31865487 0.011684605 0.09176639 0.061857335
0.060787853 0.0009260516 -0.05938325 0.15338765 -0.34004974 0.09592279 -0.033861402 -0.02684456
00000000: 0931 f4bc 10de e83c 20af 333d fbef 4f3b
00000010: bb26 a33e c970 3f3c 04f0 bb3d 1e5e 7d3d
00000020: affc 783d 45c2 723a da3b 73bd a711 1d3e
00000030: 001b aebe 2b73 c43d 41b2 0abd 1fe9 dbbc

weight f4 [16]
0.8610282 0.6604488 0.63341624 0.84231204 0.982121 0.5895526 0.9542481 0.93584436
1.0688246 0.90423846 1.2298414 0.8408414 1.3991891 1.0633472 1.1917278 1.0114291
00000000: 586c 5c3f 2c13 293f 9127 223f c3a1 573f
00000010: 486c 7b3f ebec 163f 9a49 743f 7f93 6f3f
00000020: 3fcf 883f 2c7c 673f 716b 9d3f 6241 573f
00000030: a118 b33f c31b 883f 898a 983f 8276 813f

bias f4 [16]
0.014583102 -0.0012674324 -0.07503838 -0.015233912 0.38398284 0.01074336 0.19204098 -0.031065907
0.086647734 -0.0134447375 0.068311594 0.022408126 -0.460965 -0.06145343 0.003416231 0.06595881
00000000: f7ed 6e3c f91f a6ba b9ad 99bd a897 79bc
00000010: 6699 c43e eb04 303c 64a6 443e ee7d febc
00000020: 5e74 b13d 5147 5cbc f3e6 8b3d 3f91 b73c
00000030: 9b03 ecbe 98b6 7bbd d8e2 5f3b 6a15 873d

in_proj_weight f4 [48, 16]
-0.24746096 -0.114177965 0.47323936 0.2930221 -0.49864954 0.10106449 -0.020792251 -0.15279199
-0.5329923 -0.0630775 0.14723265 0.13316348 0.12615134 -0.1861569 -0.09957385 0.225806
0.13737756 -0.19563767 -0.32938677 0.0014577253 -0.043363936 0.09798881 0.4677337 0.016102279
-0.23229797 0.50866866 0.40556023 -0.20143579 -0.35665867 0.02489188 -0.0883552 -0.17038928
0.52440363 -0.09361494 0.6012609 -0.054913852 0.23912655 -0.49698856 -0.046172343 -0.10623644
-0.34421122 -0.22790782 -0.008766824 -0.14950186 -0.17824067 0.013345214 0.5927119 -0.22872025
0.34957564 -0.73407304 -0.026307236 0.16865267 0.08662855 -0.030045163 -0.6685253 -0.17247789
-0.4515797 0.3864157 0.36955905 0.14725514 0.083805256 0.28390294 0.10277774 0.08985793
0.74439865 0.4521823 0.4771335 0.39244676 0.08247349 -0.1763536 -0.25733408 -0.14176708
0.029092439 -0.4693244 -0.46828127 -0.07068292 0.23582597 0.34147513 -0.12663724 -0.3986956
-0.5890647 0.2964078 0.43277052 0.13440837 -0.27737805 0.112473674 0.28890592 -0.07952392
0.21251214 -0.42594296 0.007339652 -0.5841911 0.32989287 -0.252611 -0.06693303 0.24542828
-0.05537195 0.08862463 0.14475286 -0.14125192 -0.2411617 -0.0021217042 0.1563878 0.16104469
0.057950895 0.015976837 0.17559126 -0.1746672 -0.36833358 0.46818784 -0.2138485 0.3170354
-0.35400188 0.41060436 0.05446407 0.084117524 -0.29734337 0.21690015 0.34298566 0.31288815
0.03524915 0.15496194 -0.55670786 -0.20509583 -0.101097755 -0.52285546 0.66184527 0.1587571
-0.101120226 -0.10015091 -0.054802634 0.1616594 -0.14009397 -0.29297307 -0.25579092 -0.27769375
0.022072367 -0.14393993 0.37226045 0.62094325 0.17334859 0.23016813 -0.15825154 0.015288478
-0.33719024 -0.32804996 -0.18459582 0.7047343 0.17462042 -0.44458666 -0.21275191 -0.07074099
0.2082667 0.22435087 0.07031607 0.33195868 -0.08595338 0.3545922 0.13502051 -0.15512803
-0.021549469 0.2613385 -0.111655235 -0.44408712 -0.32593688 0.09729349 0.038020726 0.12590697
-0.31990573 0.33441898 0.40720648 -0.0054479367 0.06855514 0.12139462 0.06547216 0.5485476
0.0047505824 0.21410686 -0.06799307 0.14833108 -0.10613322 0.33648613 -0.17805986 -0.46775
-0.13871361 0.062280767 -0.18408293 0.35559732 0.10793962 0.27146882 0.15413867 -0.09637595
-0.07143304 -0.15553989 0.22193514 0.26551053 -0.23002297 -0.20237295 -0.41071564 -0.24052596
-0.085451856 0.29523906 -0.15224288 -0.41851008 -0.12694946 -0.359379 0.5561915 -0.3738527
0.60008955 0.30410388 0.15054817 0.08964568 -0.083466284 -0.2763726 -0.098733425 0.4809154
-0.67951727 -0.00062454893 -0.10908897 0.12652728 -0.20765999 -0.35603642 0.42980745 -1.1209506
0.23443452 0.32711893 -0.41428536 -0.1655846 -0.07846358 0.2205961 -0.3750071 0.005723083
0.23649259 0.5585065 0.0001299148 0.2276427 -0.13228591 -0.07961304 0.103201635 0.21741489
0.09267568 0.27138177 0.20221673 0.09054854 -0.13478078 0.39147618 0.25303465 -0.27302042
0.00038690903 -0.31263575 0.21354197 -0.097295135 -0.08241637 -0.026536986 0.7363559 -0.23871283
00000000: 6866 7dbe 23d6 e9bd 6e4c f23e fe06 963e
00000010: fe4e ffbe e6fa ce3d 8354 aabc 8175 1cbe
00000020: 2f72 08bf c72e 81bd 28c4 163e 025c 083e
00000030: d12d 013e ea9f 3ebe 60ed cbbd b039 673e
00000040: b4ac 0c3e 3e55 48be 62a5 a8be 2511 bf3a
00000050: 629e 31bd 5bae c83d cb7a ef3e ede8 833c
00000060: 85df 6dbe 1c38 023f 97a5 cf3e 2f45 4ebe
00000070: f79b b6be 0eea cb3c 92f3 b4bd 877a 2ebe
00000080: 513f 063f 31b9 bfbd 3cec 193f 59ed 60bd
00000090: 97dd 743e 4975 febe 361f 3dbd 7e92 d9bd
000000a0: 743c b0be ab60 69be baa2 0fbc 0417 19be
000000b0: b984 36be e2a5 5a3c f8bb 173f a435 6abe
000000c0: 94fb b23e 36ec 3bbf 4682 d7bc 49b3 2c3e
000000d0: 4f6a b13d 4621 f6bc 7924 2bbf 0b9e 30be
000000e0: 7435 e7be 47d8 c53e d836 bd3e 0dca 163e
000000f0: 17a2 ab3d ba5b 913e 237d d23d 6f07 b83d
00000100: e990 3e3f 7084 e73e d84a f43e c8ee c83e
00000110: dce7 a83d 0a96 34be 4bc1 83be 642b 11be
00000120: 4453 ee3c 4a4b f0be 90c2 efbe 35c2 90bd
00000130: 5d7c 713e d4d5 ae3e 31ad 01be d421 ccbe
00000140: f2cc 16bf c3c2 973e 1994 dd3e 59a2 093e
00000150: 7f04 8ebe 9958 e63d 7aeb 933e 70dd a2bd
00000160: c89c 593e 3215 dabe 7781 f03b 8c8d 15bf
00000170: b8e7 a83e 3b56 81be 2f14 89bd 8d51 7b3e
00000180: b3cd 62bd d480 b53d 183a 143e 58a4 10be
00000190: 18f3 76be 4a0c 0bbb 2024 203e e6e8 243e
000001a0: eb5d 6d3d dbe1 823c 32ce 333e f5db 32be
000001b0: 3896 bcbe 51b6 ef3e 1afb 5abe 7752 a23e
000001c0: bc3f b5be bc3a d23e b715 5f3d cf45 ac3d
000001d0: 643d 98be 131b 5e3e d19b af3e e032 a03e
000001e0: 6a61 103d 58ae 1e3e 6884 0ebf a404 52be
000001f0: 570c cfbd dbd9 05bf b16e 293f 3991 223e
00000200: 1f18 cfbd ec1b cdbd ba78 60bd 0b8a 253e
00000210: cb74 0fbe 9100 96be 07f7 82be e02d 8ebe
00000220: 1cd1 b43c fd64 13be ec98 be3e 23f6 1e3f
00000230: 4b82 313e 32b1 6b3e b10c 22be 867c 7a3c
00000240: 33a4 acbe 2af6 a7be b006 3dbe 7869 343f
00000250: b2cf 323e dda0 e3be a3db 59be a7e0 90bd
00000260: de43 553e 3cbc 653e df01 903d 7df6 a93e
00000270: 5308 b0bd 1c8d b53e d142 0a3e e2d9 1ebe
00000280: 8388 b0bc 29ce 853e 80ab e4bd 635f e3be
00000290: 33e1 a6be cf41 c73d 9fbb 1b3d c2ed 003e
000002a0: afca a3be f738 ab3e 5e7d d03e 9b84 b2bb
000002b0: a366 8c3d be9d f83d 4516 863d 9e6d 0c3f
000002c0: c6aa 9b3b d43e 5b3e f33f 8bbd 1ae4 173e
000002d0: 605c d9bd e947 ac3e 5355 36be ee7c efbe
000002e0: f10a 0ebe 1e1a 7f3d 3c80 3cbe da10 b63e
000002f0: 730f dd3d f6fd 8a3e 87d6 1d3e c160 c5bd
00000300: 7c4b 92bd d945 1fbe f742 633e fff0 873e
00000310: 248b 6bbe db3a 4fbe 5249 d2be 704c 76be
00000320: 6201 afbd 9329 973e 8fe5 1bbe f446 d6be
00000330: 0aff 01be 8600 b8be 9162 0e3f 9f69 bfbe
00000340: 789f 193f 81b3 9b3e 4d29 1a3e 2798 b73d
00000350: 5ff0 aabd b680 8dbe c034 cabd 8b3a f63e
00000360: d8f4 2dbf c5b8 23ba 0a6a dfbd 5e90 013e
00000370: d2a4 54be 684a b6be b90f dc3e 4f7b 8fbf
00000380: 9a0f 703e 227c a73e 361d d4be 028f 29be
00000390: 83b1 a0bd f2e3 613e ee00 c0be b388 bb3b
000003a0: 1d2b 723e 48fa 0e3f bd39 0839 2b1b 693e
000003b0: f575 07be 290c a3bd 615b d33d 02a2 5e3e
000003c0: bfcc bd3d 8df2 8a3e e711 4f3e 8371 b93d
000003d0: f903 0abe 916f c83e c28d 813e 55c9 8bbe
000003e0: 0dda ca39 cb11 a0be bfaa 5a3e ac42 c7bd
000003f0: eac9 a8bd 1864 d9bc d281 3c3f 2371 74be

in_proj_bias f4 [48]
0.081748776 -0.16203438 0.08937966 -0.0010105676 0.093301095 -0.076028496 0.17767616 -0.13334566
-0.15909404 0.07671688 -0.01191551 -0.1862146 -0.09487287 0.1679186 -0.04281525 -0.10764098
-0.0064337836 0.0070494106 0.0049158446 -0.011812865 -0.005564081 0.004574448 -0.01612788 0.007730526
0.0021376805 -0.0050399825 0.010038178 -0.0012968172 -0.006342064 0.0068776733 -0.012927543 -0.010282823
0.055094324 0.052117806 -0.040211085 -0.061085552 0.03623835 0.05820749 0.036719568 -0.08571248
0.05454047 -0.028720314 -0.09674277 -0.0068339077 0.05344991 0.052492656 0.049518883 0.03086818
00000000: e76b a73d 57ec 25be af0c b73d 0675 84ba
00000010: a514 bf3d d4b4 9bbd bdf0 353e c48b 08be
00000020: 8ce9 22be bd1d 9d3d 4539 43bc 0aaf 3ebe
00000030: b54c c2bd daf2 2b3e 0b5f 2fbd e072 dcbd
00000040: 7dd2 d2bb befe e63b 1815 a13b bf8a 41bc
00000050: e552 b6bb 40e5 953b 9e1e 84bc 5a50 fd3b
00000060: 5418 0c3b 7026 a5bb 2c77 243c f7f9 a9ba
00000070: 17d1 cfbb 1b5e e13b 0cce 53bc 4979 28bc
00000080: 96aa 613d 7b79 553d 61b4 24bd d834 7abd
00000090: aa6e 143d fa6a 6e3d 4267 163d 068a afbd
000000a0: d465 5f3d dd46 ebbc 1321 c6bd f9ee dfbb
000000b0: 4bee 5a3d 8a02 573d 50d4 4a3d 44df fc3c
